<?xml version="1.0" ?>
<net name="dualpath_singlelead_2s" version="10">
	<layers>
		<layer id="0" name="inputs" type="Parameter" version="opset1">
			<data element_type="f16" shape="1, 1008, 1"/>
			<output>
				<port id="0" names="inputs:0" precision="FP16">
					<dim>1</dim>
					<dim>1008</dim>
					<dim>1</dim>
				</port>
			</output>
		</layer>
		<layer id="1" name="conv1d/conv1d/ExpandDims/dim" type="Const" version="opset1">
			<data element_type="i64" offset="0" shape="1" size="8"/>
			<output>
				<port id="0" names="conv1d/conv1d/ExpandDims/dim:0" precision="I64">
					<dim>1</dim>
				</port>
			</output>
		</layer>
		<layer id="2" name="conv1d/conv1d/ExpandDims" type="Unsqueeze" version="opset1">
			<input>
				<port id="0" precision="FP16">
					<dim>1</dim>
					<dim>1008</dim>
					<dim>1</dim>
				</port>
				<port id="1" precision="I64">
					<dim>1</dim>
				</port>
			</input>
			<output>
				<port id="2" precision="FP16">
					<dim>1</dim>
					<dim>1</dim>
					<dim>1008</dim>
					<dim>1</dim>
				</port>
			</output>
		</layer>
		<layer id="3" name="conv1d/conv1d/ExpandDims/Transpose/value3403675202" type="Const" version="opset1">
			<data element_type="i64" offset="8" shape="4" size="32"/>
			<output>
				<port id="0" precision="I64">
					<dim>4</dim>
				</port>
			</output>
		</layer>
		<layer id="4" name="conv1d/conv1d/ExpandDims/Transpose" type="Transpose" version="opset1">
			<input>
				<port id="0" precision="FP16">
					<dim>1</dim>
					<dim>1</dim>
					<dim>1008</dim>
					<dim>1</dim>
				</port>
				<port id="1" precision="I64">
					<dim>4</dim>
				</port>
			</input>
			<output>
				<port id="2" names="conv1d/conv1d/ExpandDims:0" precision="FP16">
					<dim>1</dim>
					<dim>1</dim>
					<dim>1</dim>
					<dim>1008</dim>
				</port>
			</output>
		</layer>
		<layer id="5" name="conv1d/conv1d/ExpandDims_1" type="Const" version="opset1">
			<data element_type="f16" offset="40" shape="9, 1, 1, 3" size="54"/>
			<output>
				<port id="0" names="conv1d/conv1d/ExpandDims_1:0" precision="FP16">
					<dim>9</dim>
					<dim>1</dim>
					<dim>1</dim>
					<dim>3</dim>
				</port>
			</output>
		</layer>
		<layer id="6" name="conv1d/conv1d" type="Convolution" version="opset1">
			<data auto_pad="same_upper" dilations="1, 1" pads_begin="0, 1" pads_end="0, 1" strides="1, 1"/>
			<input>
				<port id="0" precision="FP16">
					<dim>1</dim>
					<dim>1</dim>
					<dim>1</dim>
					<dim>1008</dim>
				</port>
				<port id="1" precision="FP16">
					<dim>9</dim>
					<dim>1</dim>
					<dim>1</dim>
					<dim>3</dim>
				</port>
			</input>
			<output>
				<port id="2" precision="FP16">
					<dim>1</dim>
					<dim>9</dim>
					<dim>1</dim>
					<dim>1008</dim>
				</port>
			</output>
		</layer>
		<layer id="7" name="Constant_4441" type="Const" version="opset1">
			<data element_type="i64" offset="94" shape="1" size="8"/>
			<output>
				<port id="0" precision="I64">
					<dim>1</dim>
				</port>
			</output>
		</layer>
		<layer id="8" name="Squeeze_4442" type="Squeeze" version="opset1">
			<input>
				<port id="0" precision="FP16">
					<dim>1</dim>
					<dim>9</dim>
					<dim>1</dim>
					<dim>1008</dim>
				</port>
				<port id="1" precision="I64">
					<dim>1</dim>
				</port>
			</input>
			<output>
				<port id="2" names="conv1d/conv1d/Squeeze:0" precision="FP16">
					<dim>1</dim>
					<dim>9</dim>
					<dim>1008</dim>
				</port>
			</output>
		</layer>
		<layer id="9" name="Constant_4443" type="Const" version="opset1">
			<data element_type="i64" offset="102" shape="3" size="24"/>
			<output>
				<port id="0" precision="I64">
					<dim>3</dim>
				</port>
			</output>
		</layer>
		<layer id="10" name="conv1d/conv1d/Squeeze" type="Transpose" version="opset1">
			<input>
				<port id="0" precision="FP16">
					<dim>1</dim>
					<dim>9</dim>
					<dim>1008</dim>
				</port>
				<port id="1" precision="I64">
					<dim>3</dim>
				</port>
			</input>
			<output>
				<port id="2" precision="FP16">
					<dim>1</dim>
					<dim>1008</dim>
					<dim>9</dim>
				</port>
			</output>
		</layer>
		<layer id="11" name="data_mul_2527025274" type="Const" version="opset1">
			<data element_type="f16" offset="126" shape="1, 1, 9" size="18"/>
			<output>
				<port id="0" precision="FP16">
					<dim>1</dim>
					<dim>1</dim>
					<dim>9</dim>
				</port>
			</output>
		</layer>
		<layer id="12" name="batch_normalization/batchnorm/mul_1/Fused_Mul_" type="Multiply" version="opset1">
			<data auto_broadcast="numpy"/>
			<input>
				<port id="0" precision="FP16">
					<dim>1</dim>
					<dim>1008</dim>
					<dim>9</dim>
				</port>
				<port id="1" precision="FP16">
					<dim>1</dim>
					<dim>1</dim>
					<dim>9</dim>
				</port>
			</input>
			<output>
				<port id="2" precision="FP16">
					<dim>1</dim>
					<dim>1008</dim>
					<dim>9</dim>
				</port>
			</output>
		</layer>
		<layer id="13" name="data_add_2527125276" type="Const" version="opset1">
			<data element_type="f16" offset="144" shape="1, 1, 9" size="18"/>
			<output>
				<port id="0" precision="FP16">
					<dim>1</dim>
					<dim>1</dim>
					<dim>9</dim>
				</port>
			</output>
		</layer>
		<layer id="14" name="conv1d/BiasAdd/Add/Fused_Add_" type="Add" version="opset1">
			<data auto_broadcast="numpy"/>
			<input>
				<port id="0" precision="FP16">
					<dim>1</dim>
					<dim>1008</dim>
					<dim>9</dim>
				</port>
				<port id="1" precision="FP16">
					<dim>1</dim>
					<dim>1</dim>
					<dim>9</dim>
				</port>
			</input>
			<output>
				<port id="2" names="batch_normalization/batchnorm/add_1:0" precision="FP16">
					<dim>1</dim>
					<dim>1008</dim>
					<dim>9</dim>
				</port>
			</output>
		</layer>
		<layer id="15" name="activation/Relu" type="ReLU" version="opset1">
			<input>
				<port id="0" precision="FP16">
					<dim>1</dim>
					<dim>1008</dim>
					<dim>9</dim>
				</port>
			</input>
			<output>
				<port id="1" names="activation/Relu:0" precision="FP16">
					<dim>1</dim>
					<dim>1008</dim>
					<dim>9</dim>
				</port>
			</output>
		</layer>
		<layer id="16" name="conv1d_1/conv1d/ExpandDims/dim" type="Const" version="opset1">
			<data element_type="i64" offset="0" shape="1" size="8"/>
			<output>
				<port id="0" names="conv1d_1/conv1d/ExpandDims/dim:0" precision="I64">
					<dim>1</dim>
				</port>
			</output>
		</layer>
		<layer id="17" name="conv1d_1/conv1d/ExpandDims" type="Unsqueeze" version="opset1">
			<input>
				<port id="0" precision="FP16">
					<dim>1</dim>
					<dim>1008</dim>
					<dim>9</dim>
				</port>
				<port id="1" precision="I64">
					<dim>1</dim>
				</port>
			</input>
			<output>
				<port id="2" precision="FP16">
					<dim>1</dim>
					<dim>1</dim>
					<dim>1008</dim>
					<dim>9</dim>
				</port>
			</output>
		</layer>
		<layer id="18" name="conv1d_1/conv1d/ExpandDims/Transpose/value3404076027" type="Const" version="opset1">
			<data element_type="i64" offset="8" shape="4" size="32"/>
			<output>
				<port id="0" precision="I64">
					<dim>4</dim>
				</port>
			</output>
		</layer>
		<layer id="19" name="conv1d_1/conv1d/ExpandDims/Transpose" type="Transpose" version="opset1">
			<input>
				<port id="0" precision="FP16">
					<dim>1</dim>
					<dim>1</dim>
					<dim>1008</dim>
					<dim>9</dim>
				</port>
				<port id="1" precision="I64">
					<dim>4</dim>
				</port>
			</input>
			<output>
				<port id="2" names="conv1d_1/conv1d/ExpandDims:0" precision="FP16">
					<dim>1</dim>
					<dim>9</dim>
					<dim>1</dim>
					<dim>1008</dim>
				</port>
			</output>
		</layer>
		<layer id="20" name="conv1d_1/conv1d/ExpandDims_1" type="Const" version="opset1">
			<data element_type="f16" offset="162" shape="9, 9, 1, 3" size="486"/>
			<output>
				<port id="0" names="conv1d_1/conv1d/ExpandDims_1:0" precision="FP16">
					<dim>9</dim>
					<dim>9</dim>
					<dim>1</dim>
					<dim>3</dim>
				</port>
			</output>
		</layer>
		<layer id="21" name="conv1d_1/conv1d" type="Convolution" version="opset1">
			<data auto_pad="same_upper" dilations="1, 1" pads_begin="0, 1" pads_end="0, 1" strides="1, 1"/>
			<input>
				<port id="0" precision="FP16">
					<dim>1</dim>
					<dim>9</dim>
					<dim>1</dim>
					<dim>1008</dim>
				</port>
				<port id="1" precision="FP16">
					<dim>9</dim>
					<dim>9</dim>
					<dim>1</dim>
					<dim>3</dim>
				</port>
			</input>
			<output>
				<port id="2" precision="FP16">
					<dim>1</dim>
					<dim>9</dim>
					<dim>1</dim>
					<dim>1008</dim>
				</port>
			</output>
		</layer>
		<layer id="22" name="Constant_4448" type="Const" version="opset1">
			<data element_type="i64" offset="94" shape="1" size="8"/>
			<output>
				<port id="0" precision="I64">
					<dim>1</dim>
				</port>
			</output>
		</layer>
		<layer id="23" name="Squeeze_4449" type="Squeeze" version="opset1">
			<input>
				<port id="0" precision="FP16">
					<dim>1</dim>
					<dim>9</dim>
					<dim>1</dim>
					<dim>1008</dim>
				</port>
				<port id="1" precision="I64">
					<dim>1</dim>
				</port>
			</input>
			<output>
				<port id="2" names="conv1d_1/conv1d/Squeeze:0" precision="FP16">
					<dim>1</dim>
					<dim>9</dim>
					<dim>1008</dim>
				</port>
			</output>
		</layer>
		<layer id="24" name="Constant_4450" type="Const" version="opset1">
			<data element_type="i64" offset="102" shape="3" size="24"/>
			<output>
				<port id="0" precision="I64">
					<dim>3</dim>
				</port>
			</output>
		</layer>
		<layer id="25" name="conv1d_1/conv1d/Squeeze" type="Transpose" version="opset1">
			<input>
				<port id="0" precision="FP16">
					<dim>1</dim>
					<dim>9</dim>
					<dim>1008</dim>
				</port>
				<port id="1" precision="I64">
					<dim>3</dim>
				</port>
			</input>
			<output>
				<port id="2" precision="FP16">
					<dim>1</dim>
					<dim>1008</dim>
					<dim>9</dim>
				</port>
			</output>
		</layer>
		<layer id="26" name="data_mul_2527825282" type="Const" version="opset1">
			<data element_type="f16" offset="648" shape="1, 1, 9" size="18"/>
			<output>
				<port id="0" precision="FP16">
					<dim>1</dim>
					<dim>1</dim>
					<dim>9</dim>
				</port>
			</output>
		</layer>
		<layer id="27" name="batch_normalization_1/batchnorm/mul_1/Fused_Mul_" type="Multiply" version="opset1">
			<data auto_broadcast="numpy"/>
			<input>
				<port id="0" precision="FP16">
					<dim>1</dim>
					<dim>1008</dim>
					<dim>9</dim>
				</port>
				<port id="1" precision="FP16">
					<dim>1</dim>
					<dim>1</dim>
					<dim>9</dim>
				</port>
			</input>
			<output>
				<port id="2" precision="FP16">
					<dim>1</dim>
					<dim>1008</dim>
					<dim>9</dim>
				</port>
			</output>
		</layer>
		<layer id="28" name="data_add_2527925284" type="Const" version="opset1">
			<data element_type="f16" offset="666" shape="1, 1, 9" size="18"/>
			<output>
				<port id="0" precision="FP16">
					<dim>1</dim>
					<dim>1</dim>
					<dim>9</dim>
				</port>
			</output>
		</layer>
		<layer id="29" name="conv1d_1/BiasAdd/Add/Fused_Add_" type="Add" version="opset1">
			<data auto_broadcast="numpy"/>
			<input>
				<port id="0" precision="FP16">
					<dim>1</dim>
					<dim>1008</dim>
					<dim>9</dim>
				</port>
				<port id="1" precision="FP16">
					<dim>1</dim>
					<dim>1</dim>
					<dim>9</dim>
				</port>
			</input>
			<output>
				<port id="2" names="batch_normalization_1/batchnorm/add_1:0" precision="FP16">
					<dim>1</dim>
					<dim>1008</dim>
					<dim>9</dim>
				</port>
			</output>
		</layer>
		<layer id="30" name="activation_1/Relu" type="ReLU" version="opset1">
			<input>
				<port id="0" precision="FP16">
					<dim>1</dim>
					<dim>1008</dim>
					<dim>9</dim>
				</port>
			</input>
			<output>
				<port id="1" names="activation_1/Relu:0" precision="FP16">
					<dim>1</dim>
					<dim>1008</dim>
					<dim>9</dim>
				</port>
			</output>
		</layer>
		<layer id="31" name="conv1d_2/conv1d/ExpandDims/dim" type="Const" version="opset1">
			<data element_type="i64" offset="0" shape="1" size="8"/>
			<output>
				<port id="0" names="conv1d_2/conv1d/ExpandDims/dim:0" precision="I64">
					<dim>1</dim>
				</port>
			</output>
		</layer>
		<layer id="32" name="conv1d_2/conv1d/ExpandDims" type="Unsqueeze" version="opset1">
			<input>
				<port id="0" precision="FP16">
					<dim>1</dim>
					<dim>1008</dim>
					<dim>9</dim>
				</port>
				<port id="1" precision="I64">
					<dim>1</dim>
				</port>
			</input>
			<output>
				<port id="2" precision="FP16">
					<dim>1</dim>
					<dim>1</dim>
					<dim>1008</dim>
					<dim>9</dim>
				</port>
			</output>
		</layer>
		<layer id="33" name="conv1d_2/conv1d/ExpandDims/Transpose/value3404476612" type="Const" version="opset1">
			<data element_type="i64" offset="8" shape="4" size="32"/>
			<output>
				<port id="0" precision="I64">
					<dim>4</dim>
				</port>
			</output>
		</layer>
		<layer id="34" name="conv1d_2/conv1d/ExpandDims/Transpose" type="Transpose" version="opset1">
			<input>
				<port id="0" precision="FP16">
					<dim>1</dim>
					<dim>1</dim>
					<dim>1008</dim>
					<dim>9</dim>
				</port>
				<port id="1" precision="I64">
					<dim>4</dim>
				</port>
			</input>
			<output>
				<port id="2" names="conv1d_2/conv1d/ExpandDims:0" precision="FP16">
					<dim>1</dim>
					<dim>9</dim>
					<dim>1</dim>
					<dim>1008</dim>
				</port>
			</output>
		</layer>
		<layer id="35" name="conv1d_2/conv1d/ExpandDims_1" type="Const" version="opset1">
			<data element_type="f16" offset="684" shape="9, 9, 1, 3" size="486"/>
			<output>
				<port id="0" names="conv1d_2/conv1d/ExpandDims_1:0" precision="FP16">
					<dim>9</dim>
					<dim>9</dim>
					<dim>1</dim>
					<dim>3</dim>
				</port>
			</output>
		</layer>
		<layer id="36" name="conv1d_2/conv1d" type="Convolution" version="opset1">
			<data auto_pad="same_upper" dilations="1, 1" pads_begin="0, 1" pads_end="0, 1" strides="1, 1"/>
			<input>
				<port id="0" precision="FP16">
					<dim>1</dim>
					<dim>9</dim>
					<dim>1</dim>
					<dim>1008</dim>
				</port>
				<port id="1" precision="FP16">
					<dim>9</dim>
					<dim>9</dim>
					<dim>1</dim>
					<dim>3</dim>
				</port>
			</input>
			<output>
				<port id="2" precision="FP16">
					<dim>1</dim>
					<dim>9</dim>
					<dim>1</dim>
					<dim>1008</dim>
				</port>
			</output>
		</layer>
		<layer id="37" name="Constant_4455" type="Const" version="opset1">
			<data element_type="i64" offset="94" shape="1" size="8"/>
			<output>
				<port id="0" precision="I64">
					<dim>1</dim>
				</port>
			</output>
		</layer>
		<layer id="38" name="Squeeze_4456" type="Squeeze" version="opset1">
			<input>
				<port id="0" precision="FP16">
					<dim>1</dim>
					<dim>9</dim>
					<dim>1</dim>
					<dim>1008</dim>
				</port>
				<port id="1" precision="I64">
					<dim>1</dim>
				</port>
			</input>
			<output>
				<port id="2" names="conv1d_2/conv1d/Squeeze:0" precision="FP16">
					<dim>1</dim>
					<dim>9</dim>
					<dim>1008</dim>
				</port>
			</output>
		</layer>
		<layer id="39" name="Constant_4457" type="Const" version="opset1">
			<data element_type="i64" offset="102" shape="3" size="24"/>
			<output>
				<port id="0" precision="I64">
					<dim>3</dim>
				</port>
			</output>
		</layer>
		<layer id="40" name="conv1d_2/conv1d/Squeeze" type="Transpose" version="opset1">
			<input>
				<port id="0" precision="FP16">
					<dim>1</dim>
					<dim>9</dim>
					<dim>1008</dim>
				</port>
				<port id="1" precision="I64">
					<dim>3</dim>
				</port>
			</input>
			<output>
				<port id="2" precision="FP16">
					<dim>1</dim>
					<dim>1008</dim>
					<dim>9</dim>
				</port>
			</output>
		</layer>
		<layer id="41" name="data_mul_2528625290" type="Const" version="opset1">
			<data element_type="f16" offset="1170" shape="1, 1, 9" size="18"/>
			<output>
				<port id="0" precision="FP16">
					<dim>1</dim>
					<dim>1</dim>
					<dim>9</dim>
				</port>
			</output>
		</layer>
		<layer id="42" name="batch_normalization_2/batchnorm/mul_1/Fused_Mul_" type="Multiply" version="opset1">
			<data auto_broadcast="numpy"/>
			<input>
				<port id="0" precision="FP16">
					<dim>1</dim>
					<dim>1008</dim>
					<dim>9</dim>
				</port>
				<port id="1" precision="FP16">
					<dim>1</dim>
					<dim>1</dim>
					<dim>9</dim>
				</port>
			</input>
			<output>
				<port id="2" precision="FP16">
					<dim>1</dim>
					<dim>1008</dim>
					<dim>9</dim>
				</port>
			</output>
		</layer>
		<layer id="43" name="data_add_2528725292" type="Const" version="opset1">
			<data element_type="f16" offset="1188" shape="1, 1, 9" size="18"/>
			<output>
				<port id="0" precision="FP16">
					<dim>1</dim>
					<dim>1</dim>
					<dim>9</dim>
				</port>
			</output>
		</layer>
		<layer id="44" name="conv1d_2/BiasAdd/Add/Fused_Add_" type="Add" version="opset1">
			<data auto_broadcast="numpy"/>
			<input>
				<port id="0" precision="FP16">
					<dim>1</dim>
					<dim>1008</dim>
					<dim>9</dim>
				</port>
				<port id="1" precision="FP16">
					<dim>1</dim>
					<dim>1</dim>
					<dim>9</dim>
				</port>
			</input>
			<output>
				<port id="2" names="batch_normalization_2/batchnorm/add_1:0" precision="FP16">
					<dim>1</dim>
					<dim>1008</dim>
					<dim>9</dim>
				</port>
			</output>
		</layer>
		<layer id="45" name="activation_2/Relu" type="ReLU" version="opset1">
			<input>
				<port id="0" precision="FP16">
					<dim>1</dim>
					<dim>1008</dim>
					<dim>9</dim>
				</port>
			</input>
			<output>
				<port id="1" names="activation_2/Relu:0" precision="FP16">
					<dim>1</dim>
					<dim>1008</dim>
					<dim>9</dim>
				</port>
			</output>
		</layer>
		<layer id="46" name="add/add" type="Add" version="opset1">
			<data auto_broadcast="numpy"/>
			<input>
				<port id="0" precision="FP16">
					<dim>1</dim>
					<dim>1008</dim>
					<dim>9</dim>
				</port>
				<port id="1" precision="FP16">
					<dim>1</dim>
					<dim>1008</dim>
					<dim>1</dim>
				</port>
			</input>
			<output>
				<port id="2" names="add/add:0" precision="FP16">
					<dim>1</dim>
					<dim>1008</dim>
					<dim>9</dim>
				</port>
			</output>
		</layer>
		<layer id="47" name="embedding/conv1d/ExpandDims/dim" type="Const" version="opset1">
			<data element_type="i64" offset="0" shape="1" size="8"/>
			<output>
				<port id="0" names="embedding/conv1d/ExpandDims/dim:0" precision="I64">
					<dim>1</dim>
				</port>
			</output>
		</layer>
		<layer id="48" name="embedding/conv1d/ExpandDims" type="Unsqueeze" version="opset1">
			<input>
				<port id="0" precision="FP16">
					<dim>1</dim>
					<dim>1008</dim>
					<dim>9</dim>
				</port>
				<port id="1" precision="I64">
					<dim>1</dim>
				</port>
			</input>
			<output>
				<port id="2" precision="FP16">
					<dim>1</dim>
					<dim>1</dim>
					<dim>1008</dim>
					<dim>9</dim>
				</port>
			</output>
		</layer>
		<layer id="49" name="embedding/conv1d/ExpandDims/Transpose/value3404876165" type="Const" version="opset1">
			<data element_type="i64" offset="8" shape="4" size="32"/>
			<output>
				<port id="0" precision="I64">
					<dim>4</dim>
				</port>
			</output>
		</layer>
		<layer id="50" name="embedding/conv1d/ExpandDims/Transpose" type="Transpose" version="opset1">
			<input>
				<port id="0" precision="FP16">
					<dim>1</dim>
					<dim>1</dim>
					<dim>1008</dim>
					<dim>9</dim>
				</port>
				<port id="1" precision="I64">
					<dim>4</dim>
				</port>
			</input>
			<output>
				<port id="2" names="embedding/conv1d/ExpandDims:0" precision="FP16">
					<dim>1</dim>
					<dim>9</dim>
					<dim>1</dim>
					<dim>1008</dim>
				</port>
			</output>
		</layer>
		<layer id="51" name="embedding/conv1d/ExpandDims_1" type="Const" version="opset1">
			<data element_type="f16" offset="1206" shape="128, 9, 1, 16" size="36864"/>
			<output>
				<port id="0" names="embedding/conv1d/ExpandDims_1:0" precision="FP16">
					<dim>128</dim>
					<dim>9</dim>
					<dim>1</dim>
					<dim>16</dim>
				</port>
			</output>
		</layer>
		<layer id="52" name="embedding/conv1d" type="Convolution" version="opset1">
			<data auto_pad="valid" dilations="1, 1" pads_begin="0, 0" pads_end="0, 0" strides="1, 16"/>
			<input>
				<port id="0" precision="FP16">
					<dim>1</dim>
					<dim>9</dim>
					<dim>1</dim>
					<dim>1008</dim>
				</port>
				<port id="1" precision="FP16">
					<dim>128</dim>
					<dim>9</dim>
					<dim>1</dim>
					<dim>16</dim>
				</port>
			</input>
			<output>
				<port id="2" precision="FP16">
					<dim>1</dim>
					<dim>128</dim>
					<dim>1</dim>
					<dim>63</dim>
				</port>
			</output>
		</layer>
		<layer id="53" name="Constant_4462" type="Const" version="opset1">
			<data element_type="i64" offset="94" shape="1" size="8"/>
			<output>
				<port id="0" precision="I64">
					<dim>1</dim>
				</port>
			</output>
		</layer>
		<layer id="54" name="Squeeze_4463" type="Squeeze" version="opset1">
			<input>
				<port id="0" precision="FP16">
					<dim>1</dim>
					<dim>128</dim>
					<dim>1</dim>
					<dim>63</dim>
				</port>
				<port id="1" precision="I64">
					<dim>1</dim>
				</port>
			</input>
			<output>
				<port id="2" names="embedding/conv1d/Squeeze:0" precision="FP16">
					<dim>1</dim>
					<dim>128</dim>
					<dim>63</dim>
				</port>
			</output>
		</layer>
		<layer id="55" name="Constant_4464" type="Const" version="opset1">
			<data element_type="i64" offset="102" shape="3" size="24"/>
			<output>
				<port id="0" precision="I64">
					<dim>3</dim>
				</port>
			</output>
		</layer>
		<layer id="56" name="embedding/conv1d/Squeeze" type="Transpose" version="opset1">
			<input>
				<port id="0" precision="FP16">
					<dim>1</dim>
					<dim>128</dim>
					<dim>63</dim>
				</port>
				<port id="1" precision="I64">
					<dim>3</dim>
				</port>
			</input>
			<output>
				<port id="2" precision="FP16">
					<dim>1</dim>
					<dim>63</dim>
					<dim>128</dim>
				</port>
			</output>
		</layer>
		<layer id="57" name="embedding/BiasAdd/ReadVariableOp" type="Const" version="opset1">
			<data element_type="f16" offset="38070" shape="1, 1, 128" size="256"/>
			<output>
				<port id="0" names="embedding/BiasAdd/ReadVariableOp:0" precision="FP16">
					<dim>1</dim>
					<dim>1</dim>
					<dim>128</dim>
				</port>
			</output>
		</layer>
		<layer id="58" name="embedding/BiasAdd/Add" type="Add" version="opset1">
			<data auto_broadcast="numpy"/>
			<input>
				<port id="0" precision="FP16">
					<dim>1</dim>
					<dim>63</dim>
					<dim>128</dim>
				</port>
				<port id="1" precision="FP16">
					<dim>1</dim>
					<dim>1</dim>
					<dim>128</dim>
				</port>
			</input>
			<output>
				<port id="2" names="embedding/BiasAdd:0" precision="FP16">
					<dim>1</dim>
					<dim>63</dim>
					<dim>128</dim>
				</port>
			</output>
		</layer>
		<layer id="59" name="Transformer/posembed_input/add/ReadVariableOp" type="Const" version="opset1">
			<data element_type="f16" offset="38326" shape="1, 63, 128" size="16128"/>
			<output>
				<port id="0" names="Transformer/posembed_input/add/ReadVariableOp:0" precision="FP16">
					<dim>1</dim>
					<dim>63</dim>
					<dim>128</dim>
				</port>
			</output>
		</layer>
		<layer id="60" name="Transformer/posembed_input/add" type="Add" version="opset1">
			<data auto_broadcast="numpy"/>
			<input>
				<port id="0" precision="FP16">
					<dim>1</dim>
					<dim>63</dim>
					<dim>128</dim>
				</port>
				<port id="1" precision="FP16">
					<dim>1</dim>
					<dim>63</dim>
					<dim>128</dim>
				</port>
			</input>
			<output>
				<port id="2" names="Transformer/posembed_input/add:0" precision="FP16">
					<dim>1</dim>
					<dim>63</dim>
					<dim>128</dim>
				</port>
			</output>
		</layer>
		<layer id="61" name="Transformer/encoderblock_0/layer_normalization/moments/mean/reduction_indices" type="Const" version="opset1">
			<data element_type="i64" offset="94" shape="1" size="8"/>
			<output>
				<port id="0" names="Transformer/encoderblock_0/layer_normalization/moments/mean/reduction_indices:0" precision="I64">
					<dim>1</dim>
				</port>
			</output>
		</layer>
		<layer id="62" name="Transformer/encoderblock_0/layer_normalization/moments/mean" type="ReduceMean" version="opset1">
			<data keep_dims="true"/>
			<input>
				<port id="0" precision="FP16">
					<dim>1</dim>
					<dim>63</dim>
					<dim>128</dim>
				</port>
				<port id="1" precision="I64">
					<dim>1</dim>
				</port>
			</input>
			<output>
				<port id="2" names="Transformer/encoderblock_0/layer_normalization/moments/StopGradient:0,Transformer/encoderblock_0/layer_normalization/moments/mean:0" precision="FP16">
					<dim>1</dim>
					<dim>63</dim>
					<dim>1</dim>
				</port>
			</output>
		</layer>
		<layer id="63" name="Transformer/encoderblock_0/layer_normalization/moments/SquaredDifference" type="SquaredDifference" version="opset1">
			<data auto_broadcast="numpy"/>
			<input>
				<port id="0" precision="FP16">
					<dim>1</dim>
					<dim>63</dim>
					<dim>128</dim>
				</port>
				<port id="1" precision="FP16">
					<dim>1</dim>
					<dim>63</dim>
					<dim>1</dim>
				</port>
			</input>
			<output>
				<port id="2" names="Transformer/encoderblock_0/layer_normalization/moments/SquaredDifference:0" precision="FP16">
					<dim>1</dim>
					<dim>63</dim>
					<dim>128</dim>
				</port>
			</output>
		</layer>
		<layer id="64" name="Transformer/encoderblock_0/layer_normalization/moments/variance/reduction_indices" type="Const" version="opset1">
			<data element_type="i64" offset="94" shape="1" size="8"/>
			<output>
				<port id="0" names="Transformer/encoderblock_0/layer_normalization/moments/variance/reduction_indices:0" precision="I64">
					<dim>1</dim>
				</port>
			</output>
		</layer>
		<layer id="65" name="Transformer/encoderblock_0/layer_normalization/moments/variance" type="ReduceMean" version="opset1">
			<data keep_dims="true"/>
			<input>
				<port id="0" precision="FP16">
					<dim>1</dim>
					<dim>63</dim>
					<dim>128</dim>
				</port>
				<port id="1" precision="I64">
					<dim>1</dim>
				</port>
			</input>
			<output>
				<port id="2" names="Transformer/encoderblock_0/layer_normalization/moments/variance:0" precision="FP16">
					<dim>1</dim>
					<dim>63</dim>
					<dim>1</dim>
				</port>
			</output>
		</layer>
		<layer id="66" name="Transformer/encoderblock_0/layer_normalization/batchnorm/add/y" type="Const" version="opset1">
			<data element_type="f16" offset="54454" shape="1, 1, 1" size="2"/>
			<output>
				<port id="0" names="Transformer/encoderblock_0/layer_normalization/batchnorm/add/y:0" precision="FP16">
					<dim>1</dim>
					<dim>1</dim>
					<dim>1</dim>
				</port>
			</output>
		</layer>
		<layer id="67" name="Transformer/encoderblock_0/layer_normalization/batchnorm/add" type="Add" version="opset1">
			<data auto_broadcast="numpy"/>
			<input>
				<port id="0" precision="FP16">
					<dim>1</dim>
					<dim>63</dim>
					<dim>1</dim>
				</port>
				<port id="1" precision="FP16">
					<dim>1</dim>
					<dim>1</dim>
					<dim>1</dim>
				</port>
			</input>
			<output>
				<port id="2" precision="FP16">
					<dim>1</dim>
					<dim>63</dim>
					<dim>1</dim>
				</port>
			</output>
		</layer>
		<layer id="68" name="2162" type="Const" version="opset1">
			<data element_type="f16" offset="54456" shape="1, 1, 1" size="2"/>
			<output>
				<port id="0" precision="FP16">
					<dim>1</dim>
					<dim>1</dim>
					<dim>1</dim>
				</port>
			</output>
		</layer>
		<layer id="69" name="Transformer/encoderblock_0/layer_normalization/batchnorm/Rsqrt/pow_" type="Power" version="opset1">
			<data auto_broadcast="numpy"/>
			<input>
				<port id="0" precision="FP16">
					<dim>1</dim>
					<dim>63</dim>
					<dim>1</dim>
				</port>
				<port id="1" precision="FP16">
					<dim>1</dim>
					<dim>1</dim>
					<dim>1</dim>
				</port>
			</input>
			<output>
				<port id="2" names="Transformer/encoderblock_0/layer_normalization/batchnorm/Rsqrt:0" precision="FP16">
					<dim>1</dim>
					<dim>63</dim>
					<dim>1</dim>
				</port>
			</output>
		</layer>
		<layer id="70" name="Transformer/encoderblock_0/layer_normalization/batchnorm/mul/ReadVariableOp" type="Const" version="opset1">
			<data element_type="f16" offset="54458" shape="1, 1, 128" size="256"/>
			<output>
				<port id="0" names="Transformer/encoderblock_0/layer_normalization/batchnorm/mul/ReadVariableOp:0" precision="FP16">
					<dim>1</dim>
					<dim>1</dim>
					<dim>128</dim>
				</port>
			</output>
		</layer>
		<layer id="71" name="Transformer/encoderblock_0/layer_normalization/batchnorm/mul" type="Multiply" version="opset1">
			<data auto_broadcast="numpy"/>
			<input>
				<port id="0" precision="FP16">
					<dim>1</dim>
					<dim>63</dim>
					<dim>1</dim>
				</port>
				<port id="1" precision="FP16">
					<dim>1</dim>
					<dim>1</dim>
					<dim>128</dim>
				</port>
			</input>
			<output>
				<port id="2" names="Transformer/encoderblock_0/layer_normalization/batchnorm/mul:0" precision="FP16">
					<dim>1</dim>
					<dim>63</dim>
					<dim>128</dim>
				</port>
			</output>
		</layer>
		<layer id="72" name="Transformer/encoderblock_0/layer_normalization/batchnorm/mul_1" type="Multiply" version="opset1">
			<data auto_broadcast="numpy"/>
			<input>
				<port id="0" precision="FP16">
					<dim>1</dim>
					<dim>63</dim>
					<dim>128</dim>
				</port>
				<port id="1" precision="FP16">
					<dim>1</dim>
					<dim>63</dim>
					<dim>128</dim>
				</port>
			</input>
			<output>
				<port id="2" names="Transformer/encoderblock_0/layer_normalization/batchnorm/mul_1:0" precision="FP16">
					<dim>1</dim>
					<dim>63</dim>
					<dim>128</dim>
				</port>
			</output>
		</layer>
		<layer id="73" name="Transformer/encoderblock_0/layer_normalization/batchnorm/ReadVariableOp" type="Const" version="opset1">
			<data element_type="f16" offset="54714" shape="1, 1, 128" size="256"/>
			<output>
				<port id="0" names="Transformer/encoderblock_0/layer_normalization/batchnorm/ReadVariableOp:0" precision="FP16">
					<dim>1</dim>
					<dim>1</dim>
					<dim>128</dim>
				</port>
			</output>
		</layer>
		<layer id="74" name="Transformer/encoderblock_0/layer_normalization/batchnorm/mul_2" type="Multiply" version="opset1">
			<data auto_broadcast="numpy"/>
			<input>
				<port id="0" precision="FP16">
					<dim>1</dim>
					<dim>63</dim>
					<dim>1</dim>
				</port>
				<port id="1" precision="FP16">
					<dim>1</dim>
					<dim>63</dim>
					<dim>128</dim>
				</port>
			</input>
			<output>
				<port id="2" precision="FP16">
					<dim>1</dim>
					<dim>63</dim>
					<dim>128</dim>
				</port>
			</output>
		</layer>
		<layer id="75" name="Transformer/encoderblock_0/layer_normalization/batchnorm/sub/sub" type="Subtract" version="opset1">
			<data auto_broadcast="numpy"/>
			<input>
				<port id="0" precision="FP16">
					<dim>1</dim>
					<dim>1</dim>
					<dim>128</dim>
				</port>
				<port id="1" precision="FP16">
					<dim>1</dim>
					<dim>63</dim>
					<dim>128</dim>
				</port>
			</input>
			<output>
				<port id="2" names="Transformer/encoderblock_0/layer_normalization/batchnorm/sub:0" precision="FP16">
					<dim>1</dim>
					<dim>63</dim>
					<dim>128</dim>
				</port>
			</output>
		</layer>
		<layer id="76" name="Transformer/encoderblock_0/layer_normalization/batchnorm/add_1" type="Add" version="opset1">
			<data auto_broadcast="numpy"/>
			<input>
				<port id="0" precision="FP16">
					<dim>1</dim>
					<dim>63</dim>
					<dim>128</dim>
				</port>
				<port id="1" precision="FP16">
					<dim>1</dim>
					<dim>63</dim>
					<dim>128</dim>
				</port>
			</input>
			<output>
				<port id="2" names="Transformer/encoderblock_0/Transformer/encoderblock_0/MultiHeadDotProductAttention_1/key/Tensordot/transpose:0,Transformer/encoderblock_0/Transformer/encoderblock_0/MultiHeadDotProductAttention_1/query/Tensordot/transpose:0,Transformer/encoderblock_0/Transformer/encoderblock_0/MultiHeadDotProductAttention_1/values/Tensordot/transpose:0,Transformer/encoderblock_0/layer_normalization/batchnorm/add_1:0" precision="FP16">
					<dim>1</dim>
					<dim>63</dim>
					<dim>128</dim>
				</port>
			</output>
		</layer>
		<layer id="77" name="Transformer/encoderblock_0/Transformer/encoderblock_0/MultiHeadDotProductAttention_1/query/Tensordot/Shape" type="ShapeOf" version="opset3">
			<data output_type="i32"/>
			<input>
				<port id="0" precision="FP16">
					<dim>1</dim>
					<dim>63</dim>
					<dim>128</dim>
				</port>
			</input>
			<output>
				<port id="1" names="Transformer/encoderblock_0/Transformer/encoderblock_0/MultiHeadDotProductAttention_1/query/Tensordot/Shape:0" precision="I32">
					<dim>3</dim>
				</port>
			</output>
		</layer>
		<layer id="78" name="Transformer/encoderblock_0/Transformer/encoderblock_0/MultiHeadDotProductAttention_1/query/Tensordot/free" type="Const" version="opset1">
			<data element_type="i32" offset="54970" shape="2" size="8"/>
			<output>
				<port id="0" names="Transformer/encoderblock_0/Transformer/encoderblock_0/MultiHeadDotProductAttention_1/query/Tensordot/free:0" precision="I32">
					<dim>2</dim>
				</port>
			</output>
		</layer>
		<layer id="79" name="Transformer/encoderblock_0/Transformer/encoderblock_0/MultiHeadDotProductAttention_1/query/Tensordot/GatherV2/axis" type="Const" version="opset1">
			<data element_type="i64" offset="54978" shape="" size="8"/>
			<output>
				<port id="0" names="Transformer/encoderblock_0/Transformer/encoderblock_0/MultiHeadDotProductAttention_1/query/Tensordot/GatherV2/axis:0" precision="I64"/>
			</output>
		</layer>
		<layer id="80" name="Transformer/encoderblock_0/Transformer/encoderblock_0/MultiHeadDotProductAttention_1/query/Tensordot/GatherV2" type="Gather" version="opset7">
			<data batch_dims="0"/>
			<input>
				<port id="0" precision="I32">
					<dim>3</dim>
				</port>
				<port id="1" precision="I32">
					<dim>2</dim>
				</port>
				<port id="2" precision="I64"/>
			</input>
			<output>
				<port id="3" names="Transformer/encoderblock_0/Transformer/encoderblock_0/MultiHeadDotProductAttention_1/query/Tensordot/GatherV2:0" precision="I32">
					<dim>2</dim>
				</port>
			</output>
		</layer>
		<layer id="81" name="Transformer/encoderblock_0/Transformer/encoderblock_0/MultiHeadDotProductAttention_1/query/Tensordot/Const" type="Const" version="opset1">
			<data element_type="i64" offset="54978" shape="1" size="8"/>
			<output>
				<port id="0" names="Transformer/encoderblock_0/Transformer/encoderblock_0/MultiHeadDotProductAttention_1/query/Tensordot/Const:0" precision="I64">
					<dim>1</dim>
				</port>
			</output>
		</layer>
		<layer id="82" name="Transformer/encoderblock_0/Transformer/encoderblock_0/MultiHeadDotProductAttention_1/query/Tensordot/Prod" type="ReduceProd" version="opset1">
			<data keep_dims="false"/>
			<input>
				<port id="0" precision="I32">
					<dim>2</dim>
				</port>
				<port id="1" precision="I64">
					<dim>1</dim>
				</port>
			</input>
			<output>
				<port id="2" names="Transformer/encoderblock_0/Transformer/encoderblock_0/MultiHeadDotProductAttention_1/query/Tensordot/Prod:0" precision="I32"/>
			</output>
		</layer>
		<layer id="83" name="Transformer/encoderblock_0/Transformer/encoderblock_0/MultiHeadDotProductAttention_1/query/Tensordot/stack/Unsqueeze_input_port_1/value" type="Const" version="opset1">
			<data element_type="i64" offset="54978" shape="1" size="8"/>
			<output>
				<port id="0" precision="I64">
					<dim>1</dim>
				</port>
			</output>
		</layer>
		<layer id="84" name="Transformer/encoderblock_0/Transformer/encoderblock_0/MultiHeadDotProductAttention_1/query/Tensordot/stack/Unsqueeze" type="Unsqueeze" version="opset1">
			<input>
				<port id="0" precision="I32"/>
				<port id="1" precision="I64">
					<dim>1</dim>
				</port>
			</input>
			<output>
				<port id="2" precision="I32">
					<dim>1</dim>
				</port>
			</output>
		</layer>
		<layer id="85" name="Transformer/encoderblock_0/Transformer/encoderblock_0/MultiHeadDotProductAttention_1/query/Tensordot/axes" type="Const" version="opset1">
			<data element_type="i32" offset="54986" shape="1" size="4"/>
			<output>
				<port id="0" names="Transformer/encoderblock_0/Transformer/encoderblock_0/MultiHeadDotProductAttention_1/query/Tensordot/axes:0" precision="I32">
					<dim>1</dim>
				</port>
			</output>
		</layer>
		<layer id="86" name="Transformer/encoderblock_0/Transformer/encoderblock_0/MultiHeadDotProductAttention_1/query/Tensordot/GatherV2_1/axis" type="Const" version="opset1">
			<data element_type="i64" offset="54978" shape="" size="8"/>
			<output>
				<port id="0" names="Transformer/encoderblock_0/Transformer/encoderblock_0/MultiHeadDotProductAttention_1/query/Tensordot/GatherV2_1/axis:0" precision="I64"/>
			</output>
		</layer>
		<layer id="87" name="Transformer/encoderblock_0/Transformer/encoderblock_0/MultiHeadDotProductAttention_1/query/Tensordot/GatherV2_1" type="Gather" version="opset7">
			<data batch_dims="0"/>
			<input>
				<port id="0" precision="I32">
					<dim>3</dim>
				</port>
				<port id="1" precision="I32">
					<dim>1</dim>
				</port>
				<port id="2" precision="I64"/>
			</input>
			<output>
				<port id="3" names="Transformer/encoderblock_0/Transformer/encoderblock_0/MultiHeadDotProductAttention_1/query/Tensordot/GatherV2_1:0" precision="I32">
					<dim>1</dim>
				</port>
			</output>
		</layer>
		<layer id="88" name="Transformer/encoderblock_0/Transformer/encoderblock_0/MultiHeadDotProductAttention_1/query/Tensordot/Const_1" type="Const" version="opset1">
			<data element_type="i64" offset="54978" shape="1" size="8"/>
			<output>
				<port id="0" names="Transformer/encoderblock_0/Transformer/encoderblock_0/MultiHeadDotProductAttention_1/query/Tensordot/Const_1:0" precision="I64">
					<dim>1</dim>
				</port>
			</output>
		</layer>
		<layer id="89" name="Transformer/encoderblock_0/Transformer/encoderblock_0/MultiHeadDotProductAttention_1/query/Tensordot/Prod_1" type="ReduceProd" version="opset1">
			<data keep_dims="false"/>
			<input>
				<port id="0" precision="I32">
					<dim>1</dim>
				</port>
				<port id="1" precision="I64">
					<dim>1</dim>
				</port>
			</input>
			<output>
				<port id="2" names="Transformer/encoderblock_0/Transformer/encoderblock_0/MultiHeadDotProductAttention_1/query/Tensordot/Prod_1:0" precision="I32"/>
			</output>
		</layer>
		<layer id="90" name="Transformer/encoderblock_0/Transformer/encoderblock_0/MultiHeadDotProductAttention_1/query/Tensordot/stack/Unsqueeze2301_input_port_1/value" type="Const" version="opset1">
			<data element_type="i64" offset="54978" shape="1" size="8"/>
			<output>
				<port id="0" precision="I64">
					<dim>1</dim>
				</port>
			</output>
		</layer>
		<layer id="91" name="Transformer/encoderblock_0/Transformer/encoderblock_0/MultiHeadDotProductAttention_1/query/Tensordot/stack/Unsqueeze2301" type="Unsqueeze" version="opset1">
			<input>
				<port id="0" precision="I32"/>
				<port id="1" precision="I64">
					<dim>1</dim>
				</port>
			</input>
			<output>
				<port id="2" precision="I32">
					<dim>1</dim>
				</port>
			</output>
		</layer>
		<layer id="92" name="Transformer/encoderblock_0/Transformer/encoderblock_0/MultiHeadDotProductAttention_1/query/Tensordot/stack" type="Concat" version="opset1">
			<data axis="0"/>
			<input>
				<port id="0" precision="I32">
					<dim>1</dim>
				</port>
				<port id="1" precision="I32">
					<dim>1</dim>
				</port>
			</input>
			<output>
				<port id="2" precision="I32">
					<dim>2</dim>
				</port>
			</output>
		</layer>
		<layer id="93" name="Transformer/encoderblock_0/Transformer/encoderblock_0/MultiHeadDotProductAttention_1/query/Tensordot/Reshape/Cast_1" type="Convert" version="opset1">
			<data destination_type="i64"/>
			<input>
				<port id="0" precision="I32">
					<dim>2</dim>
				</port>
			</input>
			<output>
				<port id="1" names="Transformer/encoderblock_0/Transformer/encoderblock_0/MultiHeadDotProductAttention_1/query/Tensordot/stack:0" precision="I64">
					<dim>2</dim>
				</port>
			</output>
		</layer>
		<layer id="94" name="Transformer/encoderblock_0/Transformer/encoderblock_0/MultiHeadDotProductAttention_1/query/Tensordot/Reshape" type="Reshape" version="opset1">
			<data special_zero="false"/>
			<input>
				<port id="0" precision="FP16">
					<dim>1</dim>
					<dim>63</dim>
					<dim>128</dim>
				</port>
				<port id="1" precision="I64">
					<dim>2</dim>
				</port>
			</input>
			<output>
				<port id="2" names="Transformer/encoderblock_0/Transformer/encoderblock_0/MultiHeadDotProductAttention_1/query/Tensordot/Reshape:0" precision="FP16">
					<dim>63</dim>
					<dim>128</dim>
				</port>
			</output>
		</layer>
		<layer id="95" name="Transformer/encoderblock_0/Transformer/encoderblock_0/MultiHeadDotProductAttention_1/query/Tensordot/Reshape_1" type="Const" version="opset1">
			<data element_type="f16" offset="54990" shape="128, 128" size="32768"/>
			<output>
				<port id="0" names="Transformer/encoderblock_0/Transformer/encoderblock_0/MultiHeadDotProductAttention_1/query/Tensordot/Reshape_1:0" precision="FP16">
					<dim>128</dim>
					<dim>128</dim>
				</port>
			</output>
		</layer>
		<layer id="96" name="Transformer/encoderblock_0/Transformer/encoderblock_0/MultiHeadDotProductAttention_1/query/Tensordot/MatMul" type="MatMul" version="opset1">
			<data transpose_a="false" transpose_b="true"/>
			<input>
				<port id="0" precision="FP16">
					<dim>63</dim>
					<dim>128</dim>
				</port>
				<port id="1" precision="FP16">
					<dim>128</dim>
					<dim>128</dim>
				</port>
			</input>
			<output>
				<port id="2" names="Transformer/encoderblock_0/Transformer/encoderblock_0/MultiHeadDotProductAttention_1/query/Tensordot/MatMul:0" precision="FP16">
					<dim>63</dim>
					<dim>128</dim>
				</port>
			</output>
		</layer>
		<layer id="97" name="Transformer/encoderblock_0/Transformer/encoderblock_0/MultiHeadDotProductAttention_1/query/Tensordot/Const_2" type="Const" version="opset1">
			<data element_type="i32" offset="87758" shape="1" size="4"/>
			<output>
				<port id="0" names="Transformer/encoderblock_0/Transformer/encoderblock_0/MultiHeadDotProductAttention_1/query/Tensordot/Const_2:0" precision="I32">
					<dim>1</dim>
				</port>
			</output>
		</layer>
		<layer id="98" name="Transformer/encoderblock_0/Transformer/encoderblock_0/MultiHeadDotProductAttention_1/query/Tensordot/concat_1" type="Concat" version="opset1">
			<data axis="0"/>
			<input>
				<port id="0" precision="I32">
					<dim>2</dim>
				</port>
				<port id="1" precision="I32">
					<dim>1</dim>
				</port>
			</input>
			<output>
				<port id="2" precision="I32">
					<dim>3</dim>
				</port>
			</output>
		</layer>
		<layer id="99" name="Transformer/encoderblock_0/Transformer/encoderblock_0/MultiHeadDotProductAttention_1/query/Tensordot/Cast_1" type="Convert" version="opset1">
			<data destination_type="i64"/>
			<input>
				<port id="0" precision="I32">
					<dim>3</dim>
				</port>
			</input>
			<output>
				<port id="1" names="Transformer/encoderblock_0/Transformer/encoderblock_0/MultiHeadDotProductAttention_1/query/Tensordot/concat_1:0" precision="I64">
					<dim>3</dim>
				</port>
			</output>
		</layer>
		<layer id="100" name="Transformer/encoderblock_0/Transformer/encoderblock_0/MultiHeadDotProductAttention_1/query/Tensordot" type="Reshape" version="opset1">
			<data special_zero="false"/>
			<input>
				<port id="0" precision="FP16">
					<dim>63</dim>
					<dim>128</dim>
				</port>
				<port id="1" precision="I64">
					<dim>3</dim>
				</port>
			</input>
			<output>
				<port id="2" names="Transformer/encoderblock_0/Transformer/encoderblock_0/MultiHeadDotProductAttention_1/query/Tensordot:0" precision="FP16">
					<dim>1</dim>
					<dim>63</dim>
					<dim>128</dim>
				</port>
			</output>
		</layer>
		<layer id="101" name="Transformer/encoderblock_0/Transformer/encoderblock_0/MultiHeadDotProductAttention_1/query/BiasAdd/ReadVariableOp" type="Const" version="opset1">
			<data element_type="f16" offset="87762" shape="1, 1, 128" size="256"/>
			<output>
				<port id="0" names="Transformer/encoderblock_0/Transformer/encoderblock_0/MultiHeadDotProductAttention_1/query/BiasAdd/ReadVariableOp:0" precision="FP16">
					<dim>1</dim>
					<dim>1</dim>
					<dim>128</dim>
				</port>
			</output>
		</layer>
		<layer id="102" name="Transformer/encoderblock_0/Transformer/encoderblock_0/MultiHeadDotProductAttention_1/query/BiasAdd/Add" type="Add" version="opset1">
			<data auto_broadcast="numpy"/>
			<input>
				<port id="0" precision="FP16">
					<dim>1</dim>
					<dim>63</dim>
					<dim>128</dim>
				</port>
				<port id="1" precision="FP16">
					<dim>1</dim>
					<dim>1</dim>
					<dim>128</dim>
				</port>
			</input>
			<output>
				<port id="2" names="Transformer/encoderblock_0/Transformer/encoderblock_0/MultiHeadDotProductAttention_1/query/BiasAdd:0" precision="FP16">
					<dim>1</dim>
					<dim>63</dim>
					<dim>128</dim>
				</port>
			</output>
		</layer>
		<layer id="103" name="Transformer/encoderblock_0/Transformer/encoderblock_0/MultiHeadDotProductAttention_1/Shape" type="ShapeOf" version="opset3">
			<data output_type="i32"/>
			<input>
				<port id="0" precision="FP16">
					<dim>1</dim>
					<dim>63</dim>
					<dim>128</dim>
				</port>
			</input>
			<output>
				<port id="1" names="Transformer/encoderblock_0/Transformer/encoderblock_0/MultiHeadDotProductAttention_1/Shape:0" precision="I32">
					<dim>3</dim>
				</port>
			</output>
		</layer>
		<layer id="104" name="Transformer/encoderblock_0/Transformer/encoderblock_0/MultiHeadDotProductAttention_1/strided_slice/stack" type="Const" version="opset1">
			<data element_type="i64" offset="54978" shape="1" size="8"/>
			<output>
				<port id="0" names="Transformer/encoderblock_0/Transformer/encoderblock_0/MultiHeadDotProductAttention_1/strided_slice/stack:0" precision="I64">
					<dim>1</dim>
				</port>
			</output>
		</layer>
		<layer id="105" name="Transformer/encoderblock_0/Transformer/encoderblock_0/MultiHeadDotProductAttention_1/strided_slice/stack_1" type="Const" version="opset1">
			<data element_type="i64" offset="0" shape="1" size="8"/>
			<output>
				<port id="0" names="Transformer/encoderblock_0/Transformer/encoderblock_0/MultiHeadDotProductAttention_1/strided_slice/stack_1:0" precision="I64">
					<dim>1</dim>
				</port>
			</output>
		</layer>
		<layer id="106" name="Transformer/encoderblock_0/Transformer/encoderblock_0/MultiHeadDotProductAttention_1/strided_slice/stack_2" type="Const" version="opset1">
			<data element_type="i64" offset="0" shape="1" size="8"/>
			<output>
				<port id="0" names="Transformer/encoderblock_0/Transformer/encoderblock_0/MultiHeadDotProductAttention_1/strided_slice/stack_2:0" precision="I64">
					<dim>1</dim>
				</port>
			</output>
		</layer>
		<layer id="107" name="Transformer/encoderblock_0/Transformer/encoderblock_0/MultiHeadDotProductAttention_1/strided_slice" type="StridedSlice" version="opset1">
			<data begin_mask="0" ellipsis_mask="0" end_mask="0" new_axis_mask="0" shrink_axis_mask="1"/>
			<input>
				<port id="0" precision="I32">
					<dim>3</dim>
				</port>
				<port id="1" precision="I64">
					<dim>1</dim>
				</port>
				<port id="2" precision="I64">
					<dim>1</dim>
				</port>
				<port id="3" precision="I64">
					<dim>1</dim>
				</port>
			</input>
			<output>
				<port id="4" names="Transformer/encoderblock_0/Transformer/encoderblock_0/MultiHeadDotProductAttention_1/strided_slice:0" precision="I32"/>
			</output>
		</layer>
		<layer id="108" name="Transformer/encoderblock_0/Transformer/encoderblock_0/MultiHeadDotProductAttention_1/Reshape/shape/Unsqueeze_input_port_1/value" type="Const" version="opset1">
			<data element_type="i64" offset="54978" shape="1" size="8"/>
			<output>
				<port id="0" precision="I64">
					<dim>1</dim>
				</port>
			</output>
		</layer>
		<layer id="109" name="Transformer/encoderblock_0/Transformer/encoderblock_0/MultiHeadDotProductAttention_1/Reshape/shape/Unsqueeze" type="Unsqueeze" version="opset1">
			<input>
				<port id="0" precision="I32"/>
				<port id="1" precision="I64">
					<dim>1</dim>
				</port>
			</input>
			<output>
				<port id="2" precision="I32">
					<dim>1</dim>
				</port>
			</output>
		</layer>
		<layer id="110" name="Transformer/encoderblock_0/Transformer/encoderblock_0/MultiHeadDotProductAttention_1/Reshape/shape/Unsqueeze2233" type="Const" version="opset1">
			<data element_type="i32" offset="88018" shape="1" size="4"/>
			<output>
				<port id="0" precision="I32">
					<dim>1</dim>
				</port>
			</output>
		</layer>
		<layer id="111" name="Transformer/encoderblock_0/Transformer/encoderblock_0/MultiHeadDotProductAttention_1/Reshape/shape/Unsqueeze2235" type="Const" version="opset1">
			<data element_type="i32" offset="88022" shape="1" size="4"/>
			<output>
				<port id="0" precision="I32">
					<dim>1</dim>
				</port>
			</output>
		</layer>
		<layer id="112" name="Transformer/encoderblock_0/Transformer/encoderblock_0/MultiHeadDotProductAttention_1/Reshape/shape/Unsqueeze2237" type="Const" version="opset1">
			<data element_type="i32" offset="88026" shape="1" size="4"/>
			<output>
				<port id="0" precision="I32">
					<dim>1</dim>
				</port>
			</output>
		</layer>
		<layer id="113" name="Transformer/encoderblock_0/Transformer/encoderblock_0/MultiHeadDotProductAttention_1/Reshape/shape" type="Concat" version="opset1">
			<data axis="0"/>
			<input>
				<port id="0" precision="I32">
					<dim>1</dim>
				</port>
				<port id="1" precision="I32">
					<dim>1</dim>
				</port>
				<port id="2" precision="I32">
					<dim>1</dim>
				</port>
				<port id="3" precision="I32">
					<dim>1</dim>
				</port>
			</input>
			<output>
				<port id="4" precision="I32">
					<dim>4</dim>
				</port>
			</output>
		</layer>
		<layer id="114" name="Transformer/encoderblock_0/Transformer/encoderblock_0/MultiHeadDotProductAttention_1/Reshape/Cast_1" type="Convert" version="opset1">
			<data destination_type="i64"/>
			<input>
				<port id="0" precision="I32">
					<dim>4</dim>
				</port>
			</input>
			<output>
				<port id="1" names="Transformer/encoderblock_0/Transformer/encoderblock_0/MultiHeadDotProductAttention_1/Reshape/shape:0" precision="I64">
					<dim>4</dim>
				</port>
			</output>
		</layer>
		<layer id="115" name="Transformer/encoderblock_0/Transformer/encoderblock_0/MultiHeadDotProductAttention_1/Reshape" type="Reshape" version="opset1">
			<data special_zero="false"/>
			<input>
				<port id="0" precision="FP16">
					<dim>1</dim>
					<dim>63</dim>
					<dim>128</dim>
				</port>
				<port id="1" precision="I64">
					<dim>4</dim>
				</port>
			</input>
			<output>
				<port id="2" names="Transformer/encoderblock_0/Transformer/encoderblock_0/MultiHeadDotProductAttention_1/Reshape:0" precision="FP16">
					<dim>1</dim>
					<dim>63</dim>
					<dim>4</dim>
					<dim>32</dim>
				</port>
			</output>
		</layer>
		<layer id="116" name="Transformer/encoderblock_0/Transformer/encoderblock_0/MultiHeadDotProductAttention_1/transpose/perm" type="Const" version="opset1">
			<data element_type="i64" offset="88030" shape="4" size="32"/>
			<output>
				<port id="0" names="Transformer/encoderblock_0/Transformer/encoderblock_0/MultiHeadDotProductAttention_1/transpose/perm:0" precision="I64">
					<dim>4</dim>
				</port>
			</output>
		</layer>
		<layer id="117" name="Transformer/encoderblock_0/Transformer/encoderblock_0/MultiHeadDotProductAttention_1/transpose" type="Transpose" version="opset1">
			<input>
				<port id="0" precision="FP16">
					<dim>1</dim>
					<dim>63</dim>
					<dim>4</dim>
					<dim>32</dim>
				</port>
				<port id="1" precision="I64">
					<dim>4</dim>
				</port>
			</input>
			<output>
				<port id="2" names="Transformer/encoderblock_0/Transformer/encoderblock_0/MultiHeadDotProductAttention_1/transpose:0" precision="FP16">
					<dim>1</dim>
					<dim>4</dim>
					<dim>63</dim>
					<dim>32</dim>
				</port>
			</output>
		</layer>
		<layer id="118" name="Transformer/encoderblock_0/Transformer/encoderblock_0/MultiHeadDotProductAttention_1/key/Tensordot/Shape" type="ShapeOf" version="opset3">
			<data output_type="i32"/>
			<input>
				<port id="0" precision="FP16">
					<dim>1</dim>
					<dim>63</dim>
					<dim>128</dim>
				</port>
			</input>
			<output>
				<port id="1" names="Transformer/encoderblock_0/Transformer/encoderblock_0/MultiHeadDotProductAttention_1/key/Tensordot/Shape:0" precision="I32">
					<dim>3</dim>
				</port>
			</output>
		</layer>
		<layer id="119" name="Transformer/encoderblock_0/Transformer/encoderblock_0/MultiHeadDotProductAttention_1/key/Tensordot/free" type="Const" version="opset1">
			<data element_type="i32" offset="54970" shape="2" size="8"/>
			<output>
				<port id="0" names="Transformer/encoderblock_0/Transformer/encoderblock_0/MultiHeadDotProductAttention_1/key/Tensordot/free:0" precision="I32">
					<dim>2</dim>
				</port>
			</output>
		</layer>
		<layer id="120" name="Transformer/encoderblock_0/Transformer/encoderblock_0/MultiHeadDotProductAttention_1/key/Tensordot/GatherV2/axis" type="Const" version="opset1">
			<data element_type="i64" offset="54978" shape="" size="8"/>
			<output>
				<port id="0" names="Transformer/encoderblock_0/Transformer/encoderblock_0/MultiHeadDotProductAttention_1/key/Tensordot/GatherV2/axis:0" precision="I64"/>
			</output>
		</layer>
		<layer id="121" name="Transformer/encoderblock_0/Transformer/encoderblock_0/MultiHeadDotProductAttention_1/key/Tensordot/GatherV2" type="Gather" version="opset7">
			<data batch_dims="0"/>
			<input>
				<port id="0" precision="I32">
					<dim>3</dim>
				</port>
				<port id="1" precision="I32">
					<dim>2</dim>
				</port>
				<port id="2" precision="I64"/>
			</input>
			<output>
				<port id="3" names="Transformer/encoderblock_0/Transformer/encoderblock_0/MultiHeadDotProductAttention_1/key/Tensordot/GatherV2:0" precision="I32">
					<dim>2</dim>
				</port>
			</output>
		</layer>
		<layer id="122" name="Transformer/encoderblock_0/Transformer/encoderblock_0/MultiHeadDotProductAttention_1/key/Tensordot/Const" type="Const" version="opset1">
			<data element_type="i64" offset="54978" shape="1" size="8"/>
			<output>
				<port id="0" names="Transformer/encoderblock_0/Transformer/encoderblock_0/MultiHeadDotProductAttention_1/key/Tensordot/Const:0" precision="I64">
					<dim>1</dim>
				</port>
			</output>
		</layer>
		<layer id="123" name="Transformer/encoderblock_0/Transformer/encoderblock_0/MultiHeadDotProductAttention_1/key/Tensordot/Prod" type="ReduceProd" version="opset1">
			<data keep_dims="false"/>
			<input>
				<port id="0" precision="I32">
					<dim>2</dim>
				</port>
				<port id="1" precision="I64">
					<dim>1</dim>
				</port>
			</input>
			<output>
				<port id="2" names="Transformer/encoderblock_0/Transformer/encoderblock_0/MultiHeadDotProductAttention_1/key/Tensordot/Prod:0" precision="I32"/>
			</output>
		</layer>
		<layer id="124" name="Transformer/encoderblock_0/Transformer/encoderblock_0/MultiHeadDotProductAttention_1/key/Tensordot/stack/Unsqueeze_input_port_1/value" type="Const" version="opset1">
			<data element_type="i64" offset="54978" shape="1" size="8"/>
			<output>
				<port id="0" precision="I64">
					<dim>1</dim>
				</port>
			</output>
		</layer>
		<layer id="125" name="Transformer/encoderblock_0/Transformer/encoderblock_0/MultiHeadDotProductAttention_1/key/Tensordot/stack/Unsqueeze" type="Unsqueeze" version="opset1">
			<input>
				<port id="0" precision="I32"/>
				<port id="1" precision="I64">
					<dim>1</dim>
				</port>
			</input>
			<output>
				<port id="2" precision="I32">
					<dim>1</dim>
				</port>
			</output>
		</layer>
		<layer id="126" name="Transformer/encoderblock_0/Transformer/encoderblock_0/MultiHeadDotProductAttention_1/key/Tensordot/axes" type="Const" version="opset1">
			<data element_type="i32" offset="54986" shape="1" size="4"/>
			<output>
				<port id="0" names="Transformer/encoderblock_0/Transformer/encoderblock_0/MultiHeadDotProductAttention_1/key/Tensordot/axes:0" precision="I32">
					<dim>1</dim>
				</port>
			</output>
		</layer>
		<layer id="127" name="Transformer/encoderblock_0/Transformer/encoderblock_0/MultiHeadDotProductAttention_1/key/Tensordot/GatherV2_1/axis" type="Const" version="opset1">
			<data element_type="i64" offset="54978" shape="" size="8"/>
			<output>
				<port id="0" names="Transformer/encoderblock_0/Transformer/encoderblock_0/MultiHeadDotProductAttention_1/key/Tensordot/GatherV2_1/axis:0" precision="I64"/>
			</output>
		</layer>
		<layer id="128" name="Transformer/encoderblock_0/Transformer/encoderblock_0/MultiHeadDotProductAttention_1/key/Tensordot/GatherV2_1" type="Gather" version="opset7">
			<data batch_dims="0"/>
			<input>
				<port id="0" precision="I32">
					<dim>3</dim>
				</port>
				<port id="1" precision="I32">
					<dim>1</dim>
				</port>
				<port id="2" precision="I64"/>
			</input>
			<output>
				<port id="3" names="Transformer/encoderblock_0/Transformer/encoderblock_0/MultiHeadDotProductAttention_1/key/Tensordot/GatherV2_1:0" precision="I32">
					<dim>1</dim>
				</port>
			</output>
		</layer>
		<layer id="129" name="Transformer/encoderblock_0/Transformer/encoderblock_0/MultiHeadDotProductAttention_1/key/Tensordot/Const_1" type="Const" version="opset1">
			<data element_type="i64" offset="54978" shape="1" size="8"/>
			<output>
				<port id="0" names="Transformer/encoderblock_0/Transformer/encoderblock_0/MultiHeadDotProductAttention_1/key/Tensordot/Const_1:0" precision="I64">
					<dim>1</dim>
				</port>
			</output>
		</layer>
		<layer id="130" name="Transformer/encoderblock_0/Transformer/encoderblock_0/MultiHeadDotProductAttention_1/key/Tensordot/Prod_1" type="ReduceProd" version="opset1">
			<data keep_dims="false"/>
			<input>
				<port id="0" precision="I32">
					<dim>1</dim>
				</port>
				<port id="1" precision="I64">
					<dim>1</dim>
				</port>
			</input>
			<output>
				<port id="2" names="Transformer/encoderblock_0/Transformer/encoderblock_0/MultiHeadDotProductAttention_1/key/Tensordot/Prod_1:0" precision="I32"/>
			</output>
		</layer>
		<layer id="131" name="Transformer/encoderblock_0/Transformer/encoderblock_0/MultiHeadDotProductAttention_1/key/Tensordot/stack/Unsqueeze2205_input_port_1/value" type="Const" version="opset1">
			<data element_type="i64" offset="54978" shape="1" size="8"/>
			<output>
				<port id="0" precision="I64">
					<dim>1</dim>
				</port>
			</output>
		</layer>
		<layer id="132" name="Transformer/encoderblock_0/Transformer/encoderblock_0/MultiHeadDotProductAttention_1/key/Tensordot/stack/Unsqueeze2205" type="Unsqueeze" version="opset1">
			<input>
				<port id="0" precision="I32"/>
				<port id="1" precision="I64">
					<dim>1</dim>
				</port>
			</input>
			<output>
				<port id="2" precision="I32">
					<dim>1</dim>
				</port>
			</output>
		</layer>
		<layer id="133" name="Transformer/encoderblock_0/Transformer/encoderblock_0/MultiHeadDotProductAttention_1/key/Tensordot/stack" type="Concat" version="opset1">
			<data axis="0"/>
			<input>
				<port id="0" precision="I32">
					<dim>1</dim>
				</port>
				<port id="1" precision="I32">
					<dim>1</dim>
				</port>
			</input>
			<output>
				<port id="2" precision="I32">
					<dim>2</dim>
				</port>
			</output>
		</layer>
		<layer id="134" name="Transformer/encoderblock_0/Transformer/encoderblock_0/MultiHeadDotProductAttention_1/key/Tensordot/Reshape/Cast_1" type="Convert" version="opset1">
			<data destination_type="i64"/>
			<input>
				<port id="0" precision="I32">
					<dim>2</dim>
				</port>
			</input>
			<output>
				<port id="1" names="Transformer/encoderblock_0/Transformer/encoderblock_0/MultiHeadDotProductAttention_1/key/Tensordot/stack:0" precision="I64">
					<dim>2</dim>
				</port>
			</output>
		</layer>
		<layer id="135" name="Transformer/encoderblock_0/Transformer/encoderblock_0/MultiHeadDotProductAttention_1/key/Tensordot/Reshape" type="Reshape" version="opset1">
			<data special_zero="false"/>
			<input>
				<port id="0" precision="FP16">
					<dim>1</dim>
					<dim>63</dim>
					<dim>128</dim>
				</port>
				<port id="1" precision="I64">
					<dim>2</dim>
				</port>
			</input>
			<output>
				<port id="2" names="Transformer/encoderblock_0/Transformer/encoderblock_0/MultiHeadDotProductAttention_1/key/Tensordot/Reshape:0" precision="FP16">
					<dim>63</dim>
					<dim>128</dim>
				</port>
			</output>
		</layer>
		<layer id="136" name="Transformer/encoderblock_0/Transformer/encoderblock_0/MultiHeadDotProductAttention_1/key/Tensordot/Reshape_1" type="Const" version="opset1">
			<data element_type="f16" offset="88062" shape="128, 128" size="32768"/>
			<output>
				<port id="0" names="Transformer/encoderblock_0/Transformer/encoderblock_0/MultiHeadDotProductAttention_1/key/Tensordot/Reshape_1:0" precision="FP16">
					<dim>128</dim>
					<dim>128</dim>
				</port>
			</output>
		</layer>
		<layer id="137" name="Transformer/encoderblock_0/Transformer/encoderblock_0/MultiHeadDotProductAttention_1/key/Tensordot/MatMul" type="MatMul" version="opset1">
			<data transpose_a="false" transpose_b="true"/>
			<input>
				<port id="0" precision="FP16">
					<dim>63</dim>
					<dim>128</dim>
				</port>
				<port id="1" precision="FP16">
					<dim>128</dim>
					<dim>128</dim>
				</port>
			</input>
			<output>
				<port id="2" names="Transformer/encoderblock_0/Transformer/encoderblock_0/MultiHeadDotProductAttention_1/key/Tensordot/MatMul:0" precision="FP16">
					<dim>63</dim>
					<dim>128</dim>
				</port>
			</output>
		</layer>
		<layer id="138" name="Transformer/encoderblock_0/Transformer/encoderblock_0/MultiHeadDotProductAttention_1/key/Tensordot/Const_2" type="Const" version="opset1">
			<data element_type="i32" offset="87758" shape="1" size="4"/>
			<output>
				<port id="0" names="Transformer/encoderblock_0/Transformer/encoderblock_0/MultiHeadDotProductAttention_1/key/Tensordot/Const_2:0" precision="I32">
					<dim>1</dim>
				</port>
			</output>
		</layer>
		<layer id="139" name="Transformer/encoderblock_0/Transformer/encoderblock_0/MultiHeadDotProductAttention_1/key/Tensordot/concat_1" type="Concat" version="opset1">
			<data axis="0"/>
			<input>
				<port id="0" precision="I32">
					<dim>2</dim>
				</port>
				<port id="1" precision="I32">
					<dim>1</dim>
				</port>
			</input>
			<output>
				<port id="2" precision="I32">
					<dim>3</dim>
				</port>
			</output>
		</layer>
		<layer id="140" name="Transformer/encoderblock_0/Transformer/encoderblock_0/MultiHeadDotProductAttention_1/key/Tensordot/Cast_1" type="Convert" version="opset1">
			<data destination_type="i64"/>
			<input>
				<port id="0" precision="I32">
					<dim>3</dim>
				</port>
			</input>
			<output>
				<port id="1" names="Transformer/encoderblock_0/Transformer/encoderblock_0/MultiHeadDotProductAttention_1/key/Tensordot/concat_1:0" precision="I64">
					<dim>3</dim>
				</port>
			</output>
		</layer>
		<layer id="141" name="Transformer/encoderblock_0/Transformer/encoderblock_0/MultiHeadDotProductAttention_1/key/Tensordot" type="Reshape" version="opset1">
			<data special_zero="false"/>
			<input>
				<port id="0" precision="FP16">
					<dim>63</dim>
					<dim>128</dim>
				</port>
				<port id="1" precision="I64">
					<dim>3</dim>
				</port>
			</input>
			<output>
				<port id="2" names="Transformer/encoderblock_0/Transformer/encoderblock_0/MultiHeadDotProductAttention_1/key/Tensordot:0" precision="FP16">
					<dim>1</dim>
					<dim>63</dim>
					<dim>128</dim>
				</port>
			</output>
		</layer>
		<layer id="142" name="Transformer/encoderblock_0/Transformer/encoderblock_0/MultiHeadDotProductAttention_1/key/BiasAdd/ReadVariableOp" type="Const" version="opset1">
			<data element_type="f16" offset="120830" shape="1, 1, 128" size="256"/>
			<output>
				<port id="0" names="Transformer/encoderblock_0/Transformer/encoderblock_0/MultiHeadDotProductAttention_1/key/BiasAdd/ReadVariableOp:0" precision="FP16">
					<dim>1</dim>
					<dim>1</dim>
					<dim>128</dim>
				</port>
			</output>
		</layer>
		<layer id="143" name="Transformer/encoderblock_0/Transformer/encoderblock_0/MultiHeadDotProductAttention_1/key/BiasAdd/Add" type="Add" version="opset1">
			<data auto_broadcast="numpy"/>
			<input>
				<port id="0" precision="FP16">
					<dim>1</dim>
					<dim>63</dim>
					<dim>128</dim>
				</port>
				<port id="1" precision="FP16">
					<dim>1</dim>
					<dim>1</dim>
					<dim>128</dim>
				</port>
			</input>
			<output>
				<port id="2" names="Transformer/encoderblock_0/Transformer/encoderblock_0/MultiHeadDotProductAttention_1/key/BiasAdd:0" precision="FP16">
					<dim>1</dim>
					<dim>63</dim>
					<dim>128</dim>
				</port>
			</output>
		</layer>
		<layer id="144" name="Transformer/encoderblock_0/Transformer/encoderblock_0/MultiHeadDotProductAttention_1/Reshape_1/shape/Unsqueeze_input_port_1/value" type="Const" version="opset1">
			<data element_type="i64" offset="54978" shape="1" size="8"/>
			<output>
				<port id="0" precision="I64">
					<dim>1</dim>
				</port>
			</output>
		</layer>
		<layer id="145" name="Transformer/encoderblock_0/Transformer/encoderblock_0/MultiHeadDotProductAttention_1/Reshape_1/shape/Unsqueeze" type="Unsqueeze" version="opset1">
			<input>
				<port id="0" precision="I32"/>
				<port id="1" precision="I64">
					<dim>1</dim>
				</port>
			</input>
			<output>
				<port id="2" precision="I32">
					<dim>1</dim>
				</port>
			</output>
		</layer>
		<layer id="146" name="Transformer/encoderblock_0/Transformer/encoderblock_0/MultiHeadDotProductAttention_1/Reshape_1/shape/Unsqueeze2349" type="Const" version="opset1">
			<data element_type="i32" offset="88018" shape="1" size="4"/>
			<output>
				<port id="0" precision="I32">
					<dim>1</dim>
				</port>
			</output>
		</layer>
		<layer id="147" name="Transformer/encoderblock_0/Transformer/encoderblock_0/MultiHeadDotProductAttention_1/Reshape_1/shape/Unsqueeze2351" type="Const" version="opset1">
			<data element_type="i32" offset="88022" shape="1" size="4"/>
			<output>
				<port id="0" precision="I32">
					<dim>1</dim>
				</port>
			</output>
		</layer>
		<layer id="148" name="Transformer/encoderblock_0/Transformer/encoderblock_0/MultiHeadDotProductAttention_1/Reshape_1/shape/Unsqueeze2353" type="Const" version="opset1">
			<data element_type="i32" offset="88026" shape="1" size="4"/>
			<output>
				<port id="0" precision="I32">
					<dim>1</dim>
				</port>
			</output>
		</layer>
		<layer id="149" name="Transformer/encoderblock_0/Transformer/encoderblock_0/MultiHeadDotProductAttention_1/Reshape_1/shape" type="Concat" version="opset1">
			<data axis="0"/>
			<input>
				<port id="0" precision="I32">
					<dim>1</dim>
				</port>
				<port id="1" precision="I32">
					<dim>1</dim>
				</port>
				<port id="2" precision="I32">
					<dim>1</dim>
				</port>
				<port id="3" precision="I32">
					<dim>1</dim>
				</port>
			</input>
			<output>
				<port id="4" precision="I32">
					<dim>4</dim>
				</port>
			</output>
		</layer>
		<layer id="150" name="Transformer/encoderblock_0/Transformer/encoderblock_0/MultiHeadDotProductAttention_1/Reshape_1/Cast_1" type="Convert" version="opset1">
			<data destination_type="i64"/>
			<input>
				<port id="0" precision="I32">
					<dim>4</dim>
				</port>
			</input>
			<output>
				<port id="1" names="Transformer/encoderblock_0/Transformer/encoderblock_0/MultiHeadDotProductAttention_1/Reshape_1/shape:0" precision="I64">
					<dim>4</dim>
				</port>
			</output>
		</layer>
		<layer id="151" name="Transformer/encoderblock_0/Transformer/encoderblock_0/MultiHeadDotProductAttention_1/Reshape_1" type="Reshape" version="opset1">
			<data special_zero="false"/>
			<input>
				<port id="0" precision="FP16">
					<dim>1</dim>
					<dim>63</dim>
					<dim>128</dim>
				</port>
				<port id="1" precision="I64">
					<dim>4</dim>
				</port>
			</input>
			<output>
				<port id="2" names="Transformer/encoderblock_0/Transformer/encoderblock_0/MultiHeadDotProductAttention_1/Reshape_1:0" precision="FP16">
					<dim>1</dim>
					<dim>63</dim>
					<dim>4</dim>
					<dim>32</dim>
				</port>
			</output>
		</layer>
		<layer id="152" name="Transformer/encoderblock_0/Transformer/encoderblock_0/MultiHeadDotProductAttention_1/transpose_1/perm" type="Const" version="opset1">
			<data element_type="i64" offset="88030" shape="4" size="32"/>
			<output>
				<port id="0" names="Transformer/encoderblock_0/Transformer/encoderblock_0/MultiHeadDotProductAttention_1/transpose_1/perm:0" precision="I64">
					<dim>4</dim>
				</port>
			</output>
		</layer>
		<layer id="153" name="Transformer/encoderblock_0/Transformer/encoderblock_0/MultiHeadDotProductAttention_1/transpose_1" type="Transpose" version="opset1">
			<input>
				<port id="0" precision="FP16">
					<dim>1</dim>
					<dim>63</dim>
					<dim>4</dim>
					<dim>32</dim>
				</port>
				<port id="1" precision="I64">
					<dim>4</dim>
				</port>
			</input>
			<output>
				<port id="2" precision="FP16">
					<dim>1</dim>
					<dim>4</dim>
					<dim>63</dim>
					<dim>32</dim>
				</port>
			</output>
		</layer>
		<layer id="154" name="Transformer/encoderblock_0/Transformer/encoderblock_0/MultiHeadDotProductAttention_1/truediv_copy/const2735674737" type="Const" version="opset1">
			<data element_type="f16" offset="121086" shape="1, 1, 1, 1" size="2"/>
			<output>
				<port id="0" precision="FP16">
					<dim>1</dim>
					<dim>1</dim>
					<dim>1</dim>
					<dim>1</dim>
				</port>
			</output>
		</layer>
		<layer id="155" name="Transformer/encoderblock_0/Transformer/encoderblock_0/MultiHeadDotProductAttention_1/truediv_copy" type="Multiply" version="opset1">
			<data auto_broadcast="numpy"/>
			<input>
				<port id="0" precision="FP16">
					<dim>1</dim>
					<dim>4</dim>
					<dim>63</dim>
					<dim>32</dim>
				</port>
				<port id="1" precision="FP16">
					<dim>1</dim>
					<dim>1</dim>
					<dim>1</dim>
					<dim>1</dim>
				</port>
			</input>
			<output>
				<port id="2" names="Transformer/encoderblock_0/Transformer/encoderblock_0/MultiHeadDotProductAttention_1/transpose_1:0" precision="FP16">
					<dim>1</dim>
					<dim>4</dim>
					<dim>63</dim>
					<dim>32</dim>
				</port>
			</output>
		</layer>
		<layer id="156" name="Transformer/encoderblock_0/Transformer/encoderblock_0/MultiHeadDotProductAttention_1/MatMul" type="MatMul" version="opset1">
			<data transpose_a="false" transpose_b="true"/>
			<input>
				<port id="0" precision="FP16">
					<dim>1</dim>
					<dim>4</dim>
					<dim>63</dim>
					<dim>32</dim>
				</port>
				<port id="1" precision="FP16">
					<dim>1</dim>
					<dim>4</dim>
					<dim>63</dim>
					<dim>32</dim>
				</port>
			</input>
			<output>
				<port id="2" names="Transformer/encoderblock_0/Transformer/encoderblock_0/MultiHeadDotProductAttention_1/truediv:0" precision="FP16">
					<dim>1</dim>
					<dim>4</dim>
					<dim>63</dim>
					<dim>63</dim>
				</port>
			</output>
		</layer>
		<layer id="157" name="Transformer/encoderblock_0/Transformer/encoderblock_0/MultiHeadDotProductAttention_1/Softmax" type="SoftMax" version="opset1">
			<data axis="3"/>
			<input>
				<port id="0" precision="FP16">
					<dim>1</dim>
					<dim>4</dim>
					<dim>63</dim>
					<dim>63</dim>
				</port>
			</input>
			<output>
				<port id="1" names="Transformer/encoderblock_0/Transformer/encoderblock_0/MultiHeadDotProductAttention_1/Softmax:0" precision="FP16">
					<dim>1</dim>
					<dim>4</dim>
					<dim>63</dim>
					<dim>63</dim>
				</port>
			</output>
		</layer>
		<layer id="158" name="Transformer/encoderblock_0/Transformer/encoderblock_0/MultiHeadDotProductAttention_1/values/Tensordot/Shape" type="ShapeOf" version="opset3">
			<data output_type="i32"/>
			<input>
				<port id="0" precision="FP16">
					<dim>1</dim>
					<dim>63</dim>
					<dim>128</dim>
				</port>
			</input>
			<output>
				<port id="1" names="Transformer/encoderblock_0/Transformer/encoderblock_0/MultiHeadDotProductAttention_1/values/Tensordot/Shape:0" precision="I32">
					<dim>3</dim>
				</port>
			</output>
		</layer>
		<layer id="159" name="Transformer/encoderblock_0/Transformer/encoderblock_0/MultiHeadDotProductAttention_1/values/Tensordot/free" type="Const" version="opset1">
			<data element_type="i32" offset="54970" shape="2" size="8"/>
			<output>
				<port id="0" names="Transformer/encoderblock_0/Transformer/encoderblock_0/MultiHeadDotProductAttention_1/values/Tensordot/free:0" precision="I32">
					<dim>2</dim>
				</port>
			</output>
		</layer>
		<layer id="160" name="Transformer/encoderblock_0/Transformer/encoderblock_0/MultiHeadDotProductAttention_1/values/Tensordot/GatherV2/axis" type="Const" version="opset1">
			<data element_type="i64" offset="54978" shape="" size="8"/>
			<output>
				<port id="0" names="Transformer/encoderblock_0/Transformer/encoderblock_0/MultiHeadDotProductAttention_1/values/Tensordot/GatherV2/axis:0" precision="I64"/>
			</output>
		</layer>
		<layer id="161" name="Transformer/encoderblock_0/Transformer/encoderblock_0/MultiHeadDotProductAttention_1/values/Tensordot/GatherV2" type="Gather" version="opset7">
			<data batch_dims="0"/>
			<input>
				<port id="0" precision="I32">
					<dim>3</dim>
				</port>
				<port id="1" precision="I32">
					<dim>2</dim>
				</port>
				<port id="2" precision="I64"/>
			</input>
			<output>
				<port id="3" names="Transformer/encoderblock_0/Transformer/encoderblock_0/MultiHeadDotProductAttention_1/values/Tensordot/GatherV2:0" precision="I32">
					<dim>2</dim>
				</port>
			</output>
		</layer>
		<layer id="162" name="Transformer/encoderblock_0/Transformer/encoderblock_0/MultiHeadDotProductAttention_1/values/Tensordot/Const" type="Const" version="opset1">
			<data element_type="i64" offset="54978" shape="1" size="8"/>
			<output>
				<port id="0" names="Transformer/encoderblock_0/Transformer/encoderblock_0/MultiHeadDotProductAttention_1/values/Tensordot/Const:0" precision="I64">
					<dim>1</dim>
				</port>
			</output>
		</layer>
		<layer id="163" name="Transformer/encoderblock_0/Transformer/encoderblock_0/MultiHeadDotProductAttention_1/values/Tensordot/Prod" type="ReduceProd" version="opset1">
			<data keep_dims="false"/>
			<input>
				<port id="0" precision="I32">
					<dim>2</dim>
				</port>
				<port id="1" precision="I64">
					<dim>1</dim>
				</port>
			</input>
			<output>
				<port id="2" names="Transformer/encoderblock_0/Transformer/encoderblock_0/MultiHeadDotProductAttention_1/values/Tensordot/Prod:0" precision="I32"/>
			</output>
		</layer>
		<layer id="164" name="Transformer/encoderblock_0/Transformer/encoderblock_0/MultiHeadDotProductAttention_1/values/Tensordot/stack/Unsqueeze_input_port_1/value" type="Const" version="opset1">
			<data element_type="i64" offset="54978" shape="1" size="8"/>
			<output>
				<port id="0" precision="I64">
					<dim>1</dim>
				</port>
			</output>
		</layer>
		<layer id="165" name="Transformer/encoderblock_0/Transformer/encoderblock_0/MultiHeadDotProductAttention_1/values/Tensordot/stack/Unsqueeze" type="Unsqueeze" version="opset1">
			<input>
				<port id="0" precision="I32"/>
				<port id="1" precision="I64">
					<dim>1</dim>
				</port>
			</input>
			<output>
				<port id="2" precision="I32">
					<dim>1</dim>
				</port>
			</output>
		</layer>
		<layer id="166" name="Transformer/encoderblock_0/Transformer/encoderblock_0/MultiHeadDotProductAttention_1/values/Tensordot/axes" type="Const" version="opset1">
			<data element_type="i32" offset="54986" shape="1" size="4"/>
			<output>
				<port id="0" names="Transformer/encoderblock_0/Transformer/encoderblock_0/MultiHeadDotProductAttention_1/values/Tensordot/axes:0" precision="I32">
					<dim>1</dim>
				</port>
			</output>
		</layer>
		<layer id="167" name="Transformer/encoderblock_0/Transformer/encoderblock_0/MultiHeadDotProductAttention_1/values/Tensordot/GatherV2_1/axis" type="Const" version="opset1">
			<data element_type="i64" offset="54978" shape="" size="8"/>
			<output>
				<port id="0" names="Transformer/encoderblock_0/Transformer/encoderblock_0/MultiHeadDotProductAttention_1/values/Tensordot/GatherV2_1/axis:0" precision="I64"/>
			</output>
		</layer>
		<layer id="168" name="Transformer/encoderblock_0/Transformer/encoderblock_0/MultiHeadDotProductAttention_1/values/Tensordot/GatherV2_1" type="Gather" version="opset7">
			<data batch_dims="0"/>
			<input>
				<port id="0" precision="I32">
					<dim>3</dim>
				</port>
				<port id="1" precision="I32">
					<dim>1</dim>
				</port>
				<port id="2" precision="I64"/>
			</input>
			<output>
				<port id="3" names="Transformer/encoderblock_0/Transformer/encoderblock_0/MultiHeadDotProductAttention_1/values/Tensordot/GatherV2_1:0" precision="I32">
					<dim>1</dim>
				</port>
			</output>
		</layer>
		<layer id="169" name="Transformer/encoderblock_0/Transformer/encoderblock_0/MultiHeadDotProductAttention_1/values/Tensordot/Const_1" type="Const" version="opset1">
			<data element_type="i64" offset="54978" shape="1" size="8"/>
			<output>
				<port id="0" names="Transformer/encoderblock_0/Transformer/encoderblock_0/MultiHeadDotProductAttention_1/values/Tensordot/Const_1:0" precision="I64">
					<dim>1</dim>
				</port>
			</output>
		</layer>
		<layer id="170" name="Transformer/encoderblock_0/Transformer/encoderblock_0/MultiHeadDotProductAttention_1/values/Tensordot/Prod_1" type="ReduceProd" version="opset1">
			<data keep_dims="false"/>
			<input>
				<port id="0" precision="I32">
					<dim>1</dim>
				</port>
				<port id="1" precision="I64">
					<dim>1</dim>
				</port>
			</input>
			<output>
				<port id="2" names="Transformer/encoderblock_0/Transformer/encoderblock_0/MultiHeadDotProductAttention_1/values/Tensordot/Prod_1:0" precision="I32"/>
			</output>
		</layer>
		<layer id="171" name="Transformer/encoderblock_0/Transformer/encoderblock_0/MultiHeadDotProductAttention_1/values/Tensordot/stack/Unsqueeze2330_input_port_1/value" type="Const" version="opset1">
			<data element_type="i64" offset="54978" shape="1" size="8"/>
			<output>
				<port id="0" precision="I64">
					<dim>1</dim>
				</port>
			</output>
		</layer>
		<layer id="172" name="Transformer/encoderblock_0/Transformer/encoderblock_0/MultiHeadDotProductAttention_1/values/Tensordot/stack/Unsqueeze2330" type="Unsqueeze" version="opset1">
			<input>
				<port id="0" precision="I32"/>
				<port id="1" precision="I64">
					<dim>1</dim>
				</port>
			</input>
			<output>
				<port id="2" precision="I32">
					<dim>1</dim>
				</port>
			</output>
		</layer>
		<layer id="173" name="Transformer/encoderblock_0/Transformer/encoderblock_0/MultiHeadDotProductAttention_1/values/Tensordot/stack" type="Concat" version="opset1">
			<data axis="0"/>
			<input>
				<port id="0" precision="I32">
					<dim>1</dim>
				</port>
				<port id="1" precision="I32">
					<dim>1</dim>
				</port>
			</input>
			<output>
				<port id="2" precision="I32">
					<dim>2</dim>
				</port>
			</output>
		</layer>
		<layer id="174" name="Transformer/encoderblock_0/Transformer/encoderblock_0/MultiHeadDotProductAttention_1/values/Tensordot/Reshape/Cast_1" type="Convert" version="opset1">
			<data destination_type="i64"/>
			<input>
				<port id="0" precision="I32">
					<dim>2</dim>
				</port>
			</input>
			<output>
				<port id="1" names="Transformer/encoderblock_0/Transformer/encoderblock_0/MultiHeadDotProductAttention_1/values/Tensordot/stack:0" precision="I64">
					<dim>2</dim>
				</port>
			</output>
		</layer>
		<layer id="175" name="Transformer/encoderblock_0/Transformer/encoderblock_0/MultiHeadDotProductAttention_1/values/Tensordot/Reshape" type="Reshape" version="opset1">
			<data special_zero="false"/>
			<input>
				<port id="0" precision="FP16">
					<dim>1</dim>
					<dim>63</dim>
					<dim>128</dim>
				</port>
				<port id="1" precision="I64">
					<dim>2</dim>
				</port>
			</input>
			<output>
				<port id="2" names="Transformer/encoderblock_0/Transformer/encoderblock_0/MultiHeadDotProductAttention_1/values/Tensordot/Reshape:0" precision="FP16">
					<dim>63</dim>
					<dim>128</dim>
				</port>
			</output>
		</layer>
		<layer id="176" name="Transformer/encoderblock_0/Transformer/encoderblock_0/MultiHeadDotProductAttention_1/values/Tensordot/Reshape_1" type="Const" version="opset1">
			<data element_type="f16" offset="121088" shape="128, 128" size="32768"/>
			<output>
				<port id="0" names="Transformer/encoderblock_0/Transformer/encoderblock_0/MultiHeadDotProductAttention_1/values/Tensordot/Reshape_1:0" precision="FP16">
					<dim>128</dim>
					<dim>128</dim>
				</port>
			</output>
		</layer>
		<layer id="177" name="Transformer/encoderblock_0/Transformer/encoderblock_0/MultiHeadDotProductAttention_1/values/Tensordot/MatMul" type="MatMul" version="opset1">
			<data transpose_a="false" transpose_b="true"/>
			<input>
				<port id="0" precision="FP16">
					<dim>63</dim>
					<dim>128</dim>
				</port>
				<port id="1" precision="FP16">
					<dim>128</dim>
					<dim>128</dim>
				</port>
			</input>
			<output>
				<port id="2" names="Transformer/encoderblock_0/Transformer/encoderblock_0/MultiHeadDotProductAttention_1/values/Tensordot/MatMul:0" precision="FP16">
					<dim>63</dim>
					<dim>128</dim>
				</port>
			</output>
		</layer>
		<layer id="178" name="Transformer/encoderblock_0/Transformer/encoderblock_0/MultiHeadDotProductAttention_1/values/Tensordot/Const_2" type="Const" version="opset1">
			<data element_type="i32" offset="87758" shape="1" size="4"/>
			<output>
				<port id="0" names="Transformer/encoderblock_0/Transformer/encoderblock_0/MultiHeadDotProductAttention_1/values/Tensordot/Const_2:0" precision="I32">
					<dim>1</dim>
				</port>
			</output>
		</layer>
		<layer id="179" name="Transformer/encoderblock_0/Transformer/encoderblock_0/MultiHeadDotProductAttention_1/values/Tensordot/concat_1" type="Concat" version="opset1">
			<data axis="0"/>
			<input>
				<port id="0" precision="I32">
					<dim>2</dim>
				</port>
				<port id="1" precision="I32">
					<dim>1</dim>
				</port>
			</input>
			<output>
				<port id="2" precision="I32">
					<dim>3</dim>
				</port>
			</output>
		</layer>
		<layer id="180" name="Transformer/encoderblock_0/Transformer/encoderblock_0/MultiHeadDotProductAttention_1/values/Tensordot/Cast_1" type="Convert" version="opset1">
			<data destination_type="i64"/>
			<input>
				<port id="0" precision="I32">
					<dim>3</dim>
				</port>
			</input>
			<output>
				<port id="1" names="Transformer/encoderblock_0/Transformer/encoderblock_0/MultiHeadDotProductAttention_1/values/Tensordot/concat_1:0" precision="I64">
					<dim>3</dim>
				</port>
			</output>
		</layer>
		<layer id="181" name="Transformer/encoderblock_0/Transformer/encoderblock_0/MultiHeadDotProductAttention_1/values/Tensordot" type="Reshape" version="opset1">
			<data special_zero="false"/>
			<input>
				<port id="0" precision="FP16">
					<dim>63</dim>
					<dim>128</dim>
				</port>
				<port id="1" precision="I64">
					<dim>3</dim>
				</port>
			</input>
			<output>
				<port id="2" names="Transformer/encoderblock_0/Transformer/encoderblock_0/MultiHeadDotProductAttention_1/values/Tensordot:0" precision="FP16">
					<dim>1</dim>
					<dim>63</dim>
					<dim>128</dim>
				</port>
			</output>
		</layer>
		<layer id="182" name="Transformer/encoderblock_0/Transformer/encoderblock_0/MultiHeadDotProductAttention_1/values/BiasAdd/ReadVariableOp" type="Const" version="opset1">
			<data element_type="f16" offset="153856" shape="1, 1, 128" size="256"/>
			<output>
				<port id="0" names="Transformer/encoderblock_0/Transformer/encoderblock_0/MultiHeadDotProductAttention_1/values/BiasAdd/ReadVariableOp:0" precision="FP16">
					<dim>1</dim>
					<dim>1</dim>
					<dim>128</dim>
				</port>
			</output>
		</layer>
		<layer id="183" name="Transformer/encoderblock_0/Transformer/encoderblock_0/MultiHeadDotProductAttention_1/values/BiasAdd/Add" type="Add" version="opset1">
			<data auto_broadcast="numpy"/>
			<input>
				<port id="0" precision="FP16">
					<dim>1</dim>
					<dim>63</dim>
					<dim>128</dim>
				</port>
				<port id="1" precision="FP16">
					<dim>1</dim>
					<dim>1</dim>
					<dim>128</dim>
				</port>
			</input>
			<output>
				<port id="2" names="Transformer/encoderblock_0/Transformer/encoderblock_0/MultiHeadDotProductAttention_1/values/BiasAdd:0" precision="FP16">
					<dim>1</dim>
					<dim>63</dim>
					<dim>128</dim>
				</port>
			</output>
		</layer>
		<layer id="184" name="Transformer/encoderblock_0/Transformer/encoderblock_0/MultiHeadDotProductAttention_1/Reshape_2/shape/Unsqueeze_input_port_1/value" type="Const" version="opset1">
			<data element_type="i64" offset="54978" shape="1" size="8"/>
			<output>
				<port id="0" precision="I64">
					<dim>1</dim>
				</port>
			</output>
		</layer>
		<layer id="185" name="Transformer/encoderblock_0/Transformer/encoderblock_0/MultiHeadDotProductAttention_1/Reshape_2/shape/Unsqueeze" type="Unsqueeze" version="opset1">
			<input>
				<port id="0" precision="I32"/>
				<port id="1" precision="I64">
					<dim>1</dim>
				</port>
			</input>
			<output>
				<port id="2" precision="I32">
					<dim>1</dim>
				</port>
			</output>
		</layer>
		<layer id="186" name="Transformer/encoderblock_0/Transformer/encoderblock_0/MultiHeadDotProductAttention_1/Reshape_2/shape/Unsqueeze2224" type="Const" version="opset1">
			<data element_type="i32" offset="88018" shape="1" size="4"/>
			<output>
				<port id="0" precision="I32">
					<dim>1</dim>
				</port>
			</output>
		</layer>
		<layer id="187" name="Transformer/encoderblock_0/Transformer/encoderblock_0/MultiHeadDotProductAttention_1/Reshape_2/shape/Unsqueeze2226" type="Const" version="opset1">
			<data element_type="i32" offset="88022" shape="1" size="4"/>
			<output>
				<port id="0" precision="I32">
					<dim>1</dim>
				</port>
			</output>
		</layer>
		<layer id="188" name="Transformer/encoderblock_0/Transformer/encoderblock_0/MultiHeadDotProductAttention_1/Reshape_2/shape/Unsqueeze2228" type="Const" version="opset1">
			<data element_type="i32" offset="88026" shape="1" size="4"/>
			<output>
				<port id="0" precision="I32">
					<dim>1</dim>
				</port>
			</output>
		</layer>
		<layer id="189" name="Transformer/encoderblock_0/Transformer/encoderblock_0/MultiHeadDotProductAttention_1/Reshape_2/shape" type="Concat" version="opset1">
			<data axis="0"/>
			<input>
				<port id="0" precision="I32">
					<dim>1</dim>
				</port>
				<port id="1" precision="I32">
					<dim>1</dim>
				</port>
				<port id="2" precision="I32">
					<dim>1</dim>
				</port>
				<port id="3" precision="I32">
					<dim>1</dim>
				</port>
			</input>
			<output>
				<port id="4" precision="I32">
					<dim>4</dim>
				</port>
			</output>
		</layer>
		<layer id="190" name="Transformer/encoderblock_0/Transformer/encoderblock_0/MultiHeadDotProductAttention_1/Reshape_2/Cast_1" type="Convert" version="opset1">
			<data destination_type="i64"/>
			<input>
				<port id="0" precision="I32">
					<dim>4</dim>
				</port>
			</input>
			<output>
				<port id="1" names="Transformer/encoderblock_0/Transformer/encoderblock_0/MultiHeadDotProductAttention_1/Reshape_2/shape:0" precision="I64">
					<dim>4</dim>
				</port>
			</output>
		</layer>
		<layer id="191" name="Transformer/encoderblock_0/Transformer/encoderblock_0/MultiHeadDotProductAttention_1/Reshape_2" type="Reshape" version="opset1">
			<data special_zero="false"/>
			<input>
				<port id="0" precision="FP16">
					<dim>1</dim>
					<dim>63</dim>
					<dim>128</dim>
				</port>
				<port id="1" precision="I64">
					<dim>4</dim>
				</port>
			</input>
			<output>
				<port id="2" names="Transformer/encoderblock_0/Transformer/encoderblock_0/MultiHeadDotProductAttention_1/Reshape_2:0" precision="FP16">
					<dim>1</dim>
					<dim>63</dim>
					<dim>4</dim>
					<dim>32</dim>
				</port>
			</output>
		</layer>
		<layer id="192" name="Transformer/encoderblock_0/Transformer/encoderblock_0/MultiHeadDotProductAttention_1/transpose_2/perm" type="Const" version="opset1">
			<data element_type="i64" offset="88030" shape="4" size="32"/>
			<output>
				<port id="0" names="Transformer/encoderblock_0/Transformer/encoderblock_0/MultiHeadDotProductAttention_1/transpose_2/perm:0" precision="I64">
					<dim>4</dim>
				</port>
			</output>
		</layer>
		<layer id="193" name="Transformer/encoderblock_0/Transformer/encoderblock_0/MultiHeadDotProductAttention_1/transpose_2" type="Transpose" version="opset1">
			<input>
				<port id="0" precision="FP16">
					<dim>1</dim>
					<dim>63</dim>
					<dim>4</dim>
					<dim>32</dim>
				</port>
				<port id="1" precision="I64">
					<dim>4</dim>
				</port>
			</input>
			<output>
				<port id="2" names="Transformer/encoderblock_0/Transformer/encoderblock_0/MultiHeadDotProductAttention_1/transpose_2:0" precision="FP16">
					<dim>1</dim>
					<dim>4</dim>
					<dim>63</dim>
					<dim>32</dim>
				</port>
			</output>
		</layer>
		<layer id="194" name="Transformer/encoderblock_0/Transformer/encoderblock_0/MultiHeadDotProductAttention_1/MatMul_1" type="MatMul" version="opset1">
			<data transpose_a="false" transpose_b="false"/>
			<input>
				<port id="0" precision="FP16">
					<dim>1</dim>
					<dim>4</dim>
					<dim>63</dim>
					<dim>63</dim>
				</port>
				<port id="1" precision="FP16">
					<dim>1</dim>
					<dim>4</dim>
					<dim>63</dim>
					<dim>32</dim>
				</port>
			</input>
			<output>
				<port id="2" names="Transformer/encoderblock_0/Transformer/encoderblock_0/MultiHeadDotProductAttention_1/MatMul_1:0" precision="FP16">
					<dim>1</dim>
					<dim>4</dim>
					<dim>63</dim>
					<dim>32</dim>
				</port>
			</output>
		</layer>
		<layer id="195" name="Transformer/encoderblock_0/Transformer/encoderblock_0/MultiHeadDotProductAttention_1/transpose_3/perm" type="Const" version="opset1">
			<data element_type="i64" offset="88030" shape="4" size="32"/>
			<output>
				<port id="0" names="Transformer/encoderblock_0/Transformer/encoderblock_0/MultiHeadDotProductAttention_1/transpose_3/perm:0" precision="I64">
					<dim>4</dim>
				</port>
			</output>
		</layer>
		<layer id="196" name="Transformer/encoderblock_0/Transformer/encoderblock_0/MultiHeadDotProductAttention_1/transpose_3" type="Transpose" version="opset1">
			<input>
				<port id="0" precision="FP16">
					<dim>1</dim>
					<dim>4</dim>
					<dim>63</dim>
					<dim>32</dim>
				</port>
				<port id="1" precision="I64">
					<dim>4</dim>
				</port>
			</input>
			<output>
				<port id="2" names="Transformer/encoderblock_0/Transformer/encoderblock_0/MultiHeadDotProductAttention_1/transpose_3:0" precision="FP16">
					<dim>1</dim>
					<dim>63</dim>
					<dim>4</dim>
					<dim>32</dim>
				</port>
			</output>
		</layer>
		<layer id="197" name="Transformer/encoderblock_0/Transformer/encoderblock_0/MultiHeadDotProductAttention_1/Reshape_3/shape/Unsqueeze_input_port_1/value" type="Const" version="opset1">
			<data element_type="i64" offset="54978" shape="1" size="8"/>
			<output>
				<port id="0" precision="I64">
					<dim>1</dim>
				</port>
			</output>
		</layer>
		<layer id="198" name="Transformer/encoderblock_0/Transformer/encoderblock_0/MultiHeadDotProductAttention_1/Reshape_3/shape/Unsqueeze" type="Unsqueeze" version="opset1">
			<input>
				<port id="0" precision="I32"/>
				<port id="1" precision="I64">
					<dim>1</dim>
				</port>
			</input>
			<output>
				<port id="2" precision="I32">
					<dim>1</dim>
				</port>
			</output>
		</layer>
		<layer id="199" name="Transformer/encoderblock_0/Transformer/encoderblock_0/MultiHeadDotProductAttention_1/Reshape_3/shape/Unsqueeze2407" type="Const" version="opset1">
			<data element_type="i32" offset="88018" shape="1" size="4"/>
			<output>
				<port id="0" precision="I32">
					<dim>1</dim>
				</port>
			</output>
		</layer>
		<layer id="200" name="Transformer/encoderblock_0/Transformer/encoderblock_0/MultiHeadDotProductAttention_1/Reshape_3/shape/Unsqueeze2409" type="Const" version="opset1">
			<data element_type="i32" offset="87758" shape="1" size="4"/>
			<output>
				<port id="0" precision="I32">
					<dim>1</dim>
				</port>
			</output>
		</layer>
		<layer id="201" name="Transformer/encoderblock_0/Transformer/encoderblock_0/MultiHeadDotProductAttention_1/Reshape_3/shape" type="Concat" version="opset1">
			<data axis="0"/>
			<input>
				<port id="0" precision="I32">
					<dim>1</dim>
				</port>
				<port id="1" precision="I32">
					<dim>1</dim>
				</port>
				<port id="2" precision="I32">
					<dim>1</dim>
				</port>
			</input>
			<output>
				<port id="3" precision="I32">
					<dim>3</dim>
				</port>
			</output>
		</layer>
		<layer id="202" name="Transformer/encoderblock_0/Transformer/encoderblock_0/MultiHeadDotProductAttention_1/Reshape_3/Cast_1" type="Convert" version="opset1">
			<data destination_type="i64"/>
			<input>
				<port id="0" precision="I32">
					<dim>3</dim>
				</port>
			</input>
			<output>
				<port id="1" names="Transformer/encoderblock_0/Transformer/encoderblock_0/MultiHeadDotProductAttention_1/Reshape_3/shape:0" precision="I64">
					<dim>3</dim>
				</port>
			</output>
		</layer>
		<layer id="203" name="Transformer/encoderblock_0/Transformer/encoderblock_0/MultiHeadDotProductAttention_1/Reshape_3" type="Reshape" version="opset1">
			<data special_zero="false"/>
			<input>
				<port id="0" precision="FP16">
					<dim>1</dim>
					<dim>63</dim>
					<dim>4</dim>
					<dim>32</dim>
				</port>
				<port id="1" precision="I64">
					<dim>3</dim>
				</port>
			</input>
			<output>
				<port id="2" names="Transformer/encoderblock_0/Transformer/encoderblock_0/MultiHeadDotProductAttention_1/Reshape_3:0,Transformer/encoderblock_0/Transformer/encoderblock_0/MultiHeadDotProductAttention_1/combine/Tensordot/transpose:0" precision="FP16">
					<dim>1</dim>
					<dim>63</dim>
					<dim>128</dim>
				</port>
			</output>
		</layer>
		<layer id="204" name="Transformer/encoderblock_0/Transformer/encoderblock_0/MultiHeadDotProductAttention_1/combine/Tensordot/Shape" type="ShapeOf" version="opset3">
			<data output_type="i32"/>
			<input>
				<port id="0" precision="FP16">
					<dim>1</dim>
					<dim>63</dim>
					<dim>128</dim>
				</port>
			</input>
			<output>
				<port id="1" names="Transformer/encoderblock_0/Transformer/encoderblock_0/MultiHeadDotProductAttention_1/combine/Tensordot/Shape:0" precision="I32">
					<dim>3</dim>
				</port>
			</output>
		</layer>
		<layer id="205" name="Transformer/encoderblock_0/Transformer/encoderblock_0/MultiHeadDotProductAttention_1/combine/Tensordot/free" type="Const" version="opset1">
			<data element_type="i32" offset="54970" shape="2" size="8"/>
			<output>
				<port id="0" names="Transformer/encoderblock_0/Transformer/encoderblock_0/MultiHeadDotProductAttention_1/combine/Tensordot/free:0" precision="I32">
					<dim>2</dim>
				</port>
			</output>
		</layer>
		<layer id="206" name="Transformer/encoderblock_0/Transformer/encoderblock_0/MultiHeadDotProductAttention_1/combine/Tensordot/GatherV2/axis" type="Const" version="opset1">
			<data element_type="i64" offset="54978" shape="" size="8"/>
			<output>
				<port id="0" names="Transformer/encoderblock_0/Transformer/encoderblock_0/MultiHeadDotProductAttention_1/combine/Tensordot/GatherV2/axis:0" precision="I64"/>
			</output>
		</layer>
		<layer id="207" name="Transformer/encoderblock_0/Transformer/encoderblock_0/MultiHeadDotProductAttention_1/combine/Tensordot/GatherV2" type="Gather" version="opset7">
			<data batch_dims="0"/>
			<input>
				<port id="0" precision="I32">
					<dim>3</dim>
				</port>
				<port id="1" precision="I32">
					<dim>2</dim>
				</port>
				<port id="2" precision="I64"/>
			</input>
			<output>
				<port id="3" names="Transformer/encoderblock_0/Transformer/encoderblock_0/MultiHeadDotProductAttention_1/combine/Tensordot/GatherV2:0" precision="I32">
					<dim>2</dim>
				</port>
			</output>
		</layer>
		<layer id="208" name="Transformer/encoderblock_0/Transformer/encoderblock_0/MultiHeadDotProductAttention_1/combine/Tensordot/Const" type="Const" version="opset1">
			<data element_type="i64" offset="54978" shape="1" size="8"/>
			<output>
				<port id="0" names="Transformer/encoderblock_0/Transformer/encoderblock_0/MultiHeadDotProductAttention_1/combine/Tensordot/Const:0" precision="I64">
					<dim>1</dim>
				</port>
			</output>
		</layer>
		<layer id="209" name="Transformer/encoderblock_0/Transformer/encoderblock_0/MultiHeadDotProductAttention_1/combine/Tensordot/Prod" type="ReduceProd" version="opset1">
			<data keep_dims="false"/>
			<input>
				<port id="0" precision="I32">
					<dim>2</dim>
				</port>
				<port id="1" precision="I64">
					<dim>1</dim>
				</port>
			</input>
			<output>
				<port id="2" names="Transformer/encoderblock_0/Transformer/encoderblock_0/MultiHeadDotProductAttention_1/combine/Tensordot/Prod:0" precision="I32"/>
			</output>
		</layer>
		<layer id="210" name="Transformer/encoderblock_0/Transformer/encoderblock_0/MultiHeadDotProductAttention_1/combine/Tensordot/stack/Unsqueeze_input_port_1/value" type="Const" version="opset1">
			<data element_type="i64" offset="54978" shape="1" size="8"/>
			<output>
				<port id="0" precision="I64">
					<dim>1</dim>
				</port>
			</output>
		</layer>
		<layer id="211" name="Transformer/encoderblock_0/Transformer/encoderblock_0/MultiHeadDotProductAttention_1/combine/Tensordot/stack/Unsqueeze" type="Unsqueeze" version="opset1">
			<input>
				<port id="0" precision="I32"/>
				<port id="1" precision="I64">
					<dim>1</dim>
				</port>
			</input>
			<output>
				<port id="2" precision="I32">
					<dim>1</dim>
				</port>
			</output>
		</layer>
		<layer id="212" name="Transformer/encoderblock_0/Transformer/encoderblock_0/MultiHeadDotProductAttention_1/combine/Tensordot/axes" type="Const" version="opset1">
			<data element_type="i32" offset="54986" shape="1" size="4"/>
			<output>
				<port id="0" names="Transformer/encoderblock_0/Transformer/encoderblock_0/MultiHeadDotProductAttention_1/combine/Tensordot/axes:0" precision="I32">
					<dim>1</dim>
				</port>
			</output>
		</layer>
		<layer id="213" name="Transformer/encoderblock_0/Transformer/encoderblock_0/MultiHeadDotProductAttention_1/combine/Tensordot/GatherV2_1/axis" type="Const" version="opset1">
			<data element_type="i64" offset="54978" shape="" size="8"/>
			<output>
				<port id="0" names="Transformer/encoderblock_0/Transformer/encoderblock_0/MultiHeadDotProductAttention_1/combine/Tensordot/GatherV2_1/axis:0" precision="I64"/>
			</output>
		</layer>
		<layer id="214" name="Transformer/encoderblock_0/Transformer/encoderblock_0/MultiHeadDotProductAttention_1/combine/Tensordot/GatherV2_1" type="Gather" version="opset7">
			<data batch_dims="0"/>
			<input>
				<port id="0" precision="I32">
					<dim>3</dim>
				</port>
				<port id="1" precision="I32">
					<dim>1</dim>
				</port>
				<port id="2" precision="I64"/>
			</input>
			<output>
				<port id="3" names="Transformer/encoderblock_0/Transformer/encoderblock_0/MultiHeadDotProductAttention_1/combine/Tensordot/GatherV2_1:0" precision="I32">
					<dim>1</dim>
				</port>
			</output>
		</layer>
		<layer id="215" name="Transformer/encoderblock_0/Transformer/encoderblock_0/MultiHeadDotProductAttention_1/combine/Tensordot/Const_1" type="Const" version="opset1">
			<data element_type="i64" offset="54978" shape="1" size="8"/>
			<output>
				<port id="0" names="Transformer/encoderblock_0/Transformer/encoderblock_0/MultiHeadDotProductAttention_1/combine/Tensordot/Const_1:0" precision="I64">
					<dim>1</dim>
				</port>
			</output>
		</layer>
		<layer id="216" name="Transformer/encoderblock_0/Transformer/encoderblock_0/MultiHeadDotProductAttention_1/combine/Tensordot/Prod_1" type="ReduceProd" version="opset1">
			<data keep_dims="false"/>
			<input>
				<port id="0" precision="I32">
					<dim>1</dim>
				</port>
				<port id="1" precision="I64">
					<dim>1</dim>
				</port>
			</input>
			<output>
				<port id="2" names="Transformer/encoderblock_0/Transformer/encoderblock_0/MultiHeadDotProductAttention_1/combine/Tensordot/Prod_1:0" precision="I32"/>
			</output>
		</layer>
		<layer id="217" name="Transformer/encoderblock_0/Transformer/encoderblock_0/MultiHeadDotProductAttention_1/combine/Tensordot/stack/Unsqueeze2397_input_port_1/value" type="Const" version="opset1">
			<data element_type="i64" offset="54978" shape="1" size="8"/>
			<output>
				<port id="0" precision="I64">
					<dim>1</dim>
				</port>
			</output>
		</layer>
		<layer id="218" name="Transformer/encoderblock_0/Transformer/encoderblock_0/MultiHeadDotProductAttention_1/combine/Tensordot/stack/Unsqueeze2397" type="Unsqueeze" version="opset1">
			<input>
				<port id="0" precision="I32"/>
				<port id="1" precision="I64">
					<dim>1</dim>
				</port>
			</input>
			<output>
				<port id="2" precision="I32">
					<dim>1</dim>
				</port>
			</output>
		</layer>
		<layer id="219" name="Transformer/encoderblock_0/Transformer/encoderblock_0/MultiHeadDotProductAttention_1/combine/Tensordot/stack" type="Concat" version="opset1">
			<data axis="0"/>
			<input>
				<port id="0" precision="I32">
					<dim>1</dim>
				</port>
				<port id="1" precision="I32">
					<dim>1</dim>
				</port>
			</input>
			<output>
				<port id="2" precision="I32">
					<dim>2</dim>
				</port>
			</output>
		</layer>
		<layer id="220" name="Transformer/encoderblock_0/Transformer/encoderblock_0/MultiHeadDotProductAttention_1/combine/Tensordot/Reshape/Cast_1" type="Convert" version="opset1">
			<data destination_type="i64"/>
			<input>
				<port id="0" precision="I32">
					<dim>2</dim>
				</port>
			</input>
			<output>
				<port id="1" names="Transformer/encoderblock_0/Transformer/encoderblock_0/MultiHeadDotProductAttention_1/combine/Tensordot/stack:0" precision="I64">
					<dim>2</dim>
				</port>
			</output>
		</layer>
		<layer id="221" name="Transformer/encoderblock_0/Transformer/encoderblock_0/MultiHeadDotProductAttention_1/combine/Tensordot/Reshape" type="Reshape" version="opset1">
			<data special_zero="false"/>
			<input>
				<port id="0" precision="FP16">
					<dim>1</dim>
					<dim>63</dim>
					<dim>128</dim>
				</port>
				<port id="1" precision="I64">
					<dim>2</dim>
				</port>
			</input>
			<output>
				<port id="2" names="Transformer/encoderblock_0/Transformer/encoderblock_0/MultiHeadDotProductAttention_1/combine/Tensordot/Reshape:0" precision="FP16">
					<dim>63</dim>
					<dim>128</dim>
				</port>
			</output>
		</layer>
		<layer id="222" name="Transformer/encoderblock_0/Transformer/encoderblock_0/MultiHeadDotProductAttention_1/combine/Tensordot/Reshape_1" type="Const" version="opset1">
			<data element_type="f16" offset="154112" shape="128, 128" size="32768"/>
			<output>
				<port id="0" names="Transformer/encoderblock_0/Transformer/encoderblock_0/MultiHeadDotProductAttention_1/combine/Tensordot/Reshape_1:0" precision="FP16">
					<dim>128</dim>
					<dim>128</dim>
				</port>
			</output>
		</layer>
		<layer id="223" name="Transformer/encoderblock_0/Transformer/encoderblock_0/MultiHeadDotProductAttention_1/combine/Tensordot/MatMul" type="MatMul" version="opset1">
			<data transpose_a="false" transpose_b="true"/>
			<input>
				<port id="0" precision="FP16">
					<dim>63</dim>
					<dim>128</dim>
				</port>
				<port id="1" precision="FP16">
					<dim>128</dim>
					<dim>128</dim>
				</port>
			</input>
			<output>
				<port id="2" names="Transformer/encoderblock_0/Transformer/encoderblock_0/MultiHeadDotProductAttention_1/combine/Tensordot/MatMul:0" precision="FP16">
					<dim>63</dim>
					<dim>128</dim>
				</port>
			</output>
		</layer>
		<layer id="224" name="Transformer/encoderblock_0/Transformer/encoderblock_0/MultiHeadDotProductAttention_1/combine/Tensordot/Const_2" type="Const" version="opset1">
			<data element_type="i32" offset="87758" shape="1" size="4"/>
			<output>
				<port id="0" names="Transformer/encoderblock_0/Transformer/encoderblock_0/MultiHeadDotProductAttention_1/combine/Tensordot/Const_2:0" precision="I32">
					<dim>1</dim>
				</port>
			</output>
		</layer>
		<layer id="225" name="Transformer/encoderblock_0/Transformer/encoderblock_0/MultiHeadDotProductAttention_1/combine/Tensordot/concat_1" type="Concat" version="opset1">
			<data axis="0"/>
			<input>
				<port id="0" precision="I32">
					<dim>2</dim>
				</port>
				<port id="1" precision="I32">
					<dim>1</dim>
				</port>
			</input>
			<output>
				<port id="2" precision="I32">
					<dim>3</dim>
				</port>
			</output>
		</layer>
		<layer id="226" name="Transformer/encoderblock_0/Transformer/encoderblock_0/MultiHeadDotProductAttention_1/combine/Tensordot/Cast_1" type="Convert" version="opset1">
			<data destination_type="i64"/>
			<input>
				<port id="0" precision="I32">
					<dim>3</dim>
				</port>
			</input>
			<output>
				<port id="1" names="Transformer/encoderblock_0/Transformer/encoderblock_0/MultiHeadDotProductAttention_1/combine/Tensordot/concat_1:0" precision="I64">
					<dim>3</dim>
				</port>
			</output>
		</layer>
		<layer id="227" name="Transformer/encoderblock_0/Transformer/encoderblock_0/MultiHeadDotProductAttention_1/combine/Tensordot" type="Reshape" version="opset1">
			<data special_zero="false"/>
			<input>
				<port id="0" precision="FP16">
					<dim>63</dim>
					<dim>128</dim>
				</port>
				<port id="1" precision="I64">
					<dim>3</dim>
				</port>
			</input>
			<output>
				<port id="2" names="Transformer/encoderblock_0/Transformer/encoderblock_0/MultiHeadDotProductAttention_1/combine/Tensordot:0" precision="FP16">
					<dim>1</dim>
					<dim>63</dim>
					<dim>128</dim>
				</port>
			</output>
		</layer>
		<layer id="228" name="Transformer/encoderblock_0/Transformer/encoderblock_0/MultiHeadDotProductAttention_1/combine/BiasAdd/ReadVariableOp" type="Const" version="opset1">
			<data element_type="f16" offset="186880" shape="1, 1, 128" size="256"/>
			<output>
				<port id="0" names="Transformer/encoderblock_0/Transformer/encoderblock_0/MultiHeadDotProductAttention_1/combine/BiasAdd/ReadVariableOp:0" precision="FP16">
					<dim>1</dim>
					<dim>1</dim>
					<dim>128</dim>
				</port>
			</output>
		</layer>
		<layer id="229" name="Transformer/encoderblock_0/Transformer/encoderblock_0/MultiHeadDotProductAttention_1/combine/BiasAdd/Add" type="Add" version="opset1">
			<data auto_broadcast="numpy"/>
			<input>
				<port id="0" precision="FP16">
					<dim>1</dim>
					<dim>63</dim>
					<dim>128</dim>
				</port>
				<port id="1" precision="FP16">
					<dim>1</dim>
					<dim>1</dim>
					<dim>128</dim>
				</port>
			</input>
			<output>
				<port id="2" names="Transformer/encoderblock_0/Transformer/encoderblock_0/MultiHeadDotProductAttention_1/combine/BiasAdd:0,Transformer/encoderblock_0/dropout_2/Identity:0" precision="FP16">
					<dim>1</dim>
					<dim>63</dim>
					<dim>128</dim>
				</port>
			</output>
		</layer>
		<layer id="230" name="Transformer/encoderblock_0/add" type="Add" version="opset1">
			<data auto_broadcast="numpy"/>
			<input>
				<port id="0" precision="FP16">
					<dim>1</dim>
					<dim>63</dim>
					<dim>128</dim>
				</port>
				<port id="1" precision="FP16">
					<dim>1</dim>
					<dim>63</dim>
					<dim>128</dim>
				</port>
			</input>
			<output>
				<port id="2" names="Transformer/encoderblock_0/add:0" precision="FP16">
					<dim>1</dim>
					<dim>63</dim>
					<dim>128</dim>
				</port>
			</output>
		</layer>
		<layer id="231" name="Transformer/encoderblock_0/MlpBlock_3/lambda/mul/x" type="Const" version="opset1">
			<data element_type="f16" offset="187136" shape="1, 1, 1" size="2"/>
			<output>
				<port id="0" names="Transformer/encoderblock_0/MlpBlock_3/lambda/mul/x:0" precision="FP16">
					<dim>1</dim>
					<dim>1</dim>
					<dim>1</dim>
				</port>
			</output>
		</layer>
		<layer id="232" name="Transformer/encoderblock_0/layer_normalization_1/moments/mean/reduction_indices" type="Const" version="opset1">
			<data element_type="i64" offset="94" shape="1" size="8"/>
			<output>
				<port id="0" names="Transformer/encoderblock_0/layer_normalization_1/moments/mean/reduction_indices:0" precision="I64">
					<dim>1</dim>
				</port>
			</output>
		</layer>
		<layer id="233" name="Transformer/encoderblock_0/layer_normalization_1/moments/mean" type="ReduceMean" version="opset1">
			<data keep_dims="true"/>
			<input>
				<port id="0" precision="FP16">
					<dim>1</dim>
					<dim>63</dim>
					<dim>128</dim>
				</port>
				<port id="1" precision="I64">
					<dim>1</dim>
				</port>
			</input>
			<output>
				<port id="2" names="Transformer/encoderblock_0/layer_normalization_1/moments/StopGradient:0,Transformer/encoderblock_0/layer_normalization_1/moments/mean:0" precision="FP16">
					<dim>1</dim>
					<dim>63</dim>
					<dim>1</dim>
				</port>
			</output>
		</layer>
		<layer id="234" name="Transformer/encoderblock_0/layer_normalization_1/moments/SquaredDifference" type="SquaredDifference" version="opset1">
			<data auto_broadcast="numpy"/>
			<input>
				<port id="0" precision="FP16">
					<dim>1</dim>
					<dim>63</dim>
					<dim>128</dim>
				</port>
				<port id="1" precision="FP16">
					<dim>1</dim>
					<dim>63</dim>
					<dim>1</dim>
				</port>
			</input>
			<output>
				<port id="2" names="Transformer/encoderblock_0/layer_normalization_1/moments/SquaredDifference:0" precision="FP16">
					<dim>1</dim>
					<dim>63</dim>
					<dim>128</dim>
				</port>
			</output>
		</layer>
		<layer id="235" name="Transformer/encoderblock_0/layer_normalization_1/moments/variance/reduction_indices" type="Const" version="opset1">
			<data element_type="i64" offset="94" shape="1" size="8"/>
			<output>
				<port id="0" names="Transformer/encoderblock_0/layer_normalization_1/moments/variance/reduction_indices:0" precision="I64">
					<dim>1</dim>
				</port>
			</output>
		</layer>
		<layer id="236" name="Transformer/encoderblock_0/layer_normalization_1/moments/variance" type="ReduceMean" version="opset1">
			<data keep_dims="true"/>
			<input>
				<port id="0" precision="FP16">
					<dim>1</dim>
					<dim>63</dim>
					<dim>128</dim>
				</port>
				<port id="1" precision="I64">
					<dim>1</dim>
				</port>
			</input>
			<output>
				<port id="2" names="Transformer/encoderblock_0/layer_normalization_1/moments/variance:0" precision="FP16">
					<dim>1</dim>
					<dim>63</dim>
					<dim>1</dim>
				</port>
			</output>
		</layer>
		<layer id="237" name="Transformer/encoderblock_0/layer_normalization_1/batchnorm/add/y" type="Const" version="opset1">
			<data element_type="f16" offset="54454" shape="1, 1, 1" size="2"/>
			<output>
				<port id="0" names="Transformer/encoderblock_0/layer_normalization_1/batchnorm/add/y:0" precision="FP16">
					<dim>1</dim>
					<dim>1</dim>
					<dim>1</dim>
				</port>
			</output>
		</layer>
		<layer id="238" name="Transformer/encoderblock_0/layer_normalization_1/batchnorm/add" type="Add" version="opset1">
			<data auto_broadcast="numpy"/>
			<input>
				<port id="0" precision="FP16">
					<dim>1</dim>
					<dim>63</dim>
					<dim>1</dim>
				</port>
				<port id="1" precision="FP16">
					<dim>1</dim>
					<dim>1</dim>
					<dim>1</dim>
				</port>
			</input>
			<output>
				<port id="2" precision="FP16">
					<dim>1</dim>
					<dim>63</dim>
					<dim>1</dim>
				</port>
			</output>
		</layer>
		<layer id="239" name="2094" type="Const" version="opset1">
			<data element_type="f16" offset="54456" shape="1, 1, 1" size="2"/>
			<output>
				<port id="0" precision="FP16">
					<dim>1</dim>
					<dim>1</dim>
					<dim>1</dim>
				</port>
			</output>
		</layer>
		<layer id="240" name="Transformer/encoderblock_0/layer_normalization_1/batchnorm/Rsqrt/pow_" type="Power" version="opset1">
			<data auto_broadcast="numpy"/>
			<input>
				<port id="0" precision="FP16">
					<dim>1</dim>
					<dim>63</dim>
					<dim>1</dim>
				</port>
				<port id="1" precision="FP16">
					<dim>1</dim>
					<dim>1</dim>
					<dim>1</dim>
				</port>
			</input>
			<output>
				<port id="2" names="Transformer/encoderblock_0/layer_normalization_1/batchnorm/Rsqrt:0" precision="FP16">
					<dim>1</dim>
					<dim>63</dim>
					<dim>1</dim>
				</port>
			</output>
		</layer>
		<layer id="241" name="Transformer/encoderblock_0/layer_normalization_1/batchnorm/mul/ReadVariableOp" type="Const" version="opset1">
			<data element_type="f16" offset="187138" shape="1, 1, 128" size="256"/>
			<output>
				<port id="0" names="Transformer/encoderblock_0/layer_normalization_1/batchnorm/mul/ReadVariableOp:0" precision="FP16">
					<dim>1</dim>
					<dim>1</dim>
					<dim>128</dim>
				</port>
			</output>
		</layer>
		<layer id="242" name="Transformer/encoderblock_0/layer_normalization_1/batchnorm/mul" type="Multiply" version="opset1">
			<data auto_broadcast="numpy"/>
			<input>
				<port id="0" precision="FP16">
					<dim>1</dim>
					<dim>63</dim>
					<dim>1</dim>
				</port>
				<port id="1" precision="FP16">
					<dim>1</dim>
					<dim>1</dim>
					<dim>128</dim>
				</port>
			</input>
			<output>
				<port id="2" names="Transformer/encoderblock_0/layer_normalization_1/batchnorm/mul:0" precision="FP16">
					<dim>1</dim>
					<dim>63</dim>
					<dim>128</dim>
				</port>
			</output>
		</layer>
		<layer id="243" name="Transformer/encoderblock_0/layer_normalization_1/batchnorm/mul_1" type="Multiply" version="opset1">
			<data auto_broadcast="numpy"/>
			<input>
				<port id="0" precision="FP16">
					<dim>1</dim>
					<dim>63</dim>
					<dim>128</dim>
				</port>
				<port id="1" precision="FP16">
					<dim>1</dim>
					<dim>63</dim>
					<dim>128</dim>
				</port>
			</input>
			<output>
				<port id="2" names="Transformer/encoderblock_0/layer_normalization_1/batchnorm/mul_1:0" precision="FP16">
					<dim>1</dim>
					<dim>63</dim>
					<dim>128</dim>
				</port>
			</output>
		</layer>
		<layer id="244" name="Transformer/encoderblock_0/layer_normalization_1/batchnorm/ReadVariableOp" type="Const" version="opset1">
			<data element_type="f16" offset="187394" shape="1, 1, 128" size="256"/>
			<output>
				<port id="0" names="Transformer/encoderblock_0/layer_normalization_1/batchnorm/ReadVariableOp:0" precision="FP16">
					<dim>1</dim>
					<dim>1</dim>
					<dim>128</dim>
				</port>
			</output>
		</layer>
		<layer id="245" name="Transformer/encoderblock_0/layer_normalization_1/batchnorm/mul_2" type="Multiply" version="opset1">
			<data auto_broadcast="numpy"/>
			<input>
				<port id="0" precision="FP16">
					<dim>1</dim>
					<dim>63</dim>
					<dim>1</dim>
				</port>
				<port id="1" precision="FP16">
					<dim>1</dim>
					<dim>63</dim>
					<dim>128</dim>
				</port>
			</input>
			<output>
				<port id="2" precision="FP16">
					<dim>1</dim>
					<dim>63</dim>
					<dim>128</dim>
				</port>
			</output>
		</layer>
		<layer id="246" name="Transformer/encoderblock_0/layer_normalization_1/batchnorm/sub/sub" type="Subtract" version="opset1">
			<data auto_broadcast="numpy"/>
			<input>
				<port id="0" precision="FP16">
					<dim>1</dim>
					<dim>1</dim>
					<dim>128</dim>
				</port>
				<port id="1" precision="FP16">
					<dim>1</dim>
					<dim>63</dim>
					<dim>128</dim>
				</port>
			</input>
			<output>
				<port id="2" names="Transformer/encoderblock_0/layer_normalization_1/batchnorm/sub:0" precision="FP16">
					<dim>1</dim>
					<dim>63</dim>
					<dim>128</dim>
				</port>
			</output>
		</layer>
		<layer id="247" name="Transformer/encoderblock_0/layer_normalization_1/batchnorm/add_1" type="Add" version="opset1">
			<data auto_broadcast="numpy"/>
			<input>
				<port id="0" precision="FP16">
					<dim>1</dim>
					<dim>63</dim>
					<dim>128</dim>
				</port>
				<port id="1" precision="FP16">
					<dim>1</dim>
					<dim>63</dim>
					<dim>128</dim>
				</port>
			</input>
			<output>
				<port id="2" names="Transformer/encoderblock_0/MlpBlock_3/Transformer/encoderblock_0/MlpBlock_3/Dense_0/Tensordot/transpose:0,Transformer/encoderblock_0/layer_normalization_1/batchnorm/add_1:0" precision="FP16">
					<dim>1</dim>
					<dim>63</dim>
					<dim>128</dim>
				</port>
			</output>
		</layer>
		<layer id="248" name="Transformer/encoderblock_0/MlpBlock_3/Transformer/encoderblock_0/MlpBlock_3/Dense_0/Tensordot/Shape" type="ShapeOf" version="opset3">
			<data output_type="i32"/>
			<input>
				<port id="0" precision="FP16">
					<dim>1</dim>
					<dim>63</dim>
					<dim>128</dim>
				</port>
			</input>
			<output>
				<port id="1" names="Transformer/encoderblock_0/MlpBlock_3/Transformer/encoderblock_0/MlpBlock_3/Dense_0/Tensordot/Shape:0" precision="I32">
					<dim>3</dim>
				</port>
			</output>
		</layer>
		<layer id="249" name="Transformer/encoderblock_0/MlpBlock_3/Transformer/encoderblock_0/MlpBlock_3/Dense_0/Tensordot/free" type="Const" version="opset1">
			<data element_type="i32" offset="54970" shape="2" size="8"/>
			<output>
				<port id="0" names="Transformer/encoderblock_0/MlpBlock_3/Transformer/encoderblock_0/MlpBlock_3/Dense_0/Tensordot/free:0" precision="I32">
					<dim>2</dim>
				</port>
			</output>
		</layer>
		<layer id="250" name="Transformer/encoderblock_0/MlpBlock_3/Transformer/encoderblock_0/MlpBlock_3/Dense_0/Tensordot/GatherV2/axis" type="Const" version="opset1">
			<data element_type="i64" offset="54978" shape="" size="8"/>
			<output>
				<port id="0" names="Transformer/encoderblock_0/MlpBlock_3/Transformer/encoderblock_0/MlpBlock_3/Dense_0/Tensordot/GatherV2/axis:0" precision="I64"/>
			</output>
		</layer>
		<layer id="251" name="Transformer/encoderblock_0/MlpBlock_3/Transformer/encoderblock_0/MlpBlock_3/Dense_0/Tensordot/GatherV2" type="Gather" version="opset7">
			<data batch_dims="0"/>
			<input>
				<port id="0" precision="I32">
					<dim>3</dim>
				</port>
				<port id="1" precision="I32">
					<dim>2</dim>
				</port>
				<port id="2" precision="I64"/>
			</input>
			<output>
				<port id="3" names="Transformer/encoderblock_0/MlpBlock_3/Transformer/encoderblock_0/MlpBlock_3/Dense_0/Tensordot/GatherV2:0" precision="I32">
					<dim>2</dim>
				</port>
			</output>
		</layer>
		<layer id="252" name="Transformer/encoderblock_0/MlpBlock_3/Transformer/encoderblock_0/MlpBlock_3/Dense_0/Tensordot/Const" type="Const" version="opset1">
			<data element_type="i64" offset="54978" shape="1" size="8"/>
			<output>
				<port id="0" names="Transformer/encoderblock_0/MlpBlock_3/Transformer/encoderblock_0/MlpBlock_3/Dense_0/Tensordot/Const:0" precision="I64">
					<dim>1</dim>
				</port>
			</output>
		</layer>
		<layer id="253" name="Transformer/encoderblock_0/MlpBlock_3/Transformer/encoderblock_0/MlpBlock_3/Dense_0/Tensordot/Prod" type="ReduceProd" version="opset1">
			<data keep_dims="false"/>
			<input>
				<port id="0" precision="I32">
					<dim>2</dim>
				</port>
				<port id="1" precision="I64">
					<dim>1</dim>
				</port>
			</input>
			<output>
				<port id="2" names="Transformer/encoderblock_0/MlpBlock_3/Transformer/encoderblock_0/MlpBlock_3/Dense_0/Tensordot/Prod:0" precision="I32"/>
			</output>
		</layer>
		<layer id="254" name="Transformer/encoderblock_0/MlpBlock_3/Transformer/encoderblock_0/MlpBlock_3/Dense_0/Tensordot/stack/Unsqueeze_input_port_1/value" type="Const" version="opset1">
			<data element_type="i64" offset="54978" shape="1" size="8"/>
			<output>
				<port id="0" precision="I64">
					<dim>1</dim>
				</port>
			</output>
		</layer>
		<layer id="255" name="Transformer/encoderblock_0/MlpBlock_3/Transformer/encoderblock_0/MlpBlock_3/Dense_0/Tensordot/stack/Unsqueeze" type="Unsqueeze" version="opset1">
			<input>
				<port id="0" precision="I32"/>
				<port id="1" precision="I64">
					<dim>1</dim>
				</port>
			</input>
			<output>
				<port id="2" precision="I32">
					<dim>1</dim>
				</port>
			</output>
		</layer>
		<layer id="256" name="Transformer/encoderblock_0/MlpBlock_3/Transformer/encoderblock_0/MlpBlock_3/Dense_0/Tensordot/axes" type="Const" version="opset1">
			<data element_type="i32" offset="54986" shape="1" size="4"/>
			<output>
				<port id="0" names="Transformer/encoderblock_0/MlpBlock_3/Transformer/encoderblock_0/MlpBlock_3/Dense_0/Tensordot/axes:0" precision="I32">
					<dim>1</dim>
				</port>
			</output>
		</layer>
		<layer id="257" name="Transformer/encoderblock_0/MlpBlock_3/Transformer/encoderblock_0/MlpBlock_3/Dense_0/Tensordot/GatherV2_1/axis" type="Const" version="opset1">
			<data element_type="i64" offset="54978" shape="" size="8"/>
			<output>
				<port id="0" names="Transformer/encoderblock_0/MlpBlock_3/Transformer/encoderblock_0/MlpBlock_3/Dense_0/Tensordot/GatherV2_1/axis:0" precision="I64"/>
			</output>
		</layer>
		<layer id="258" name="Transformer/encoderblock_0/MlpBlock_3/Transformer/encoderblock_0/MlpBlock_3/Dense_0/Tensordot/GatherV2_1" type="Gather" version="opset7">
			<data batch_dims="0"/>
			<input>
				<port id="0" precision="I32">
					<dim>3</dim>
				</port>
				<port id="1" precision="I32">
					<dim>1</dim>
				</port>
				<port id="2" precision="I64"/>
			</input>
			<output>
				<port id="3" names="Transformer/encoderblock_0/MlpBlock_3/Transformer/encoderblock_0/MlpBlock_3/Dense_0/Tensordot/GatherV2_1:0" precision="I32">
					<dim>1</dim>
				</port>
			</output>
		</layer>
		<layer id="259" name="Transformer/encoderblock_0/MlpBlock_3/Transformer/encoderblock_0/MlpBlock_3/Dense_0/Tensordot/Const_1" type="Const" version="opset1">
			<data element_type="i64" offset="54978" shape="1" size="8"/>
			<output>
				<port id="0" names="Transformer/encoderblock_0/MlpBlock_3/Transformer/encoderblock_0/MlpBlock_3/Dense_0/Tensordot/Const_1:0" precision="I64">
					<dim>1</dim>
				</port>
			</output>
		</layer>
		<layer id="260" name="Transformer/encoderblock_0/MlpBlock_3/Transformer/encoderblock_0/MlpBlock_3/Dense_0/Tensordot/Prod_1" type="ReduceProd" version="opset1">
			<data keep_dims="false"/>
			<input>
				<port id="0" precision="I32">
					<dim>1</dim>
				</port>
				<port id="1" precision="I64">
					<dim>1</dim>
				</port>
			</input>
			<output>
				<port id="2" names="Transformer/encoderblock_0/MlpBlock_3/Transformer/encoderblock_0/MlpBlock_3/Dense_0/Tensordot/Prod_1:0" precision="I32"/>
			</output>
		</layer>
		<layer id="261" name="Transformer/encoderblock_0/MlpBlock_3/Transformer/encoderblock_0/MlpBlock_3/Dense_0/Tensordot/stack/Unsqueeze2249_input_port_1/value" type="Const" version="opset1">
			<data element_type="i64" offset="54978" shape="1" size="8"/>
			<output>
				<port id="0" precision="I64">
					<dim>1</dim>
				</port>
			</output>
		</layer>
		<layer id="262" name="Transformer/encoderblock_0/MlpBlock_3/Transformer/encoderblock_0/MlpBlock_3/Dense_0/Tensordot/stack/Unsqueeze2249" type="Unsqueeze" version="opset1">
			<input>
				<port id="0" precision="I32"/>
				<port id="1" precision="I64">
					<dim>1</dim>
				</port>
			</input>
			<output>
				<port id="2" precision="I32">
					<dim>1</dim>
				</port>
			</output>
		</layer>
		<layer id="263" name="Transformer/encoderblock_0/MlpBlock_3/Transformer/encoderblock_0/MlpBlock_3/Dense_0/Tensordot/stack" type="Concat" version="opset1">
			<data axis="0"/>
			<input>
				<port id="0" precision="I32">
					<dim>1</dim>
				</port>
				<port id="1" precision="I32">
					<dim>1</dim>
				</port>
			</input>
			<output>
				<port id="2" precision="I32">
					<dim>2</dim>
				</port>
			</output>
		</layer>
		<layer id="264" name="Transformer/encoderblock_0/MlpBlock_3/Transformer/encoderblock_0/MlpBlock_3/Dense_0/Tensordot/Reshape/Cast_1" type="Convert" version="opset1">
			<data destination_type="i64"/>
			<input>
				<port id="0" precision="I32">
					<dim>2</dim>
				</port>
			</input>
			<output>
				<port id="1" names="Transformer/encoderblock_0/MlpBlock_3/Transformer/encoderblock_0/MlpBlock_3/Dense_0/Tensordot/stack:0" precision="I64">
					<dim>2</dim>
				</port>
			</output>
		</layer>
		<layer id="265" name="Transformer/encoderblock_0/MlpBlock_3/Transformer/encoderblock_0/MlpBlock_3/Dense_0/Tensordot/Reshape" type="Reshape" version="opset1">
			<data special_zero="false"/>
			<input>
				<port id="0" precision="FP16">
					<dim>1</dim>
					<dim>63</dim>
					<dim>128</dim>
				</port>
				<port id="1" precision="I64">
					<dim>2</dim>
				</port>
			</input>
			<output>
				<port id="2" names="Transformer/encoderblock_0/MlpBlock_3/Transformer/encoderblock_0/MlpBlock_3/Dense_0/Tensordot/Reshape:0" precision="FP16">
					<dim>63</dim>
					<dim>128</dim>
				</port>
			</output>
		</layer>
		<layer id="266" name="Transformer/encoderblock_0/MlpBlock_3/Transformer/encoderblock_0/MlpBlock_3/Dense_0/Tensordot/Reshape_1" type="Const" version="opset1">
			<data element_type="f16" offset="187650" shape="1024, 128" size="262144"/>
			<output>
				<port id="0" names="Transformer/encoderblock_0/MlpBlock_3/Transformer/encoderblock_0/MlpBlock_3/Dense_0/Tensordot/Reshape_1:0" precision="FP16">
					<dim>1024</dim>
					<dim>128</dim>
				</port>
			</output>
		</layer>
		<layer id="267" name="Transformer/encoderblock_0/MlpBlock_3/Transformer/encoderblock_0/MlpBlock_3/Dense_0/Tensordot/MatMul" type="MatMul" version="opset1">
			<data transpose_a="false" transpose_b="true"/>
			<input>
				<port id="0" precision="FP16">
					<dim>63</dim>
					<dim>128</dim>
				</port>
				<port id="1" precision="FP16">
					<dim>1024</dim>
					<dim>128</dim>
				</port>
			</input>
			<output>
				<port id="2" names="Transformer/encoderblock_0/MlpBlock_3/Transformer/encoderblock_0/MlpBlock_3/Dense_0/Tensordot/MatMul:0" precision="FP16">
					<dim>63</dim>
					<dim>1024</dim>
				</port>
			</output>
		</layer>
		<layer id="268" name="Transformer/encoderblock_0/MlpBlock_3/Transformer/encoderblock_0/MlpBlock_3/Dense_0/Tensordot/Const_2" type="Const" version="opset1">
			<data element_type="i32" offset="449794" shape="1" size="4"/>
			<output>
				<port id="0" names="Transformer/encoderblock_0/MlpBlock_3/Transformer/encoderblock_0/MlpBlock_3/Dense_0/Tensordot/Const_2:0" precision="I32">
					<dim>1</dim>
				</port>
			</output>
		</layer>
		<layer id="269" name="Transformer/encoderblock_0/MlpBlock_3/Transformer/encoderblock_0/MlpBlock_3/Dense_0/Tensordot/concat_1" type="Concat" version="opset1">
			<data axis="0"/>
			<input>
				<port id="0" precision="I32">
					<dim>2</dim>
				</port>
				<port id="1" precision="I32">
					<dim>1</dim>
				</port>
			</input>
			<output>
				<port id="2" precision="I32">
					<dim>3</dim>
				</port>
			</output>
		</layer>
		<layer id="270" name="Transformer/encoderblock_0/MlpBlock_3/Transformer/encoderblock_0/MlpBlock_3/Dense_0/Tensordot/Cast_1" type="Convert" version="opset1">
			<data destination_type="i64"/>
			<input>
				<port id="0" precision="I32">
					<dim>3</dim>
				</port>
			</input>
			<output>
				<port id="1" names="Transformer/encoderblock_0/MlpBlock_3/Transformer/encoderblock_0/MlpBlock_3/Dense_0/Tensordot/concat_1:0" precision="I64">
					<dim>3</dim>
				</port>
			</output>
		</layer>
		<layer id="271" name="Transformer/encoderblock_0/MlpBlock_3/Transformer/encoderblock_0/MlpBlock_3/Dense_0/Tensordot" type="Reshape" version="opset1">
			<data special_zero="false"/>
			<input>
				<port id="0" precision="FP16">
					<dim>63</dim>
					<dim>1024</dim>
				</port>
				<port id="1" precision="I64">
					<dim>3</dim>
				</port>
			</input>
			<output>
				<port id="2" names="Transformer/encoderblock_0/MlpBlock_3/Transformer/encoderblock_0/MlpBlock_3/Dense_0/Tensordot:0" precision="FP16">
					<dim>1</dim>
					<dim>63</dim>
					<dim>1024</dim>
				</port>
			</output>
		</layer>
		<layer id="272" name="Transformer/encoderblock_0/MlpBlock_3/Transformer/encoderblock_0/MlpBlock_3/Dense_0/BiasAdd/ReadVariableOp" type="Const" version="opset1">
			<data element_type="f16" offset="449798" shape="1, 1, 1024" size="2048"/>
			<output>
				<port id="0" names="Transformer/encoderblock_0/MlpBlock_3/Transformer/encoderblock_0/MlpBlock_3/Dense_0/BiasAdd/ReadVariableOp:0" precision="FP16">
					<dim>1</dim>
					<dim>1</dim>
					<dim>1024</dim>
				</port>
			</output>
		</layer>
		<layer id="273" name="Transformer/encoderblock_0/MlpBlock_3/Transformer/encoderblock_0/MlpBlock_3/Dense_0/BiasAdd/Add" type="Add" version="opset1">
			<data auto_broadcast="numpy"/>
			<input>
				<port id="0" precision="FP16">
					<dim>1</dim>
					<dim>63</dim>
					<dim>1024</dim>
				</port>
				<port id="1" precision="FP16">
					<dim>1</dim>
					<dim>1</dim>
					<dim>1024</dim>
				</port>
			</input>
			<output>
				<port id="2" names="Transformer/encoderblock_0/MlpBlock_3/Transformer/encoderblock_0/MlpBlock_3/Dense_0/BiasAdd:0" precision="FP16">
					<dim>1</dim>
					<dim>63</dim>
					<dim>1024</dim>
				</port>
			</output>
		</layer>
		<layer id="274" name="Transformer/encoderblock_0/MlpBlock_3/lambda/mul" type="Multiply" version="opset1">
			<data auto_broadcast="numpy"/>
			<input>
				<port id="0" precision="FP16">
					<dim>1</dim>
					<dim>1</dim>
					<dim>1</dim>
				</port>
				<port id="1" precision="FP16">
					<dim>1</dim>
					<dim>63</dim>
					<dim>1024</dim>
				</port>
			</input>
			<output>
				<port id="2" names="Transformer/encoderblock_0/MlpBlock_3/lambda/mul:0" precision="FP16">
					<dim>1</dim>
					<dim>63</dim>
					<dim>1024</dim>
				</port>
			</output>
		</layer>
		<layer id="275" name="Transformer/encoderblock_0/MlpBlock_3/lambda/add_1/x" type="Const" version="opset1">
			<data element_type="f16" offset="451846" shape="1, 1, 1" size="2"/>
			<output>
				<port id="0" names="Transformer/encoderblock_0/MlpBlock_3/lambda/add_1/x:0" precision="FP16">
					<dim>1</dim>
					<dim>1</dim>
					<dim>1</dim>
				</port>
			</output>
		</layer>
		<layer id="276" name="Transformer/encoderblock_0/MlpBlock_3/lambda/mul_2/x" type="Const" version="opset1">
			<data element_type="f16" offset="451848" shape="1, 1, 1" size="2"/>
			<output>
				<port id="0" names="Transformer/encoderblock_0/MlpBlock_3/lambda/mul_2/x:0" precision="FP16">
					<dim>1</dim>
					<dim>1</dim>
					<dim>1</dim>
				</port>
			</output>
		</layer>
		<layer id="277" name="Transformer/encoderblock_0/MlpBlock_3/lambda/mul_1/x" type="Const" version="opset1">
			<data element_type="f16" offset="451850" shape="1, 1, 1" size="2"/>
			<output>
				<port id="0" names="Transformer/encoderblock_0/MlpBlock_3/lambda/mul_1/x:0" precision="FP16">
					<dim>1</dim>
					<dim>1</dim>
					<dim>1</dim>
				</port>
			</output>
		</layer>
		<layer id="278" name="Transformer/encoderblock_0/MlpBlock_3/lambda/Pow/y" type="Const" version="opset1">
			<data element_type="f16" offset="451852" shape="1, 1, 1" size="2"/>
			<output>
				<port id="0" names="Transformer/encoderblock_0/MlpBlock_3/lambda/Pow/y:0" precision="FP16">
					<dim>1</dim>
					<dim>1</dim>
					<dim>1</dim>
				</port>
			</output>
		</layer>
		<layer id="279" name="Transformer/encoderblock_0/MlpBlock_3/lambda/Pow" type="Power" version="opset1">
			<data auto_broadcast="numpy"/>
			<input>
				<port id="0" precision="FP16">
					<dim>1</dim>
					<dim>63</dim>
					<dim>1024</dim>
				</port>
				<port id="1" precision="FP16">
					<dim>1</dim>
					<dim>1</dim>
					<dim>1</dim>
				</port>
			</input>
			<output>
				<port id="2" names="Transformer/encoderblock_0/MlpBlock_3/lambda/Pow:0" precision="FP16">
					<dim>1</dim>
					<dim>63</dim>
					<dim>1024</dim>
				</port>
			</output>
		</layer>
		<layer id="280" name="Transformer/encoderblock_0/MlpBlock_3/lambda/mul_1" type="Multiply" version="opset1">
			<data auto_broadcast="numpy"/>
			<input>
				<port id="0" precision="FP16">
					<dim>1</dim>
					<dim>1</dim>
					<dim>1</dim>
				</port>
				<port id="1" precision="FP16">
					<dim>1</dim>
					<dim>63</dim>
					<dim>1024</dim>
				</port>
			</input>
			<output>
				<port id="2" names="Transformer/encoderblock_0/MlpBlock_3/lambda/mul_1:0" precision="FP16">
					<dim>1</dim>
					<dim>63</dim>
					<dim>1024</dim>
				</port>
			</output>
		</layer>
		<layer id="281" name="Transformer/encoderblock_0/MlpBlock_3/lambda/add" type="Add" version="opset1">
			<data auto_broadcast="numpy"/>
			<input>
				<port id="0" precision="FP16">
					<dim>1</dim>
					<dim>63</dim>
					<dim>1024</dim>
				</port>
				<port id="1" precision="FP16">
					<dim>1</dim>
					<dim>63</dim>
					<dim>1024</dim>
				</port>
			</input>
			<output>
				<port id="2" names="Transformer/encoderblock_0/MlpBlock_3/lambda/add:0" precision="FP16">
					<dim>1</dim>
					<dim>63</dim>
					<dim>1024</dim>
				</port>
			</output>
		</layer>
		<layer id="282" name="Transformer/encoderblock_0/MlpBlock_3/lambda/mul_2" type="Multiply" version="opset1">
			<data auto_broadcast="numpy"/>
			<input>
				<port id="0" precision="FP16">
					<dim>1</dim>
					<dim>1</dim>
					<dim>1</dim>
				</port>
				<port id="1" precision="FP16">
					<dim>1</dim>
					<dim>63</dim>
					<dim>1024</dim>
				</port>
			</input>
			<output>
				<port id="2" names="Transformer/encoderblock_0/MlpBlock_3/lambda/mul_2:0" precision="FP16">
					<dim>1</dim>
					<dim>63</dim>
					<dim>1024</dim>
				</port>
			</output>
		</layer>
		<layer id="283" name="Transformer/encoderblock_0/MlpBlock_3/lambda/Tanh" type="Tanh" version="opset1">
			<input>
				<port id="0" precision="FP16">
					<dim>1</dim>
					<dim>63</dim>
					<dim>1024</dim>
				</port>
			</input>
			<output>
				<port id="1" names="Transformer/encoderblock_0/MlpBlock_3/lambda/Tanh:0" precision="FP16">
					<dim>1</dim>
					<dim>63</dim>
					<dim>1024</dim>
				</port>
			</output>
		</layer>
		<layer id="284" name="Transformer/encoderblock_0/MlpBlock_3/lambda/add_1" type="Add" version="opset1">
			<data auto_broadcast="numpy"/>
			<input>
				<port id="0" precision="FP16">
					<dim>1</dim>
					<dim>1</dim>
					<dim>1</dim>
				</port>
				<port id="1" precision="FP16">
					<dim>1</dim>
					<dim>63</dim>
					<dim>1024</dim>
				</port>
			</input>
			<output>
				<port id="2" names="Transformer/encoderblock_0/MlpBlock_3/lambda/add_1:0" precision="FP16">
					<dim>1</dim>
					<dim>63</dim>
					<dim>1024</dim>
				</port>
			</output>
		</layer>
		<layer id="285" name="Transformer/encoderblock_0/MlpBlock_3/lambda/mul_3" type="Multiply" version="opset1">
			<data auto_broadcast="numpy"/>
			<input>
				<port id="0" precision="FP16">
					<dim>1</dim>
					<dim>63</dim>
					<dim>1024</dim>
				</port>
				<port id="1" precision="FP16">
					<dim>1</dim>
					<dim>63</dim>
					<dim>1024</dim>
				</port>
			</input>
			<output>
				<port id="2" names="Transformer/encoderblock_0/MlpBlock_3/Transformer/encoderblock_0/MlpBlock_3/Dense_1/Tensordot/transpose:0,Transformer/encoderblock_0/MlpBlock_3/dropout/Identity:0,Transformer/encoderblock_0/MlpBlock_3/lambda/mul_3:0" precision="FP16">
					<dim>1</dim>
					<dim>63</dim>
					<dim>1024</dim>
				</port>
			</output>
		</layer>
		<layer id="286" name="Transformer/encoderblock_0/MlpBlock_3/Transformer/encoderblock_0/MlpBlock_3/Dense_1/Tensordot/Shape" type="ShapeOf" version="opset3">
			<data output_type="i32"/>
			<input>
				<port id="0" precision="FP16">
					<dim>1</dim>
					<dim>63</dim>
					<dim>1024</dim>
				</port>
			</input>
			<output>
				<port id="1" names="Transformer/encoderblock_0/MlpBlock_3/Transformer/encoderblock_0/MlpBlock_3/Dense_1/Tensordot/Shape:0" precision="I32">
					<dim>3</dim>
				</port>
			</output>
		</layer>
		<layer id="287" name="Transformer/encoderblock_0/MlpBlock_3/Transformer/encoderblock_0/MlpBlock_3/Dense_1/Tensordot/free" type="Const" version="opset1">
			<data element_type="i32" offset="54970" shape="2" size="8"/>
			<output>
				<port id="0" names="Transformer/encoderblock_0/MlpBlock_3/Transformer/encoderblock_0/MlpBlock_3/Dense_1/Tensordot/free:0" precision="I32">
					<dim>2</dim>
				</port>
			</output>
		</layer>
		<layer id="288" name="Transformer/encoderblock_0/MlpBlock_3/Transformer/encoderblock_0/MlpBlock_3/Dense_1/Tensordot/GatherV2/axis" type="Const" version="opset1">
			<data element_type="i64" offset="54978" shape="" size="8"/>
			<output>
				<port id="0" names="Transformer/encoderblock_0/MlpBlock_3/Transformer/encoderblock_0/MlpBlock_3/Dense_1/Tensordot/GatherV2/axis:0" precision="I64"/>
			</output>
		</layer>
		<layer id="289" name="Transformer/encoderblock_0/MlpBlock_3/Transformer/encoderblock_0/MlpBlock_3/Dense_1/Tensordot/GatherV2" type="Gather" version="opset7">
			<data batch_dims="0"/>
			<input>
				<port id="0" precision="I32">
					<dim>3</dim>
				</port>
				<port id="1" precision="I32">
					<dim>2</dim>
				</port>
				<port id="2" precision="I64"/>
			</input>
			<output>
				<port id="3" names="Transformer/encoderblock_0/MlpBlock_3/Transformer/encoderblock_0/MlpBlock_3/Dense_1/Tensordot/GatherV2:0" precision="I32">
					<dim>2</dim>
				</port>
			</output>
		</layer>
		<layer id="290" name="Transformer/encoderblock_0/MlpBlock_3/Transformer/encoderblock_0/MlpBlock_3/Dense_1/Tensordot/Const" type="Const" version="opset1">
			<data element_type="i64" offset="54978" shape="1" size="8"/>
			<output>
				<port id="0" names="Transformer/encoderblock_0/MlpBlock_3/Transformer/encoderblock_0/MlpBlock_3/Dense_1/Tensordot/Const:0" precision="I64">
					<dim>1</dim>
				</port>
			</output>
		</layer>
		<layer id="291" name="Transformer/encoderblock_0/MlpBlock_3/Transformer/encoderblock_0/MlpBlock_3/Dense_1/Tensordot/Prod" type="ReduceProd" version="opset1">
			<data keep_dims="false"/>
			<input>
				<port id="0" precision="I32">
					<dim>2</dim>
				</port>
				<port id="1" precision="I64">
					<dim>1</dim>
				</port>
			</input>
			<output>
				<port id="2" names="Transformer/encoderblock_0/MlpBlock_3/Transformer/encoderblock_0/MlpBlock_3/Dense_1/Tensordot/Prod:0" precision="I32"/>
			</output>
		</layer>
		<layer id="292" name="Transformer/encoderblock_0/MlpBlock_3/Transformer/encoderblock_0/MlpBlock_3/Dense_1/Tensordot/stack/Unsqueeze_input_port_1/value" type="Const" version="opset1">
			<data element_type="i64" offset="54978" shape="1" size="8"/>
			<output>
				<port id="0" precision="I64">
					<dim>1</dim>
				</port>
			</output>
		</layer>
		<layer id="293" name="Transformer/encoderblock_0/MlpBlock_3/Transformer/encoderblock_0/MlpBlock_3/Dense_1/Tensordot/stack/Unsqueeze" type="Unsqueeze" version="opset1">
			<input>
				<port id="0" precision="I32"/>
				<port id="1" precision="I64">
					<dim>1</dim>
				</port>
			</input>
			<output>
				<port id="2" precision="I32">
					<dim>1</dim>
				</port>
			</output>
		</layer>
		<layer id="294" name="Transformer/encoderblock_0/MlpBlock_3/Transformer/encoderblock_0/MlpBlock_3/Dense_1/Tensordot/axes" type="Const" version="opset1">
			<data element_type="i32" offset="54986" shape="1" size="4"/>
			<output>
				<port id="0" names="Transformer/encoderblock_0/MlpBlock_3/Transformer/encoderblock_0/MlpBlock_3/Dense_1/Tensordot/axes:0" precision="I32">
					<dim>1</dim>
				</port>
			</output>
		</layer>
		<layer id="295" name="Transformer/encoderblock_0/MlpBlock_3/Transformer/encoderblock_0/MlpBlock_3/Dense_1/Tensordot/GatherV2_1/axis" type="Const" version="opset1">
			<data element_type="i64" offset="54978" shape="" size="8"/>
			<output>
				<port id="0" names="Transformer/encoderblock_0/MlpBlock_3/Transformer/encoderblock_0/MlpBlock_3/Dense_1/Tensordot/GatherV2_1/axis:0" precision="I64"/>
			</output>
		</layer>
		<layer id="296" name="Transformer/encoderblock_0/MlpBlock_3/Transformer/encoderblock_0/MlpBlock_3/Dense_1/Tensordot/GatherV2_1" type="Gather" version="opset7">
			<data batch_dims="0"/>
			<input>
				<port id="0" precision="I32">
					<dim>3</dim>
				</port>
				<port id="1" precision="I32">
					<dim>1</dim>
				</port>
				<port id="2" precision="I64"/>
			</input>
			<output>
				<port id="3" names="Transformer/encoderblock_0/MlpBlock_3/Transformer/encoderblock_0/MlpBlock_3/Dense_1/Tensordot/GatherV2_1:0" precision="I32">
					<dim>1</dim>
				</port>
			</output>
		</layer>
		<layer id="297" name="Transformer/encoderblock_0/MlpBlock_3/Transformer/encoderblock_0/MlpBlock_3/Dense_1/Tensordot/Const_1" type="Const" version="opset1">
			<data element_type="i64" offset="54978" shape="1" size="8"/>
			<output>
				<port id="0" names="Transformer/encoderblock_0/MlpBlock_3/Transformer/encoderblock_0/MlpBlock_3/Dense_1/Tensordot/Const_1:0" precision="I64">
					<dim>1</dim>
				</port>
			</output>
		</layer>
		<layer id="298" name="Transformer/encoderblock_0/MlpBlock_3/Transformer/encoderblock_0/MlpBlock_3/Dense_1/Tensordot/Prod_1" type="ReduceProd" version="opset1">
			<data keep_dims="false"/>
			<input>
				<port id="0" precision="I32">
					<dim>1</dim>
				</port>
				<port id="1" precision="I64">
					<dim>1</dim>
				</port>
			</input>
			<output>
				<port id="2" names="Transformer/encoderblock_0/MlpBlock_3/Transformer/encoderblock_0/MlpBlock_3/Dense_1/Tensordot/Prod_1:0" precision="I32"/>
			</output>
		</layer>
		<layer id="299" name="Transformer/encoderblock_0/MlpBlock_3/Transformer/encoderblock_0/MlpBlock_3/Dense_1/Tensordot/stack/Unsqueeze2368_input_port_1/value" type="Const" version="opset1">
			<data element_type="i64" offset="54978" shape="1" size="8"/>
			<output>
				<port id="0" precision="I64">
					<dim>1</dim>
				</port>
			</output>
		</layer>
		<layer id="300" name="Transformer/encoderblock_0/MlpBlock_3/Transformer/encoderblock_0/MlpBlock_3/Dense_1/Tensordot/stack/Unsqueeze2368" type="Unsqueeze" version="opset1">
			<input>
				<port id="0" precision="I32"/>
				<port id="1" precision="I64">
					<dim>1</dim>
				</port>
			</input>
			<output>
				<port id="2" precision="I32">
					<dim>1</dim>
				</port>
			</output>
		</layer>
		<layer id="301" name="Transformer/encoderblock_0/MlpBlock_3/Transformer/encoderblock_0/MlpBlock_3/Dense_1/Tensordot/stack" type="Concat" version="opset1">
			<data axis="0"/>
			<input>
				<port id="0" precision="I32">
					<dim>1</dim>
				</port>
				<port id="1" precision="I32">
					<dim>1</dim>
				</port>
			</input>
			<output>
				<port id="2" precision="I32">
					<dim>2</dim>
				</port>
			</output>
		</layer>
		<layer id="302" name="Transformer/encoderblock_0/MlpBlock_3/Transformer/encoderblock_0/MlpBlock_3/Dense_1/Tensordot/Reshape/Cast_1" type="Convert" version="opset1">
			<data destination_type="i64"/>
			<input>
				<port id="0" precision="I32">
					<dim>2</dim>
				</port>
			</input>
			<output>
				<port id="1" names="Transformer/encoderblock_0/MlpBlock_3/Transformer/encoderblock_0/MlpBlock_3/Dense_1/Tensordot/stack:0" precision="I64">
					<dim>2</dim>
				</port>
			</output>
		</layer>
		<layer id="303" name="Transformer/encoderblock_0/MlpBlock_3/Transformer/encoderblock_0/MlpBlock_3/Dense_1/Tensordot/Reshape" type="Reshape" version="opset1">
			<data special_zero="false"/>
			<input>
				<port id="0" precision="FP16">
					<dim>1</dim>
					<dim>63</dim>
					<dim>1024</dim>
				</port>
				<port id="1" precision="I64">
					<dim>2</dim>
				</port>
			</input>
			<output>
				<port id="2" names="Transformer/encoderblock_0/MlpBlock_3/Transformer/encoderblock_0/MlpBlock_3/Dense_1/Tensordot/Reshape:0" precision="FP16">
					<dim>63</dim>
					<dim>1024</dim>
				</port>
			</output>
		</layer>
		<layer id="304" name="Transformer/encoderblock_0/MlpBlock_3/Transformer/encoderblock_0/MlpBlock_3/Dense_1/Tensordot/Reshape_1" type="Const" version="opset1">
			<data element_type="f16" offset="451854" shape="128, 1024" size="262144"/>
			<output>
				<port id="0" names="Transformer/encoderblock_0/MlpBlock_3/Transformer/encoderblock_0/MlpBlock_3/Dense_1/Tensordot/Reshape_1:0" precision="FP16">
					<dim>128</dim>
					<dim>1024</dim>
				</port>
			</output>
		</layer>
		<layer id="305" name="Transformer/encoderblock_0/MlpBlock_3/Transformer/encoderblock_0/MlpBlock_3/Dense_1/Tensordot/MatMul" type="MatMul" version="opset1">
			<data transpose_a="false" transpose_b="true"/>
			<input>
				<port id="0" precision="FP16">
					<dim>63</dim>
					<dim>1024</dim>
				</port>
				<port id="1" precision="FP16">
					<dim>128</dim>
					<dim>1024</dim>
				</port>
			</input>
			<output>
				<port id="2" names="Transformer/encoderblock_0/MlpBlock_3/Transformer/encoderblock_0/MlpBlock_3/Dense_1/Tensordot/MatMul:0" precision="FP16">
					<dim>63</dim>
					<dim>128</dim>
				</port>
			</output>
		</layer>
		<layer id="306" name="Transformer/encoderblock_0/MlpBlock_3/Transformer/encoderblock_0/MlpBlock_3/Dense_1/Tensordot/Const_2" type="Const" version="opset1">
			<data element_type="i32" offset="87758" shape="1" size="4"/>
			<output>
				<port id="0" names="Transformer/encoderblock_0/MlpBlock_3/Transformer/encoderblock_0/MlpBlock_3/Dense_1/Tensordot/Const_2:0" precision="I32">
					<dim>1</dim>
				</port>
			</output>
		</layer>
		<layer id="307" name="Transformer/encoderblock_0/MlpBlock_3/Transformer/encoderblock_0/MlpBlock_3/Dense_1/Tensordot/concat_1" type="Concat" version="opset1">
			<data axis="0"/>
			<input>
				<port id="0" precision="I32">
					<dim>2</dim>
				</port>
				<port id="1" precision="I32">
					<dim>1</dim>
				</port>
			</input>
			<output>
				<port id="2" precision="I32">
					<dim>3</dim>
				</port>
			</output>
		</layer>
		<layer id="308" name="Transformer/encoderblock_0/MlpBlock_3/Transformer/encoderblock_0/MlpBlock_3/Dense_1/Tensordot/Cast_1" type="Convert" version="opset1">
			<data destination_type="i64"/>
			<input>
				<port id="0" precision="I32">
					<dim>3</dim>
				</port>
			</input>
			<output>
				<port id="1" names="Transformer/encoderblock_0/MlpBlock_3/Transformer/encoderblock_0/MlpBlock_3/Dense_1/Tensordot/concat_1:0" precision="I64">
					<dim>3</dim>
				</port>
			</output>
		</layer>
		<layer id="309" name="Transformer/encoderblock_0/MlpBlock_3/Transformer/encoderblock_0/MlpBlock_3/Dense_1/Tensordot" type="Reshape" version="opset1">
			<data special_zero="false"/>
			<input>
				<port id="0" precision="FP16">
					<dim>63</dim>
					<dim>128</dim>
				</port>
				<port id="1" precision="I64">
					<dim>3</dim>
				</port>
			</input>
			<output>
				<port id="2" names="Transformer/encoderblock_0/MlpBlock_3/Transformer/encoderblock_0/MlpBlock_3/Dense_1/Tensordot:0" precision="FP16">
					<dim>1</dim>
					<dim>63</dim>
					<dim>128</dim>
				</port>
			</output>
		</layer>
		<layer id="310" name="Transformer/encoderblock_0/MlpBlock_3/Transformer/encoderblock_0/MlpBlock_3/Dense_1/BiasAdd/ReadVariableOp" type="Const" version="opset1">
			<data element_type="f16" offset="713998" shape="1, 1, 128" size="256"/>
			<output>
				<port id="0" names="Transformer/encoderblock_0/MlpBlock_3/Transformer/encoderblock_0/MlpBlock_3/Dense_1/BiasAdd/ReadVariableOp:0" precision="FP16">
					<dim>1</dim>
					<dim>1</dim>
					<dim>128</dim>
				</port>
			</output>
		</layer>
		<layer id="311" name="Transformer/encoderblock_0/MlpBlock_3/Transformer/encoderblock_0/MlpBlock_3/Dense_1/BiasAdd/Add" type="Add" version="opset1">
			<data auto_broadcast="numpy"/>
			<input>
				<port id="0" precision="FP16">
					<dim>1</dim>
					<dim>63</dim>
					<dim>128</dim>
				</port>
				<port id="1" precision="FP16">
					<dim>1</dim>
					<dim>1</dim>
					<dim>128</dim>
				</port>
			</input>
			<output>
				<port id="2" names="Transformer/encoderblock_0/MlpBlock_3/Transformer/encoderblock_0/MlpBlock_3/Dense_1/BiasAdd:0,Transformer/encoderblock_0/MlpBlock_3/dropout_1/Identity:0" precision="FP16">
					<dim>1</dim>
					<dim>63</dim>
					<dim>128</dim>
				</port>
			</output>
		</layer>
		<layer id="312" name="Transformer/encoderblock_0/add_1" type="Add" version="opset1">
			<data auto_broadcast="numpy"/>
			<input>
				<port id="0" precision="FP16">
					<dim>1</dim>
					<dim>63</dim>
					<dim>128</dim>
				</port>
				<port id="1" precision="FP16">
					<dim>1</dim>
					<dim>63</dim>
					<dim>128</dim>
				</port>
			</input>
			<output>
				<port id="2" names="Transformer/encoderblock_0/add_1:0" precision="FP16">
					<dim>1</dim>
					<dim>63</dim>
					<dim>128</dim>
				</port>
			</output>
		</layer>
		<layer id="313" name="Transformer/encoderblock_1/layer_normalization_2/moments/mean/reduction_indices" type="Const" version="opset1">
			<data element_type="i64" offset="94" shape="1" size="8"/>
			<output>
				<port id="0" names="Transformer/encoderblock_1/layer_normalization_2/moments/mean/reduction_indices:0" precision="I64">
					<dim>1</dim>
				</port>
			</output>
		</layer>
		<layer id="314" name="Transformer/encoderblock_1/layer_normalization_2/moments/mean" type="ReduceMean" version="opset1">
			<data keep_dims="true"/>
			<input>
				<port id="0" precision="FP16">
					<dim>1</dim>
					<dim>63</dim>
					<dim>128</dim>
				</port>
				<port id="1" precision="I64">
					<dim>1</dim>
				</port>
			</input>
			<output>
				<port id="2" names="Transformer/encoderblock_1/layer_normalization_2/moments/StopGradient:0,Transformer/encoderblock_1/layer_normalization_2/moments/mean:0" precision="FP16">
					<dim>1</dim>
					<dim>63</dim>
					<dim>1</dim>
				</port>
			</output>
		</layer>
		<layer id="315" name="Transformer/encoderblock_1/layer_normalization_2/moments/SquaredDifference" type="SquaredDifference" version="opset1">
			<data auto_broadcast="numpy"/>
			<input>
				<port id="0" precision="FP16">
					<dim>1</dim>
					<dim>63</dim>
					<dim>128</dim>
				</port>
				<port id="1" precision="FP16">
					<dim>1</dim>
					<dim>63</dim>
					<dim>1</dim>
				</port>
			</input>
			<output>
				<port id="2" names="Transformer/encoderblock_1/layer_normalization_2/moments/SquaredDifference:0" precision="FP16">
					<dim>1</dim>
					<dim>63</dim>
					<dim>128</dim>
				</port>
			</output>
		</layer>
		<layer id="316" name="Transformer/encoderblock_1/layer_normalization_2/moments/variance/reduction_indices" type="Const" version="opset1">
			<data element_type="i64" offset="94" shape="1" size="8"/>
			<output>
				<port id="0" names="Transformer/encoderblock_1/layer_normalization_2/moments/variance/reduction_indices:0" precision="I64">
					<dim>1</dim>
				</port>
			</output>
		</layer>
…
		<edge from-layer="1548" from-port="384" to-layer="1549" to-port="764"/>
		<edge from-layer="1548" from-port="384" to-layer="1549" to-port="765"/>
		<edge from-layer="1548" from-port="385" to-layer="1549" to-port="766"/>
		<edge from-layer="1548" from-port="385" to-layer="1549" to-port="767"/>
		<edge from-layer="1548" from-port="386" to-layer="1549" to-port="768"/>
		<edge from-layer="1548" from-port="386" to-layer="1549" to-port="769"/>
		<edge from-layer="1548" from-port="387" to-layer="1549" to-port="770"/>
		<edge from-layer="1548" from-port="387" to-layer="1549" to-port="771"/>
		<edge from-layer="1548" from-port="411" to-layer="1549" to-port="819"/>
		<edge from-layer="1548" from-port="388" to-layer="1549" to-port="773"/>
		<edge from-layer="1548" from-port="389" to-layer="1549" to-port="774"/>
		<edge from-layer="1548" from-port="389" to-layer="1549" to-port="775"/>
		<edge from-layer="1548" from-port="390" to-layer="1549" to-port="776"/>
		<edge from-layer="1548" from-port="390" to-layer="1549" to-port="777"/>
		<edge from-layer="1548" from-port="391" to-layer="1549" to-port="778"/>
		<edge from-layer="1548" from-port="391" to-layer="1549" to-port="779"/>
		<edge from-layer="1548" from-port="392" to-layer="1549" to-port="780"/>
		<edge from-layer="1548" from-port="392" to-layer="1549" to-port="781"/>
		<edge from-layer="1548" from-port="393" to-layer="1549" to-port="782"/>
		<edge from-layer="1548" from-port="393" to-layer="1549" to-port="783"/>
		<edge from-layer="1548" from-port="394" to-layer="1549" to-port="784"/>
		<edge from-layer="1548" from-port="394" to-layer="1549" to-port="785"/>
		<edge from-layer="1548" from-port="395" to-layer="1549" to-port="786"/>
		<edge from-layer="1548" from-port="435" to-layer="1549" to-port="866"/>
		<edge from-layer="1548" from-port="427" to-layer="1549" to-port="851"/>
		<edge from-layer="1548" from-port="428" to-layer="1549" to-port="852"/>
		<edge from-layer="1548" from-port="428" to-layer="1549" to-port="853"/>
		<edge from-layer="1548" from-port="429" to-layer="1549" to-port="854"/>
		<edge from-layer="1548" from-port="429" to-layer="1549" to-port="855"/>
		<edge from-layer="1548" from-port="430" to-layer="1549" to-port="856"/>
		<edge from-layer="1548" from-port="430" to-layer="1549" to-port="857"/>
		<edge from-layer="1548" from-port="431" to-layer="1549" to-port="858"/>
		<edge from-layer="1548" from-port="431" to-layer="1549" to-port="859"/>
		<edge from-layer="1548" from-port="432" to-layer="1549" to-port="860"/>
		<edge from-layer="1548" from-port="432" to-layer="1549" to-port="861"/>
		<edge from-layer="1548" from-port="433" to-layer="1549" to-port="862"/>
		<edge from-layer="1548" from-port="433" to-layer="1549" to-port="863"/>
		<edge from-layer="1548" from-port="434" to-layer="1549" to-port="864"/>
		<edge from-layer="1548" from-port="434" to-layer="1549" to-port="865"/>
		<edge from-layer="1548" from-port="427" to-layer="1549" to-port="850"/>
		<edge from-layer="1548" from-port="435" to-layer="1549" to-port="867"/>
		<edge from-layer="1548" from-port="436" to-layer="1549" to-port="868"/>
		<edge from-layer="1548" from-port="436" to-layer="1549" to-port="869"/>
		<edge from-layer="1548" from-port="437" to-layer="1549" to-port="870"/>
		<edge from-layer="1548" from-port="437" to-layer="1549" to-port="871"/>
		<edge from-layer="1548" from-port="438" to-layer="1549" to-port="872"/>
		<edge from-layer="1548" from-port="438" to-layer="1549" to-port="873"/>
		<edge from-layer="1548" from-port="439" to-layer="1549" to-port="874"/>
		<edge from-layer="1548" from-port="439" to-layer="1549" to-port="875"/>
		<edge from-layer="1548" from-port="440" to-layer="1549" to-port="876"/>
		<edge from-layer="1548" from-port="440" to-layer="1549" to-port="877"/>
		<edge from-layer="1548" from-port="441" to-layer="1549" to-port="878"/>
		<edge from-layer="1548" from-port="441" to-layer="1549" to-port="879"/>
		<edge from-layer="1548" from-port="442" to-layer="1549" to-port="880"/>
		<edge from-layer="1548" from-port="442" to-layer="1549" to-port="881"/>
		<edge from-layer="1548" from-port="419" to-layer="1549" to-port="835"/>
		<edge from-layer="1548" from-port="412" to-layer="1549" to-port="820"/>
		<edge from-layer="1548" from-port="412" to-layer="1549" to-port="821"/>
		<edge from-layer="1548" from-port="413" to-layer="1549" to-port="822"/>
		<edge from-layer="1548" from-port="413" to-layer="1549" to-port="823"/>
		<edge from-layer="1548" from-port="414" to-layer="1549" to-port="824"/>
		<edge from-layer="1548" from-port="414" to-layer="1549" to-port="825"/>
		<edge from-layer="1548" from-port="415" to-layer="1549" to-port="826"/>
		<edge from-layer="1548" from-port="415" to-layer="1549" to-port="827"/>
		<edge from-layer="1548" from-port="416" to-layer="1549" to-port="828"/>
		<edge from-layer="1548" from-port="416" to-layer="1549" to-port="829"/>
		<edge from-layer="1548" from-port="417" to-layer="1549" to-port="830"/>
		<edge from-layer="1548" from-port="417" to-layer="1549" to-port="831"/>
		<edge from-layer="1548" from-port="418" to-layer="1549" to-port="832"/>
		<edge from-layer="1548" from-port="418" to-layer="1549" to-port="833"/>
		<edge from-layer="1548" from-port="419" to-layer="1549" to-port="834"/>
		<edge from-layer="1548" from-port="144" to-layer="1549" to-port="284"/>
		<edge from-layer="1548" from-port="420" to-layer="1549" to-port="836"/>
		<edge from-layer="1548" from-port="420" to-layer="1549" to-port="837"/>
		<edge from-layer="1548" from-port="421" to-layer="1549" to-port="838"/>
		<edge from-layer="1548" from-port="421" to-layer="1549" to-port="839"/>
		<edge from-layer="1548" from-port="422" to-layer="1549" to-port="840"/>
		<edge from-layer="1548" from-port="422" to-layer="1549" to-port="841"/>
		<edge from-layer="1548" from-port="423" to-layer="1549" to-port="842"/>
		<edge from-layer="1548" from-port="423" to-layer="1549" to-port="843"/>
		<edge from-layer="1548" from-port="424" to-layer="1549" to-port="844"/>
		<edge from-layer="1548" from-port="424" to-layer="1549" to-port="845"/>
		<edge from-layer="1548" from-port="425" to-layer="1549" to-port="846"/>
		<edge from-layer="1548" from-port="425" to-layer="1549" to-port="847"/>
		<edge from-layer="1548" from-port="426" to-layer="1549" to-port="848"/>
		<edge from-layer="1548" from-port="426" to-layer="1549" to-port="849"/>
		<edge from-layer="1548" from-port="88" to-layer="1549" to-port="173"/>
		<edge from-layer="1548" from-port="81" to-layer="1549" to-port="158"/>
		<edge from-layer="1548" from-port="81" to-layer="1549" to-port="159"/>
		<edge from-layer="1548" from-port="82" to-layer="1549" to-port="160"/>
		<edge from-layer="1548" from-port="82" to-layer="1549" to-port="161"/>
		<edge from-layer="1548" from-port="83" to-layer="1549" to-port="162"/>
		<edge from-layer="1548" from-port="83" to-layer="1549" to-port="163"/>
		<edge from-layer="1548" from-port="84" to-layer="1549" to-port="164"/>
		<edge from-layer="1548" from-port="84" to-layer="1549" to-port="165"/>
		<edge from-layer="1548" from-port="85" to-layer="1549" to-port="166"/>
		<edge from-layer="1548" from-port="85" to-layer="1549" to-port="167"/>
		<edge from-layer="1548" from-port="86" to-layer="1549" to-port="168"/>
		<edge from-layer="1548" from-port="86" to-layer="1549" to-port="169"/>
		<edge from-layer="1548" from-port="87" to-layer="1549" to-port="170"/>
		<edge from-layer="1548" from-port="87" to-layer="1549" to-port="171"/>
		<edge from-layer="1548" from-port="88" to-layer="1549" to-port="172"/>
		<edge from-layer="1548" from-port="80" to-layer="1549" to-port="157"/>
		<edge from-layer="1548" from-port="89" to-layer="1549" to-port="174"/>
		<edge from-layer="1548" from-port="89" to-layer="1549" to-port="175"/>
		<edge from-layer="1548" from-port="90" to-layer="1549" to-port="176"/>
		<edge from-layer="1548" from-port="90" to-layer="1549" to-port="177"/>
		<edge from-layer="1548" from-port="91" to-layer="1549" to-port="178"/>
		<edge from-layer="1548" from-port="91" to-layer="1549" to-port="179"/>
		<edge from-layer="1548" from-port="92" to-layer="1549" to-port="180"/>
		<edge from-layer="1548" from-port="92" to-layer="1549" to-port="181"/>
		<edge from-layer="1548" from-port="93" to-layer="1549" to-port="182"/>
		<edge from-layer="1548" from-port="93" to-layer="1549" to-port="183"/>
		<edge from-layer="1548" from-port="94" to-layer="1549" to-port="184"/>
		<edge from-layer="1548" from-port="94" to-layer="1549" to-port="185"/>
		<edge from-layer="1548" from-port="95" to-layer="1549" to-port="186"/>
		<edge from-layer="1548" from-port="95" to-layer="1549" to-port="187"/>
		<edge from-layer="1548" from-port="96" to-layer="1549" to-port="188"/>
		<edge from-layer="1548" from-port="72" to-layer="1549" to-port="141"/>
		<edge from-layer="1548" from-port="65" to-layer="1549" to-port="126"/>
		<edge from-layer="1548" from-port="65" to-layer="1549" to-port="127"/>
		<edge from-layer="1548" from-port="66" to-layer="1549" to-port="128"/>
		<edge from-layer="1548" from-port="66" to-layer="1549" to-port="129"/>
		<edge from-layer="1548" from-port="67" to-layer="1549" to-port="130"/>
		<edge from-layer="1548" from-port="67" to-layer="1549" to-port="131"/>
		<edge from-layer="1548" from-port="68" to-layer="1549" to-port="132"/>
		<edge from-layer="1548" from-port="68" to-layer="1549" to-port="133"/>
		<edge from-layer="1548" from-port="69" to-layer="1549" to-port="134"/>
		<edge from-layer="1548" from-port="69" to-layer="1549" to-port="135"/>
		<edge from-layer="1548" from-port="70" to-layer="1549" to-port="136"/>
		<edge from-layer="1548" from-port="70" to-layer="1549" to-port="137"/>
		<edge from-layer="1548" from-port="71" to-layer="1549" to-port="138"/>
		<edge from-layer="1548" from-port="71" to-layer="1549" to-port="139"/>
		<edge from-layer="1548" from-port="72" to-layer="1549" to-port="140"/>
		<edge from-layer="1548" from-port="96" to-layer="1549" to-port="189"/>
		<edge from-layer="1548" from-port="73" to-layer="1549" to-port="142"/>
		<edge from-layer="1548" from-port="73" to-layer="1549" to-port="143"/>
		<edge from-layer="1548" from-port="74" to-layer="1549" to-port="144"/>
		<edge from-layer="1548" from-port="74" to-layer="1549" to-port="145"/>
		<edge from-layer="1548" from-port="75" to-layer="1549" to-port="146"/>
		<edge from-layer="1548" from-port="75" to-layer="1549" to-port="147"/>
		<edge from-layer="1548" from-port="76" to-layer="1549" to-port="148"/>
		<edge from-layer="1548" from-port="76" to-layer="1549" to-port="149"/>
		<edge from-layer="1548" from-port="77" to-layer="1549" to-port="150"/>
		<edge from-layer="1548" from-port="77" to-layer="1549" to-port="151"/>
		<edge from-layer="1548" from-port="78" to-layer="1549" to-port="152"/>
		<edge from-layer="1548" from-port="78" to-layer="1549" to-port="153"/>
		<edge from-layer="1548" from-port="79" to-layer="1549" to-port="154"/>
		<edge from-layer="1548" from-port="79" to-layer="1549" to-port="155"/>
		<edge from-layer="1548" from-port="80" to-layer="1549" to-port="156"/>
		<edge from-layer="1548" from-port="120" to-layer="1549" to-port="236"/>
		<edge from-layer="1548" from-port="112" to-layer="1549" to-port="221"/>
		<edge from-layer="1548" from-port="113" to-layer="1549" to-port="222"/>
		<edge from-layer="1548" from-port="113" to-layer="1549" to-port="223"/>
		<edge from-layer="1548" from-port="114" to-layer="1549" to-port="224"/>
		<edge from-layer="1548" from-port="114" to-layer="1549" to-port="225"/>
		<edge from-layer="1548" from-port="115" to-layer="1549" to-port="226"/>
		<edge from-layer="1548" from-port="115" to-layer="1549" to-port="227"/>
		<edge from-layer="1548" from-port="116" to-layer="1549" to-port="228"/>
		<edge from-layer="1548" from-port="116" to-layer="1549" to-port="229"/>
		<edge from-layer="1548" from-port="117" to-layer="1549" to-port="230"/>
		<edge from-layer="1548" from-port="117" to-layer="1549" to-port="231"/>
		<edge from-layer="1548" from-port="118" to-layer="1549" to-port="232"/>
		<edge from-layer="1548" from-port="118" to-layer="1549" to-port="233"/>
		<edge from-layer="1548" from-port="119" to-layer="1549" to-port="234"/>
		<edge from-layer="1548" from-port="119" to-layer="1549" to-port="235"/>
		<edge from-layer="1548" from-port="112" to-layer="1549" to-port="220"/>
		<edge from-layer="1548" from-port="120" to-layer="1549" to-port="237"/>
		<edge from-layer="1548" from-port="121" to-layer="1549" to-port="238"/>
		<edge from-layer="1548" from-port="121" to-layer="1549" to-port="239"/>
		<edge from-layer="1548" from-port="122" to-layer="1549" to-port="240"/>
		<edge from-layer="1548" from-port="122" to-layer="1549" to-port="241"/>
		<edge from-layer="1548" from-port="123" to-layer="1549" to-port="242"/>
		<edge from-layer="1548" from-port="123" to-layer="1549" to-port="243"/>
		<edge from-layer="1548" from-port="124" to-layer="1549" to-port="244"/>
		<edge from-layer="1548" from-port="124" to-layer="1549" to-port="245"/>
		<edge from-layer="1548" from-port="125" to-layer="1549" to-port="246"/>
		<edge from-layer="1548" from-port="125" to-layer="1549" to-port="247"/>
		<edge from-layer="1548" from-port="126" to-layer="1549" to-port="248"/>
		<edge from-layer="1548" from-port="126" to-layer="1549" to-port="249"/>
		<edge from-layer="1548" from-port="127" to-layer="1549" to-port="250"/>
		<edge from-layer="1548" from-port="127" to-layer="1549" to-port="251"/>
		<edge from-layer="1548" from-port="104" to-layer="1549" to-port="205"/>
		<edge from-layer="1548" from-port="97" to-layer="1549" to-port="190"/>
		<edge from-layer="1548" from-port="97" to-layer="1549" to-port="191"/>
		<edge from-layer="1548" from-port="98" to-layer="1549" to-port="192"/>
		<edge from-layer="1548" from-port="98" to-layer="1549" to-port="193"/>
		<edge from-layer="1548" from-port="99" to-layer="1549" to-port="194"/>
		<edge from-layer="1548" from-port="99" to-layer="1549" to-port="195"/>
		<edge from-layer="1548" from-port="100" to-layer="1549" to-port="196"/>
		<edge from-layer="1548" from-port="100" to-layer="1549" to-port="197"/>
		<edge from-layer="1548" from-port="101" to-layer="1549" to-port="198"/>
		<edge from-layer="1548" from-port="101" to-layer="1549" to-port="199"/>
		<edge from-layer="1548" from-port="102" to-layer="1549" to-port="200"/>
		<edge from-layer="1548" from-port="102" to-layer="1549" to-port="201"/>
		<edge from-layer="1548" from-port="103" to-layer="1549" to-port="202"/>
		<edge from-layer="1548" from-port="103" to-layer="1549" to-port="203"/>
		<edge from-layer="1548" from-port="104" to-layer="1549" to-port="204"/>
		<edge from-layer="1548" from-port="64" to-layer="1549" to-port="125"/>
		<edge from-layer="1548" from-port="105" to-layer="1549" to-port="206"/>
		<edge from-layer="1548" from-port="105" to-layer="1549" to-port="207"/>
		<edge from-layer="1548" from-port="106" to-layer="1549" to-port="208"/>
		<edge from-layer="1548" from-port="106" to-layer="1549" to-port="209"/>
		<edge from-layer="1548" from-port="107" to-layer="1549" to-port="210"/>
		<edge from-layer="1548" from-port="107" to-layer="1549" to-port="211"/>
		<edge from-layer="1548" from-port="108" to-layer="1549" to-port="212"/>
		<edge from-layer="1548" from-port="108" to-layer="1549" to-port="213"/>
		<edge from-layer="1548" from-port="109" to-layer="1549" to-port="214"/>
		<edge from-layer="1548" from-port="109" to-layer="1549" to-port="215"/>
		<edge from-layer="1548" from-port="110" to-layer="1549" to-port="216"/>
		<edge from-layer="1548" from-port="110" to-layer="1549" to-port="217"/>
		<edge from-layer="1548" from-port="111" to-layer="1549" to-port="218"/>
		<edge from-layer="1548" from-port="111" to-layer="1549" to-port="219"/>
		<edge from-layer="1548" from-port="25" to-layer="1549" to-port="46"/>
		<edge from-layer="1548" from-port="17" to-layer="1549" to-port="31"/>
		<edge from-layer="1548" from-port="18" to-layer="1549" to-port="32"/>
		<edge from-layer="1548" from-port="18" to-layer="1549" to-port="33"/>
		<edge from-layer="1548" from-port="19" to-layer="1549" to-port="34"/>
		<edge from-layer="1548" from-port="19" to-layer="1549" to-port="35"/>
		<edge from-layer="1548" from-port="20" to-layer="1549" to-port="36"/>
		<edge from-layer="1548" from-port="20" to-layer="1549" to-port="37"/>
		<edge from-layer="1548" from-port="21" to-layer="1549" to-port="38"/>
		<edge from-layer="1548" from-port="21" to-layer="1549" to-port="39"/>
		<edge from-layer="1548" from-port="22" to-layer="1549" to-port="40"/>
		<edge from-layer="1548" from-port="22" to-layer="1549" to-port="41"/>
		<edge from-layer="1548" from-port="23" to-layer="1549" to-port="42"/>
		<edge from-layer="1548" from-port="23" to-layer="1549" to-port="43"/>
		<edge from-layer="1548" from-port="24" to-layer="1549" to-port="44"/>
		<edge from-layer="1548" from-port="24" to-layer="1549" to-port="45"/>
		<edge from-layer="1548" from-port="17" to-layer="1549" to-port="30"/>
		<edge from-layer="1548" from-port="25" to-layer="1549" to-port="47"/>
		<edge from-layer="1548" from-port="26" to-layer="1549" to-port="48"/>
		<edge from-layer="1548" from-port="26" to-layer="1549" to-port="49"/>
		<edge from-layer="1548" from-port="27" to-layer="1549" to-port="50"/>
		<edge from-layer="1548" from-port="27" to-layer="1549" to-port="51"/>
		<edge from-layer="1548" from-port="28" to-layer="1549" to-port="52"/>
		<edge from-layer="1548" from-port="28" to-layer="1549" to-port="53"/>
		<edge from-layer="1548" from-port="29" to-layer="1549" to-port="54"/>
		<edge from-layer="1548" from-port="29" to-layer="1549" to-port="55"/>
		<edge from-layer="1548" from-port="30" to-layer="1549" to-port="56"/>
		<edge from-layer="1548" from-port="30" to-layer="1549" to-port="57"/>
		<edge from-layer="1548" from-port="31" to-layer="1549" to-port="58"/>
		<edge from-layer="1548" from-port="31" to-layer="1549" to-port="59"/>
		<edge from-layer="1548" from-port="32" to-layer="1549" to-port="60"/>
		<edge from-layer="1548" from-port="32" to-layer="1549" to-port="61"/>
		<edge from-layer="1548" from-port="9" to-layer="1549" to-port="15"/>
		<edge from-layer="1548" from-port="2" to-layer="1549" to-port="0"/>
		<edge from-layer="1548" from-port="2" to-layer="1549" to-port="1"/>
		<edge from-layer="1548" from-port="3" to-layer="1549" to-port="2"/>
		<edge from-layer="1548" from-port="3" to-layer="1549" to-port="3"/>
		<edge from-layer="1548" from-port="4" to-layer="1549" to-port="4"/>
		<edge from-layer="1548" from-port="4" to-layer="1549" to-port="5"/>
		<edge from-layer="1548" from-port="5" to-layer="1549" to-port="6"/>
		<edge from-layer="1548" from-port="5" to-layer="1549" to-port="7"/>
		<edge from-layer="1548" from-port="6" to-layer="1549" to-port="8"/>
		<edge from-layer="1548" from-port="6" to-layer="1549" to-port="9"/>
		<edge from-layer="1548" from-port="7" to-layer="1549" to-port="10"/>
		<edge from-layer="1548" from-port="7" to-layer="1549" to-port="11"/>
		<edge from-layer="1548" from-port="8" to-layer="1549" to-port="12"/>
		<edge from-layer="1548" from-port="8" to-layer="1549" to-port="13"/>
		<edge from-layer="1548" from-port="9" to-layer="1549" to-port="14"/>
		<edge from-layer="1548" from-port="33" to-layer="1549" to-port="62"/>
		<edge from-layer="1548" from-port="10" to-layer="1549" to-port="16"/>
		<edge from-layer="1548" from-port="10" to-layer="1549" to-port="17"/>
		<edge from-layer="1548" from-port="11" to-layer="1549" to-port="18"/>
		<edge from-layer="1548" from-port="11" to-layer="1549" to-port="19"/>
		<edge from-layer="1548" from-port="12" to-layer="1549" to-port="20"/>
		<edge from-layer="1548" from-port="12" to-layer="1549" to-port="21"/>
		<edge from-layer="1548" from-port="13" to-layer="1549" to-port="22"/>
		<edge from-layer="1548" from-port="13" to-layer="1549" to-port="23"/>
		<edge from-layer="1548" from-port="14" to-layer="1549" to-port="24"/>
		<edge from-layer="1548" from-port="14" to-layer="1549" to-port="25"/>
		<edge from-layer="1548" from-port="15" to-layer="1549" to-port="26"/>
		<edge from-layer="1548" from-port="15" to-layer="1549" to-port="27"/>
		<edge from-layer="1548" from-port="16" to-layer="1549" to-port="28"/>
		<edge from-layer="1548" from-port="16" to-layer="1549" to-port="29"/>
		<edge from-layer="1548" from-port="56" to-layer="1549" to-port="109"/>
		<edge from-layer="1548" from-port="49" to-layer="1549" to-port="94"/>
		<edge from-layer="1548" from-port="49" to-layer="1549" to-port="95"/>
		<edge from-layer="1548" from-port="50" to-layer="1549" to-port="96"/>
		<edge from-layer="1548" from-port="50" to-layer="1549" to-port="97"/>
		<edge from-layer="1548" from-port="51" to-layer="1549" to-port="98"/>
		<edge from-layer="1548" from-port="51" to-layer="1549" to-port="99"/>
		<edge from-layer="1548" from-port="52" to-layer="1549" to-port="100"/>
		<edge from-layer="1548" from-port="52" to-layer="1549" to-port="101"/>
		<edge from-layer="1548" from-port="53" to-layer="1549" to-port="102"/>
		<edge from-layer="1548" from-port="53" to-layer="1549" to-port="103"/>
		<edge from-layer="1548" from-port="54" to-layer="1549" to-port="104"/>
		<edge from-layer="1548" from-port="54" to-layer="1549" to-port="105"/>
		<edge from-layer="1548" from-port="55" to-layer="1549" to-port="106"/>
		<edge from-layer="1548" from-port="55" to-layer="1549" to-port="107"/>
		<edge from-layer="1548" from-port="56" to-layer="1549" to-port="108"/>
		<edge from-layer="1548" from-port="48" to-layer="1549" to-port="93"/>
		<edge from-layer="1548" from-port="57" to-layer="1549" to-port="110"/>
		<edge from-layer="1548" from-port="57" to-layer="1549" to-port="111"/>
		<edge from-layer="1548" from-port="58" to-layer="1549" to-port="112"/>
		<edge from-layer="1548" from-port="58" to-layer="1549" to-port="113"/>
		<edge from-layer="1548" from-port="59" to-layer="1549" to-port="114"/>
		<edge from-layer="1548" from-port="59" to-layer="1549" to-port="115"/>
		<edge from-layer="1548" from-port="60" to-layer="1549" to-port="116"/>
		<edge from-layer="1548" from-port="60" to-layer="1549" to-port="117"/>
		<edge from-layer="1548" from-port="61" to-layer="1549" to-port="118"/>
		<edge from-layer="1548" from-port="61" to-layer="1549" to-port="119"/>
		<edge from-layer="1548" from-port="62" to-layer="1549" to-port="120"/>
		<edge from-layer="1548" from-port="62" to-layer="1549" to-port="121"/>
		<edge from-layer="1548" from-port="63" to-layer="1549" to-port="122"/>
		<edge from-layer="1548" from-port="63" to-layer="1549" to-port="123"/>
		<edge from-layer="1548" from-port="64" to-layer="1549" to-port="124"/>
		<edge from-layer="1548" from-port="41" to-layer="1549" to-port="78"/>
		<edge from-layer="1548" from-port="33" to-layer="1549" to-port="63"/>
		<edge from-layer="1548" from-port="34" to-layer="1549" to-port="64"/>
		<edge from-layer="1548" from-port="34" to-layer="1549" to-port="65"/>
		<edge from-layer="1548" from-port="35" to-layer="1549" to-port="66"/>
		<edge from-layer="1548" from-port="35" to-layer="1549" to-port="67"/>
		<edge from-layer="1548" from-port="36" to-layer="1549" to-port="68"/>
		<edge from-layer="1548" from-port="36" to-layer="1549" to-port="69"/>
		<edge from-layer="1548" from-port="37" to-layer="1549" to-port="70"/>
		<edge from-layer="1548" from-port="37" to-layer="1549" to-port="71"/>
		<edge from-layer="1548" from-port="38" to-layer="1549" to-port="72"/>
		<edge from-layer="1548" from-port="38" to-layer="1549" to-port="73"/>
		<edge from-layer="1548" from-port="39" to-layer="1549" to-port="74"/>
		<edge from-layer="1548" from-port="39" to-layer="1549" to-port="75"/>
		<edge from-layer="1548" from-port="40" to-layer="1549" to-port="76"/>
		<edge from-layer="1548" from-port="40" to-layer="1549" to-port="77"/>
		<edge from-layer="1548" from-port="254" to-layer="1549" to-port="504"/>
		<edge from-layer="1548" from-port="41" to-layer="1549" to-port="79"/>
		<edge from-layer="1548" from-port="42" to-layer="1549" to-port="80"/>
		<edge from-layer="1548" from-port="42" to-layer="1549" to-port="81"/>
		<edge from-layer="1548" from-port="43" to-layer="1549" to-port="82"/>
		<edge from-layer="1548" from-port="43" to-layer="1549" to-port="83"/>
		<edge from-layer="1548" from-port="44" to-layer="1549" to-port="84"/>
		<edge from-layer="1548" from-port="44" to-layer="1549" to-port="85"/>
		<edge from-layer="1548" from-port="45" to-layer="1549" to-port="86"/>
		<edge from-layer="1548" from-port="45" to-layer="1549" to-port="87"/>
		<edge from-layer="1548" from-port="46" to-layer="1549" to-port="88"/>
		<edge from-layer="1548" from-port="46" to-layer="1549" to-port="89"/>
		<edge from-layer="1548" from-port="47" to-layer="1549" to-port="90"/>
		<edge from-layer="1548" from-port="47" to-layer="1549" to-port="91"/>
		<edge from-layer="1548" from-port="48" to-layer="1549" to-port="92"/>
		<edge from-layer="1548" from-port="215" to-layer="1549" to-port="426"/>
		<edge from-layer="1548" from-port="207" to-layer="1549" to-port="411"/>
		<edge from-layer="1548" from-port="208" to-layer="1549" to-port="412"/>
		<edge from-layer="1548" from-port="208" to-layer="1549" to-port="413"/>
		<edge from-layer="1548" from-port="209" to-layer="1549" to-port="414"/>
		<edge from-layer="1548" from-port="209" to-layer="1549" to-port="415"/>
		<edge from-layer="1548" from-port="210" to-layer="1549" to-port="416"/>
		<edge from-layer="1548" from-port="210" to-layer="1549" to-port="417"/>
		<edge from-layer="1548" from-port="211" to-layer="1549" to-port="418"/>
		<edge from-layer="1548" from-port="211" to-layer="1549" to-port="419"/>
		<edge from-layer="1548" from-port="212" to-layer="1549" to-port="420"/>
		<edge from-layer="1548" from-port="212" to-layer="1549" to-port="421"/>
		<edge from-layer="1548" from-port="213" to-layer="1549" to-port="422"/>
		<edge from-layer="1548" from-port="213" to-layer="1549" to-port="423"/>
		<edge from-layer="1548" from-port="214" to-layer="1549" to-port="424"/>
		<edge from-layer="1548" from-port="214" to-layer="1549" to-port="425"/>
		<edge from-layer="1548" from-port="207" to-layer="1549" to-port="410"/>
		<edge from-layer="1548" from-port="215" to-layer="1549" to-port="427"/>
		<edge from-layer="1548" from-port="216" to-layer="1549" to-port="428"/>
		<edge from-layer="1548" from-port="216" to-layer="1549" to-port="429"/>
		<edge from-layer="1548" from-port="217" to-layer="1549" to-port="430"/>
		<edge from-layer="1548" from-port="217" to-layer="1549" to-port="431"/>
		<edge from-layer="1548" from-port="218" to-layer="1549" to-port="432"/>
		<edge from-layer="1548" from-port="218" to-layer="1549" to-port="433"/>
		<edge from-layer="1548" from-port="219" to-layer="1549" to-port="434"/>
		<edge from-layer="1548" from-port="219" to-layer="1549" to-port="435"/>
		<edge from-layer="1548" from-port="220" to-layer="1549" to-port="436"/>
		<edge from-layer="1548" from-port="220" to-layer="1549" to-port="437"/>
		<edge from-layer="1548" from-port="221" to-layer="1549" to-port="438"/>
		<edge from-layer="1548" from-port="221" to-layer="1549" to-port="439"/>
		<edge from-layer="1548" from-port="222" to-layer="1549" to-port="440"/>
		<edge from-layer="1548" from-port="222" to-layer="1549" to-port="441"/>
		<edge from-layer="1548" from-port="199" to-layer="1549" to-port="395"/>
		<edge from-layer="1548" from-port="192" to-layer="1549" to-port="380"/>
		<edge from-layer="1548" from-port="192" to-layer="1549" to-port="381"/>
		<edge from-layer="1548" from-port="193" to-layer="1549" to-port="382"/>
		<edge from-layer="1548" from-port="193" to-layer="1549" to-port="383"/>
		<edge from-layer="1548" from-port="194" to-layer="1549" to-port="384"/>
		<edge from-layer="1548" from-port="194" to-layer="1549" to-port="385"/>
		<edge from-layer="1548" from-port="195" to-layer="1549" to-port="386"/>
		<edge from-layer="1548" from-port="195" to-layer="1549" to-port="387"/>
		<edge from-layer="1548" from-port="196" to-layer="1549" to-port="388"/>
		<edge from-layer="1548" from-port="196" to-layer="1549" to-port="389"/>
		<edge from-layer="1548" from-port="197" to-layer="1549" to-port="390"/>
		<edge from-layer="1548" from-port="197" to-layer="1549" to-port="391"/>
		<edge from-layer="1548" from-port="198" to-layer="1549" to-port="392"/>
		<edge from-layer="1548" from-port="198" to-layer="1549" to-port="393"/>
		<edge from-layer="1548" from-port="199" to-layer="1549" to-port="394"/>
		<edge from-layer="1548" from-port="223" to-layer="1549" to-port="442"/>
		<edge from-layer="1548" from-port="200" to-layer="1549" to-port="396"/>
		<edge from-layer="1548" from-port="200" to-layer="1549" to-port="397"/>
		<edge from-layer="1548" from-port="201" to-layer="1549" to-port="398"/>
		<edge from-layer="1548" from-port="201" to-layer="1549" to-port="399"/>
		<edge from-layer="1548" from-port="202" to-layer="1549" to-port="400"/>
		<edge from-layer="1548" from-port="202" to-layer="1549" to-port="401"/>
		<edge from-layer="1548" from-port="203" to-layer="1549" to-port="402"/>
		<edge from-layer="1548" from-port="203" to-layer="1549" to-port="403"/>
		<edge from-layer="1548" from-port="204" to-layer="1549" to-port="404"/>
		<edge from-layer="1548" from-port="204" to-layer="1549" to-port="405"/>
		<edge from-layer="1548" from-port="205" to-layer="1549" to-port="406"/>
		<edge from-layer="1548" from-port="205" to-layer="1549" to-port="407"/>
		<edge from-layer="1548" from-port="206" to-layer="1549" to-port="408"/>
		<edge from-layer="1548" from-port="206" to-layer="1549" to-port="409"/>
		<edge from-layer="1548" from-port="246" to-layer="1549" to-port="489"/>
		<edge from-layer="1548" from-port="239" to-layer="1549" to-port="474"/>
		<edge from-layer="1548" from-port="239" to-layer="1549" to-port="475"/>
		<edge from-layer="1548" from-port="240" to-layer="1549" to-port="476"/>
		<edge from-layer="1548" from-port="240" to-layer="1549" to-port="477"/>
		<edge from-layer="1548" from-port="241" to-layer="1549" to-port="478"/>
		<edge from-layer="1548" from-port="241" to-layer="1549" to-port="479"/>
		<edge from-layer="1548" from-port="242" to-layer="1549" to-port="480"/>
		<edge from-layer="1548" from-port="242" to-layer="1549" to-port="481"/>
		<edge from-layer="1548" from-port="243" to-layer="1549" to-port="482"/>
		<edge from-layer="1548" from-port="243" to-layer="1549" to-port="483"/>
		<edge from-layer="1548" from-port="244" to-layer="1549" to-port="484"/>
		<edge from-layer="1548" from-port="244" to-layer="1549" to-port="485"/>
		<edge from-layer="1548" from-port="245" to-layer="1549" to-port="486"/>
		<edge from-layer="1548" from-port="245" to-layer="1549" to-port="487"/>
		<edge from-layer="1548" from-port="246" to-layer="1549" to-port="488"/>
		<edge from-layer="1548" from-port="238" to-layer="1549" to-port="473"/>
		<edge from-layer="1548" from-port="247" to-layer="1549" to-port="490"/>
		<edge from-layer="1548" from-port="247" to-layer="1549" to-port="491"/>
		<edge from-layer="1548" from-port="248" to-layer="1549" to-port="492"/>
		<edge from-layer="1548" from-port="248" to-layer="1549" to-port="493"/>
		<edge from-layer="1548" from-port="249" to-layer="1549" to-port="494"/>
		<edge from-layer="1548" from-port="249" to-layer="1549" to-port="495"/>
		<edge from-layer="1548" from-port="250" to-layer="1549" to-port="496"/>
		<edge from-layer="1548" from-port="250" to-layer="1549" to-port="497"/>
		<edge from-layer="1548" from-port="251" to-layer="1549" to-port="498"/>
		<edge from-layer="1548" from-port="251" to-layer="1549" to-port="499"/>
		<edge from-layer="1548" from-port="252" to-layer="1549" to-port="500"/>
		<edge from-layer="1548" from-port="252" to-layer="1549" to-port="501"/>
		<edge from-layer="1548" from-port="253" to-layer="1549" to-port="502"/>
		<edge from-layer="1548" from-port="253" to-layer="1549" to-port="503"/>
		<edge from-layer="1548" from-port="254" to-layer="1549" to-port="505"/>
		<edge from-layer="1548" from-port="231" to-layer="1549" to-port="458"/>
		<edge from-layer="1548" from-port="223" to-layer="1549" to-port="443"/>
		<edge from-layer="1548" from-port="224" to-layer="1549" to-port="444"/>
		<edge from-layer="1548" from-port="224" to-layer="1549" to-port="445"/>
		<edge from-layer="1548" from-port="225" to-layer="1549" to-port="446"/>
		<edge from-layer="1548" from-port="225" to-layer="1549" to-port="447"/>
		<edge from-layer="1548" from-port="226" to-layer="1549" to-port="448"/>
		<edge from-layer="1548" from-port="226" to-layer="1549" to-port="449"/>
		<edge from-layer="1548" from-port="227" to-layer="1549" to-port="450"/>
		<edge from-layer="1548" from-port="227" to-layer="1549" to-port="451"/>
		<edge from-layer="1548" from-port="228" to-layer="1549" to-port="452"/>
		<edge from-layer="1548" from-port="228" to-layer="1549" to-port="453"/>
		<edge from-layer="1548" from-port="229" to-layer="1549" to-port="454"/>
		<edge from-layer="1548" from-port="229" to-layer="1549" to-port="455"/>
		<edge from-layer="1548" from-port="230" to-layer="1549" to-port="456"/>
		<edge from-layer="1548" from-port="230" to-layer="1549" to-port="457"/>
		<edge from-layer="1548" from-port="128" to-layer="1549" to-port="253"/>
		<edge from-layer="1548" from-port="231" to-layer="1549" to-port="459"/>
		<edge from-layer="1548" from-port="232" to-layer="1549" to-port="460"/>
		<edge from-layer="1548" from-port="232" to-layer="1549" to-port="461"/>
		<edge from-layer="1548" from-port="233" to-layer="1549" to-port="462"/>
		<edge from-layer="1548" from-port="233" to-layer="1549" to-port="463"/>
		<edge from-layer="1548" from-port="234" to-layer="1549" to-port="464"/>
		<edge from-layer="1548" from-port="234" to-layer="1549" to-port="465"/>
		<edge from-layer="1548" from-port="235" to-layer="1549" to-port="466"/>
		<edge from-layer="1548" from-port="235" to-layer="1549" to-port="467"/>
		<edge from-layer="1548" from-port="236" to-layer="1549" to-port="468"/>
		<edge from-layer="1548" from-port="236" to-layer="1549" to-port="469"/>
		<edge from-layer="1548" from-port="237" to-layer="1549" to-port="470"/>
		<edge from-layer="1548" from-port="237" to-layer="1549" to-port="471"/>
		<edge from-layer="1548" from-port="238" to-layer="1549" to-port="472"/>
		<edge from-layer="1548" from-port="152" to-layer="1549" to-port="300"/>
		<edge from-layer="1548" from-port="144" to-layer="1549" to-port="285"/>
		<edge from-layer="1548" from-port="145" to-layer="1549" to-port="286"/>
		<edge from-layer="1548" from-port="145" to-layer="1549" to-port="287"/>
		<edge from-layer="1548" from-port="146" to-layer="1549" to-port="288"/>
		<edge from-layer="1548" from-port="146" to-layer="1549" to-port="289"/>
		<edge from-layer="1548" from-port="147" to-layer="1549" to-port="290"/>
		<edge from-layer="1548" from-port="147" to-layer="1549" to-port="291"/>
		<edge from-layer="1548" from-port="148" to-layer="1549" to-port="292"/>
		<edge from-layer="1548" from-port="148" to-layer="1549" to-port="293"/>
		<edge from-layer="1548" from-port="149" to-layer="1549" to-port="294"/>
		<edge from-layer="1548" from-port="149" to-layer="1549" to-port="295"/>
		<edge from-layer="1548" from-port="150" to-layer="1549" to-port="296"/>
		<edge from-layer="1548" from-port="150" to-layer="1549" to-port="297"/>
		<edge from-layer="1548" from-port="151" to-layer="1549" to-port="298"/>
		<edge from-layer="1548" from-port="151" to-layer="1549" to-port="299"/>
		<edge from-layer="1548" from-port="143" to-layer="1549" to-port="283"/>
		<edge from-layer="1548" from-port="152" to-layer="1549" to-port="301"/>
		<edge from-layer="1548" from-port="153" to-layer="1549" to-port="302"/>
		<edge from-layer="1548" from-port="153" to-layer="1549" to-port="303"/>
		<edge from-layer="1548" from-port="154" to-layer="1549" to-port="304"/>
		<edge from-layer="1548" from-port="154" to-layer="1549" to-port="305"/>
		<edge from-layer="1548" from-port="155" to-layer="1549" to-port="306"/>
		<edge from-layer="1548" from-port="155" to-layer="1549" to-port="307"/>
		<edge from-layer="1548" from-port="156" to-layer="1549" to-port="308"/>
		<edge from-layer="1548" from-port="156" to-layer="1549" to-port="309"/>
		<edge from-layer="1548" from-port="157" to-layer="1549" to-port="310"/>
		<edge from-layer="1548" from-port="157" to-layer="1549" to-port="311"/>
		<edge from-layer="1548" from-port="158" to-layer="1549" to-port="312"/>
		<edge from-layer="1548" from-port="158" to-layer="1549" to-port="313"/>
		<edge from-layer="1548" from-port="159" to-layer="1549" to-port="314"/>
		<edge from-layer="1548" from-port="159" to-layer="1549" to-port="315"/>
		<edge from-layer="1548" from-port="136" to-layer="1549" to-port="268"/>
		<edge from-layer="1548" from-port="128" to-layer="1549" to-port="252"/>
		<edge from-layer="1548" from-port="129" to-layer="1549" to-port="254"/>
		<edge from-layer="1548" from-port="129" to-layer="1549" to-port="255"/>
		<edge from-layer="1548" from-port="130" to-layer="1549" to-port="256"/>
		<edge from-layer="1548" from-port="130" to-layer="1549" to-port="257"/>
		<edge from-layer="1548" from-port="131" to-layer="1549" to-port="258"/>
		<edge from-layer="1548" from-port="131" to-layer="1549" to-port="259"/>
		<edge from-layer="1548" from-port="132" to-layer="1549" to-port="260"/>
		<edge from-layer="1548" from-port="132" to-layer="1549" to-port="261"/>
		<edge from-layer="1548" from-port="133" to-layer="1549" to-port="262"/>
		<edge from-layer="1548" from-port="133" to-layer="1549" to-port="263"/>
		<edge from-layer="1548" from-port="134" to-layer="1549" to-port="264"/>
		<edge from-layer="1548" from-port="134" to-layer="1549" to-port="265"/>
		<edge from-layer="1548" from-port="135" to-layer="1549" to-port="266"/>
		<edge from-layer="1548" from-port="135" to-layer="1549" to-port="267"/>
		<edge from-layer="1548" from-port="191" to-layer="1549" to-port="378"/>
		<edge from-layer="1548" from-port="136" to-layer="1549" to-port="269"/>
		<edge from-layer="1548" from-port="137" to-layer="1549" to-port="270"/>
		<edge from-layer="1548" from-port="137" to-layer="1549" to-port="271"/>
		<edge from-layer="1548" from-port="138" to-layer="1549" to-port="272"/>
		<edge from-layer="1548" from-port="138" to-layer="1549" to-port="273"/>
		<edge from-layer="1548" from-port="139" to-layer="1549" to-port="274"/>
		<edge from-layer="1548" from-port="139" to-layer="1549" to-port="275"/>
		<edge from-layer="1548" from-port="140" to-layer="1549" to-port="276"/>
		<edge from-layer="1548" from-port="140" to-layer="1549" to-port="277"/>
		<edge from-layer="1548" from-port="141" to-layer="1549" to-port="278"/>
		<edge from-layer="1548" from-port="141" to-layer="1549" to-port="279"/>
		<edge from-layer="1548" from-port="142" to-layer="1549" to-port="280"/>
		<edge from-layer="1548" from-port="142" to-layer="1549" to-port="281"/>
		<edge from-layer="1548" from-port="143" to-layer="1549" to-port="282"/>
		<edge from-layer="1548" from-port="184" to-layer="1549" to-port="364"/>
		<edge from-layer="1548" from-port="176" to-layer="1549" to-port="348"/>
		<edge from-layer="1548" from-port="177" to-layer="1549" to-port="350"/>
		<edge from-layer="1548" from-port="177" to-layer="1549" to-port="351"/>
		<edge from-layer="1548" from-port="178" to-layer="1549" to-port="352"/>
		<edge from-layer="1548" from-port="178" to-layer="1549" to-port="353"/>
		<edge from-layer="1548" from-port="179" to-layer="1549" to-port="354"/>
		<edge from-layer="1548" from-port="179" to-layer="1549" to-port="355"/>
		<edge from-layer="1548" from-port="180" to-layer="1549" to-port="356"/>
		<edge from-layer="1548" from-port="180" to-layer="1549" to-port="357"/>
		<edge from-layer="1548" from-port="181" to-layer="1549" to-port="358"/>
		<edge from-layer="1548" from-port="181" to-layer="1549" to-port="359"/>
		<edge from-layer="1548" from-port="182" to-layer="1549" to-port="360"/>
		<edge from-layer="1548" from-port="182" to-layer="1549" to-port="361"/>
		<edge from-layer="1548" from-port="183" to-layer="1549" to-port="362"/>
		<edge from-layer="1548" from-port="183" to-layer="1549" to-port="363"/>
		<edge from-layer="1548" from-port="176" to-layer="1549" to-port="349"/>
		<edge from-layer="1548" from-port="184" to-layer="1549" to-port="365"/>
		<edge from-layer="1548" from-port="185" to-layer="1549" to-port="366"/>
		<edge from-layer="1548" from-port="185" to-layer="1549" to-port="367"/>
		<edge from-layer="1548" from-port="186" to-layer="1549" to-port="368"/>
		<edge from-layer="1548" from-port="186" to-layer="1549" to-port="369"/>
		<edge from-layer="1548" from-port="187" to-layer="1549" to-port="370"/>
		<edge from-layer="1548" from-port="187" to-layer="1549" to-port="371"/>
		<edge from-layer="1548" from-port="188" to-layer="1549" to-port="372"/>
		<edge from-layer="1548" from-port="188" to-layer="1549" to-port="373"/>
		<edge from-layer="1548" from-port="189" to-layer="1549" to-port="374"/>
		<edge from-layer="1548" from-port="189" to-layer="1549" to-port="375"/>
		<edge from-layer="1548" from-port="190" to-layer="1549" to-port="376"/>
		<edge from-layer="1548" from-port="160" to-layer="1549" to-port="316"/>
		<edge from-layer="1548" from-port="191" to-layer="1549" to-port="379"/>
		<edge from-layer="1548" from-port="190" to-layer="1549" to-port="377"/>
		<edge from-layer="1548" from-port="167" to-layer="1549" to-port="331"/>
		<edge from-layer="1548" from-port="160" to-layer="1549" to-port="317"/>
		<edge from-layer="1548" from-port="161" to-layer="1549" to-port="318"/>
		<edge from-layer="1548" from-port="161" to-layer="1549" to-port="319"/>
		<edge from-layer="1548" from-port="162" to-layer="1549" to-port="320"/>
		<edge from-layer="1548" from-port="162" to-layer="1549" to-port="321"/>
		<edge from-layer="1548" from-port="163" to-layer="1549" to-port="322"/>
		<edge from-layer="1548" from-port="163" to-layer="1549" to-port="323"/>
		<edge from-layer="1548" from-port="164" to-layer="1549" to-port="324"/>
		<edge from-layer="1548" from-port="164" to-layer="1549" to-port="325"/>
		<edge from-layer="1548" from-port="165" to-layer="1549" to-port="326"/>
		<edge from-layer="1548" from-port="165" to-layer="1549" to-port="327"/>
		<edge from-layer="1548" from-port="166" to-layer="1549" to-port="328"/>
		<edge from-layer="1548" from-port="166" to-layer="1549" to-port="329"/>
		<edge from-layer="1548" from-port="167" to-layer="1549" to-port="330"/>
		<edge from-layer="1548" from-port="175" to-layer="1549" to-port="347"/>
		<edge from-layer="1548" from-port="168" to-layer="1549" to-port="333"/>
		<edge from-layer="1548" from-port="175" to-layer="1549" to-port="346"/>
		<edge from-layer="1548" from-port="174" to-layer="1549" to-port="345"/>
		<edge from-layer="1548" from-port="174" to-layer="1549" to-port="344"/>
		<edge from-layer="1548" from-port="173" to-layer="1549" to-port="343"/>
		<edge from-layer="1548" from-port="173" to-layer="1549" to-port="342"/>
		<edge from-layer="1548" from-port="172" to-layer="1549" to-port="341"/>
		<edge from-layer="1548" from-port="172" to-layer="1549" to-port="340"/>
		<edge from-layer="1548" from-port="171" to-layer="1549" to-port="339"/>
		<edge from-layer="1548" from-port="171" to-layer="1549" to-port="338"/>
		<edge from-layer="1548" from-port="170" to-layer="1549" to-port="337"/>
		<edge from-layer="1548" from-port="170" to-layer="1549" to-port="336"/>
		<edge from-layer="1548" from-port="169" to-layer="1549" to-port="335"/>
		<edge from-layer="1548" from-port="169" to-layer="1549" to-port="334"/>
		<edge from-layer="1548" from-port="168" to-layer="1549" to-port="332"/>
		<edge from-layer="1549" from-port="1008" to-layer="1551" to-port="0"/>
		<edge from-layer="1550" from-port="0" to-layer="1551" to-port="1"/>
		<edge from-layer="1551" from-port="2" to-layer="1553" to-port="0"/>
		<edge from-layer="1552" from-port="0" to-layer="1553" to-port="1"/>
		<edge from-layer="1553" from-port="2" to-layer="1555" to-port="0"/>
		<edge from-layer="1554" from-port="0" to-layer="1555" to-port="1"/>
		<edge from-layer="1555" from-port="2" to-layer="1557" to-port="0"/>
		<edge from-layer="1556" from-port="0" to-layer="1557" to-port="1"/>
		<edge from-layer="1557" from-port="2" to-layer="1559" to-port="0"/>
		<edge from-layer="1558" from-port="0" to-layer="1559" to-port="1"/>
		<edge from-layer="1559" from-port="2" to-layer="1561" to-port="0"/>
		<edge from-layer="1560" from-port="0" to-layer="1561" to-port="1"/>
		<edge from-layer="1561" from-port="2" to-layer="1563" to-port="0"/>
		<edge from-layer="1562" from-port="0" to-layer="1563" to-port="1"/>
		<edge from-layer="1563" from-port="2" to-layer="1564" to-port="0"/>
		<edge from-layer="1564" from-port="1" to-layer="1565" to-port="0"/>
		<edge from-layer="1565" from-port="2" to-layer="1567" to-port="0"/>
		<edge from-layer="1566" from-port="0" to-layer="1567" to-port="1"/>
		<edge from-layer="1567" from-port="2" to-layer="1569" to-port="0"/>
		<edge from-layer="1568" from-port="0" to-layer="1569" to-port="1"/>
		<edge from-layer="1569" from-port="2" to-layer="1571" to-port="0"/>
		<edge from-layer="1570" from-port="0" to-layer="1571" to-port="1"/>
		<edge from-layer="1571" from-port="2" to-layer="1573" to-port="0"/>
		<edge from-layer="1572" from-port="0" to-layer="1573" to-port="1"/>
		<edge from-layer="1573" from-port="2" to-layer="1575" to-port="0"/>
		<edge from-layer="1574" from-port="0" to-layer="1575" to-port="1"/>
		<edge from-layer="1575" from-port="2" to-layer="1577" to-port="0"/>
		<edge from-layer="1576" from-port="0" to-layer="1577" to-port="1"/>
		<edge from-layer="1577" from-port="2" to-layer="1579" to-port="0"/>
		<edge from-layer="1578" from-port="0" to-layer="1579" to-port="1"/>
		<edge from-layer="1579" from-port="2" to-layer="1580" to-port="0"/>
		<edge from-layer="1580" from-port="1" to-layer="1582" to-port="0"/>
		<edge from-layer="1581" from-port="0" to-layer="1582" to-port="1"/>
		<edge from-layer="1582" from-port="2" to-layer="1584" to-port="0"/>
		<edge from-layer="1583" from-port="0" to-layer="1584" to-port="1"/>
		<edge from-layer="1584" from-port="2" to-layer="1586" to-port="0"/>
		<edge from-layer="1585" from-port="0" to-layer="1586" to-port="1"/>
		<edge from-layer="1586" from-port="2" to-layer="1588" to-port="0"/>
		<edge from-layer="1587" from-port="0" to-layer="1588" to-port="1"/>
		<edge from-layer="1588" from-port="2" to-layer="1590" to-port="0"/>
		<edge from-layer="1589" from-port="0" to-layer="1590" to-port="1"/>
		<edge from-layer="1590" from-port="2" to-layer="1592" to-port="0"/>
		<edge from-layer="1591" from-port="0" to-layer="1592" to-port="1"/>
		<edge from-layer="1592" from-port="2" to-layer="1594" to-port="0"/>
		<edge from-layer="1593" from-port="0" to-layer="1594" to-port="1"/>
		<edge from-layer="1594" from-port="2" to-layer="1595" to-port="0"/>
		<edge from-layer="1595" from-port="1" to-layer="1596" to-port="1"/>
		<edge from-layer="1596" from-port="2" to-layer="1598" to-port="0"/>
		<edge from-layer="1597" from-port="0" to-layer="1598" to-port="1"/>
		<edge from-layer="1598" from-port="2" to-layer="1600" to-port="0"/>
		<edge from-layer="1599" from-port="0" to-layer="1600" to-port="1"/>
		<edge from-layer="1600" from-port="2" to-layer="1602" to-port="0"/>
		<edge from-layer="1601" from-port="0" to-layer="1602" to-port="1"/>
		<edge from-layer="1602" from-port="2" to-layer="1604" to-port="0"/>
		<edge from-layer="1603" from-port="0" to-layer="1604" to-port="1"/>
		<edge from-layer="1604" from-port="2" to-layer="1606" to-port="0"/>
		<edge from-layer="1605" from-port="0" to-layer="1606" to-port="1"/>
		<edge from-layer="1606" from-port="2" to-layer="1608" to-port="0"/>
		<edge from-layer="1607" from-port="0" to-layer="1608" to-port="1"/>
		<edge from-layer="1608" from-port="2" to-layer="1610" to-port="0"/>
		<edge from-layer="1609" from-port="0" to-layer="1610" to-port="1"/>
		<edge from-layer="1610" from-port="2" to-layer="1611" to-port="0"/>
		<edge from-layer="1611" from-port="1" to-layer="1612" to-port="0"/>
	</edges>
	<meta_data>
		<MO_version value="2021.4.2-3974-e2a469a3450-releases/2021/4"/>
		<cli_parameters>
			<caffe_parser_path value="DIR"/>
			<data_type value="FP16"/>
			<disable_nhwc_to_nchw value="False"/>
			<disable_omitting_optional value="False"/>
			<disable_resnet_optimization value="False"/>
			<disable_weights_compression value="False"/>
			<enable_concat_optimization value="False"/>
			<enable_flattening_nested_params value="False"/>
			<enable_ssd_gluoncv value="False"/>
			<extensions value="DIR"/>
			<framework value="tf"/>
			<freeze_placeholder_with_value value="{}"/>
			<generate_deprecated_IR_V7 value="False"/>
			<input value="inputs"/>
			<input_model value="DIR/dualpath_singlelead_2s.pb"/>
			<input_model_is_text value="False"/>
			<input_shape value="[1,1008,1]"/>
			<k value="DIR/CustomLayersMapping.xml"/>
			<keep_shape_ops value="True"/>
			<legacy_ir_generation value="False"/>
			<legacy_mxnet_model value="False"/>
			<log_level value="ERROR"/>
			<mean_scale_values value="{}"/>
			<mean_values value="()"/>
			<model_name value="dualpath_singlelead_2s"/>
			<output value="['output_cls/output_cls/Identity']"/>
			<output_dir value="DIR"/>
			<placeholder_data_types value="{}"/>
			<placeholder_shapes value="{'inputs': array([   1, 1008,    1])}"/>
			<progress value="False"/>
			<remove_memory value="False"/>
			<remove_output_softmax value="False"/>
			<reverse_input_channels value="False"/>
			<save_params_from_nd value="False"/>
			<scale_values value="()"/>
			<silent value="False"/>
			<static_shape value="False"/>
			<stream_output value="False"/>
			<transform value=""/>
			<unset unset_cli_parameters="batch, counts, disable_fusing, disable_gfusing, finegrain_fusing, input_checkpoint, input_meta_graph, input_proto, input_symbol, mean_file, mean_file_offsets, move_to_preprocess, nd_prefix_name, pretrained_model_name, saved_model_dir, saved_model_tags, scale, tensorboard_logdir, tensorflow_custom_layer_libraries, tensorflow_custom_operations_config_update, tensorflow_object_detection_api_pipeline_config, tensorflow_use_custom_operations_config, transformations_config"/>
		</cli_parameters>
	</meta_data>
</net>
