<?xml version="1.0"?>
<net name="TensorFlow_Frontend_IR" version="11">
	<layers>
		<layer id="0" name="inputs" type="Parameter" version="opset1">
			<data shape="1,129,18,12,2" element_type="f32" />
			<output>
				<port id="0" precision="FP32" names="inputs,inputs:0">
					<dim>1</dim>
					<dim>129</dim>
					<dim>18</dim>
					<dim>12</dim>
					<dim>2</dim>
				</port>
			</output>
		</layer>
		<layer id="1" name="Transpose_31076" type="Const" version="opset1">
			<data element_type="f32" shape="1, 16, 1, 1, 1" offset="0" size="64" />
			<output>
				<port id="0" precision="FP32">
					<dim>1</dim>
					<dim>16</dim>
					<dim>1</dim>
					<dim>1</dim>
					<dim>1</dim>
				</port>
			</output>
		</layer>
		<layer id="2" name="Transpose_31068" type="Const" version="opset1">
			<data element_type="f32" shape="1, 16, 1, 1, 1" offset="64" size="64" />
			<output>
				<port id="0" precision="FP32">
					<dim>1</dim>
					<dim>16</dim>
					<dim>1</dim>
					<dim>1</dim>
					<dim>1</dim>
				</port>
			</output>
		</layer>
		<layer id="3" name="Transpose_31046" type="Const" version="opset1">
			<data element_type="f32" shape="1, 20, 1, 1, 1" offset="128" size="80" />
			<output>
				<port id="0" precision="FP32">
					<dim>1</dim>
					<dim>20</dim>
					<dim>1</dim>
					<dim>1</dim>
					<dim>1</dim>
				</port>
			</output>
		</layer>
		<layer id="4" name="Transpose_31038" type="Const" version="opset1">
			<data element_type="f32" shape="1, 20, 1, 1, 1" offset="208" size="80" />
			<output>
				<port id="0" precision="FP32">
					<dim>1</dim>
					<dim>20</dim>
					<dim>1</dim>
					<dim>1</dim>
					<dim>1</dim>
				</port>
			</output>
		</layer>
		<layer id="5" name="Transpose_31016" type="Const" version="opset1">
			<data element_type="f32" shape="1, 36, 1, 1, 1" offset="288" size="144" />
			<output>
				<port id="0" precision="FP32">
					<dim>1</dim>
					<dim>36</dim>
					<dim>1</dim>
					<dim>1</dim>
					<dim>1</dim>
				</port>
			</output>
		</layer>
		<layer id="6" name="Transpose_31008" type="Const" version="opset1">
			<data element_type="f32" shape="1, 36, 1, 1, 1" offset="432" size="144" />
			<output>
				<port id="0" precision="FP32">
					<dim>1</dim>
					<dim>36</dim>
					<dim>1</dim>
					<dim>1</dim>
					<dim>1</dim>
				</port>
			</output>
		</layer>
		<layer id="7" name="Transpose_30986" type="Const" version="opset1">
			<data element_type="f32" shape="1, 16, 1, 1, 1" offset="576" size="64" />
			<output>
				<port id="0" precision="FP32">
					<dim>1</dim>
					<dim>16</dim>
					<dim>1</dim>
					<dim>1</dim>
					<dim>1</dim>
				</port>
			</output>
		</layer>
		<layer id="8" name="Transpose_30978" type="Const" version="opset1">
			<data element_type="f32" shape="1, 16, 1, 1, 1" offset="640" size="64" />
			<output>
				<port id="0" precision="FP32">
					<dim>1</dim>
					<dim>16</dim>
					<dim>1</dim>
					<dim>1</dim>
					<dim>1</dim>
				</port>
			</output>
		</layer>
		<layer id="9" name="Transpose_30956" type="Const" version="opset1">
			<data element_type="f32" shape="1, 20, 1, 1, 1" offset="704" size="80" />
			<output>
				<port id="0" precision="FP32">
					<dim>1</dim>
					<dim>20</dim>
					<dim>1</dim>
					<dim>1</dim>
					<dim>1</dim>
				</port>
			</output>
		</layer>
		<layer id="10" name="Transpose_30948" type="Const" version="opset1">
			<data element_type="f32" shape="1, 20, 1, 1, 1" offset="784" size="80" />
			<output>
				<port id="0" precision="FP32">
					<dim>1</dim>
					<dim>20</dim>
					<dim>1</dim>
					<dim>1</dim>
					<dim>1</dim>
				</port>
			</output>
		</layer>
		<layer id="11" name="Transpose_30926" type="Const" version="opset1">
			<data element_type="f32" shape="1, 36, 1, 1, 1" offset="864" size="144" />
			<output>
				<port id="0" precision="FP32">
					<dim>1</dim>
					<dim>36</dim>
					<dim>1</dim>
					<dim>1</dim>
					<dim>1</dim>
				</port>
			</output>
		</layer>
		<layer id="12" name="Transpose_30918" type="Const" version="opset1">
			<data element_type="f32" shape="1, 36, 1, 1, 1" offset="1008" size="144" />
			<output>
				<port id="0" precision="FP32">
					<dim>1</dim>
					<dim>36</dim>
					<dim>1</dim>
					<dim>1</dim>
					<dim>1</dim>
				</port>
			</output>
		</layer>
		<layer id="13" name="Transpose_30896" type="Const" version="opset1">
			<data element_type="f32" shape="1, 16, 1, 1, 1" offset="1152" size="64" />
			<output>
				<port id="0" precision="FP32">
					<dim>1</dim>
					<dim>16</dim>
					<dim>1</dim>
					<dim>1</dim>
					<dim>1</dim>
				</port>
			</output>
		</layer>
		<layer id="14" name="Transpose_30888" type="Const" version="opset1">
			<data element_type="f32" shape="1, 16, 1, 1, 1" offset="1216" size="64" />
			<output>
				<port id="0" precision="FP32">
					<dim>1</dim>
					<dim>16</dim>
					<dim>1</dim>
					<dim>1</dim>
					<dim>1</dim>
				</port>
			</output>
		</layer>
		<layer id="15" name="Transpose_30866" type="Const" version="opset1">
			<data element_type="f32" shape="1, 20, 1, 1, 1" offset="1280" size="80" />
			<output>
				<port id="0" precision="FP32">
					<dim>1</dim>
					<dim>20</dim>
					<dim>1</dim>
					<dim>1</dim>
					<dim>1</dim>
				</port>
			</output>
		</layer>
		<layer id="16" name="Transpose_30858" type="Const" version="opset1">
			<data element_type="f32" shape="1, 20, 1, 1, 1" offset="1360" size="80" />
			<output>
				<port id="0" precision="FP32">
					<dim>1</dim>
					<dim>20</dim>
					<dim>1</dim>
					<dim>1</dim>
					<dim>1</dim>
				</port>
			</output>
		</layer>
		<layer id="17" name="Transpose_30836" type="Const" version="opset1">
			<data element_type="f32" shape="1, 36, 1, 1, 1" offset="1440" size="144" />
			<output>
				<port id="0" precision="FP32">
					<dim>1</dim>
					<dim>36</dim>
					<dim>1</dim>
					<dim>1</dim>
					<dim>1</dim>
				</port>
			</output>
		</layer>
		<layer id="18" name="Transpose_30828" type="Const" version="opset1">
			<data element_type="f32" shape="1, 36, 1, 1, 1" offset="1584" size="144" />
			<output>
				<port id="0" precision="FP32">
					<dim>1</dim>
					<dim>36</dim>
					<dim>1</dim>
					<dim>1</dim>
					<dim>1</dim>
				</port>
			</output>
		</layer>
		<layer id="19" name="Transpose_30806" type="Const" version="opset1">
			<data element_type="f32" shape="1, 16, 1, 1, 1" offset="1728" size="64" />
			<output>
				<port id="0" precision="FP32">
					<dim>1</dim>
					<dim>16</dim>
					<dim>1</dim>
					<dim>1</dim>
					<dim>1</dim>
				</port>
			</output>
		</layer>
		<layer id="20" name="Transpose_30798" type="Const" version="opset1">
			<data element_type="f32" shape="1, 16, 1, 1, 1" offset="1792" size="64" />
			<output>
				<port id="0" precision="FP32">
					<dim>1</dim>
					<dim>16</dim>
					<dim>1</dim>
					<dim>1</dim>
					<dim>1</dim>
				</port>
			</output>
		</layer>
		<layer id="21" name="Transpose_30776" type="Const" version="opset1">
			<data element_type="f32" shape="1, 20, 1, 1, 1" offset="1856" size="80" />
			<output>
				<port id="0" precision="FP32">
					<dim>1</dim>
					<dim>20</dim>
					<dim>1</dim>
					<dim>1</dim>
					<dim>1</dim>
				</port>
			</output>
		</layer>
		<layer id="22" name="Transpose_30768" type="Const" version="opset1">
			<data element_type="f32" shape="1, 20, 1, 1, 1" offset="1936" size="80" />
			<output>
				<port id="0" precision="FP32">
					<dim>1</dim>
					<dim>20</dim>
					<dim>1</dim>
					<dim>1</dim>
					<dim>1</dim>
				</port>
			</output>
		</layer>
		<layer id="23" name="Transpose_30746" type="Const" version="opset1">
			<data element_type="f32" shape="1, 36, 1, 1, 1" offset="2016" size="144" />
			<output>
				<port id="0" precision="FP32">
					<dim>1</dim>
					<dim>36</dim>
					<dim>1</dim>
					<dim>1</dim>
					<dim>1</dim>
				</port>
			</output>
		</layer>
		<layer id="24" name="Transpose_30738" type="Const" version="opset1">
			<data element_type="f32" shape="1, 36, 1, 1, 1" offset="2160" size="144" />
			<output>
				<port id="0" precision="FP32">
					<dim>1</dim>
					<dim>36</dim>
					<dim>1</dim>
					<dim>1</dim>
					<dim>1</dim>
				</port>
			</output>
		</layer>
		<layer id="25" name="Transpose_30716" type="Const" version="opset1">
			<data element_type="f32" shape="1, 16, 1, 1, 1" offset="2304" size="64" />
			<output>
				<port id="0" precision="FP32">
					<dim>1</dim>
					<dim>16</dim>
					<dim>1</dim>
					<dim>1</dim>
					<dim>1</dim>
				</port>
			</output>
		</layer>
		<layer id="26" name="Transpose_30708" type="Const" version="opset1">
			<data element_type="f32" shape="1, 16, 1, 1, 1" offset="2368" size="64" />
			<output>
				<port id="0" precision="FP32">
					<dim>1</dim>
					<dim>16</dim>
					<dim>1</dim>
					<dim>1</dim>
					<dim>1</dim>
				</port>
			</output>
		</layer>
		<layer id="27" name="Transpose_30686" type="Const" version="opset1">
			<data element_type="f32" shape="1, 20, 1, 1, 1" offset="2432" size="80" />
			<output>
				<port id="0" precision="FP32">
					<dim>1</dim>
					<dim>20</dim>
					<dim>1</dim>
					<dim>1</dim>
					<dim>1</dim>
				</port>
			</output>
		</layer>
		<layer id="28" name="Transpose_30678" type="Const" version="opset1">
			<data element_type="f32" shape="1, 20, 1, 1, 1" offset="2512" size="80" />
			<output>
				<port id="0" precision="FP32">
					<dim>1</dim>
					<dim>20</dim>
					<dim>1</dim>
					<dim>1</dim>
					<dim>1</dim>
				</port>
			</output>
		</layer>
		<layer id="29" name="Transpose_30656" type="Const" version="opset1">
			<data element_type="f32" shape="1, 36, 1, 1, 1" offset="2592" size="144" />
			<output>
				<port id="0" precision="FP32">
					<dim>1</dim>
					<dim>36</dim>
					<dim>1</dim>
					<dim>1</dim>
					<dim>1</dim>
				</port>
			</output>
		</layer>
		<layer id="30" name="Transpose_30648" type="Const" version="opset1">
			<data element_type="f32" shape="1, 36, 1, 1, 1" offset="2736" size="144" />
			<output>
				<port id="0" precision="FP32">
					<dim>1</dim>
					<dim>36</dim>
					<dim>1</dim>
					<dim>1</dim>
					<dim>1</dim>
				</port>
			</output>
		</layer>
		<layer id="31" name="Constant_488" type="Const" version="opset1">
			<data element_type="i64" shape="5" offset="2880" size="40" />
			<output>
				<port id="0" precision="I64">
					<dim>5</dim>
				</port>
			</output>
		</layer>
		<layer id="32" name="Transpose_489" type="Transpose" version="opset1">
			<input>
				<port id="0" precision="FP32">
					<dim>1</dim>
					<dim>129</dim>
					<dim>18</dim>
					<dim>12</dim>
					<dim>2</dim>
				</port>
				<port id="1" precision="I64">
					<dim>5</dim>
				</port>
			</input>
			<output>
				<port id="2" precision="FP32">
					<dim>1</dim>
					<dim>2</dim>
					<dim>129</dim>
					<dim>18</dim>
					<dim>12</dim>
				</port>
			</output>
		</layer>
		<layer id="33" name="Transpose_491" type="Const" version="opset1">
			<data element_type="f32" shape="36, 2, 9, 3, 1" offset="2920" size="7776" />
			<output>
				<port id="0" precision="FP32">
					<dim>36</dim>
					<dim>2</dim>
					<dim>9</dim>
					<dim>3</dim>
					<dim>1</dim>
				</port>
			</output>
		</layer>
		<layer id="34" name="Convolution_492" type="Convolution" version="opset1">
			<data strides="1, 1, 1" dilations="1, 1, 1" pads_begin="0, 0, 0" pads_end="0, 0, 0" auto_pad="same_upper" />
			<input>
				<port id="0" precision="FP32">
					<dim>1</dim>
					<dim>2</dim>
					<dim>129</dim>
					<dim>18</dim>
					<dim>12</dim>
				</port>
				<port id="1" precision="FP32">
					<dim>36</dim>
					<dim>2</dim>
					<dim>9</dim>
					<dim>3</dim>
					<dim>1</dim>
				</port>
			</input>
			<output>
				<port id="2" precision="FP32">
					<dim>1</dim>
					<dim>36</dim>
					<dim>129</dim>
					<dim>18</dim>
					<dim>12</dim>
				</port>
			</output>
		</layer>
		<layer id="35" name="Constant_42361" type="Const" version="opset1">
			<data element_type="f32" shape="1, 36, 1, 1, 1" offset="10696" size="144" />
			<output>
				<port id="0" precision="FP32">
					<dim>1</dim>
					<dim>36</dim>
					<dim>1</dim>
					<dim>1</dim>
					<dim>1</dim>
				</port>
			</output>
		</layer>
		<layer id="36" name="Transpose_30646" type="Add" version="opset1">
			<data auto_broadcast="numpy" />
			<input>
				<port id="0" precision="FP32">
					<dim>1</dim>
					<dim>36</dim>
					<dim>129</dim>
					<dim>18</dim>
					<dim>12</dim>
				</port>
				<port id="1" precision="FP32">
					<dim>1</dim>
					<dim>36</dim>
					<dim>1</dim>
					<dim>1</dim>
					<dim>1</dim>
				</port>
			</input>
			<output>
				<port id="2" precision="FP32">
					<dim>1</dim>
					<dim>36</dim>
					<dim>129</dim>
					<dim>18</dim>
					<dim>12</dim>
				</port>
			</output>
		</layer>
		<layer id="37" name="Transpose_30650" type="Multiply" version="opset1">
			<data auto_broadcast="numpy" />
			<input>
				<port id="0" precision="FP32">
					<dim>1</dim>
					<dim>36</dim>
					<dim>1</dim>
					<dim>1</dim>
					<dim>1</dim>
				</port>
				<port id="1" precision="FP32">
					<dim>1</dim>
					<dim>36</dim>
					<dim>129</dim>
					<dim>18</dim>
					<dim>12</dim>
				</port>
			</input>
			<output>
				<port id="2" precision="FP32">
					<dim>1</dim>
					<dim>36</dim>
					<dim>129</dim>
					<dim>18</dim>
					<dim>12</dim>
				</port>
			</output>
		</layer>
		<layer id="38" name="Transpose_40469" type="Const" version="opset1">
			<data element_type="f32" shape="1, 36, 1, 1, 1" offset="10840" size="144" />
			<output>
				<port id="0" precision="FP32">
					<dim>1</dim>
					<dim>36</dim>
					<dim>1</dim>
					<dim>1</dim>
					<dim>1</dim>
				</port>
			</output>
		</layer>
		<layer id="39" name="Constant_30645" type="Const" version="opset1">
			<data element_type="i64" shape="5" offset="10984" size="40" />
			<output>
				<port id="0" precision="I64">
					<dim>5</dim>
				</port>
			</output>
		</layer>
		<layer id="40" name="complex_batch_normalization_1/sub_2" type="Transpose" version="opset1">
			<input>
				<port id="0" precision="FP32">
					<dim>1</dim>
					<dim>36</dim>
					<dim>129</dim>
					<dim>18</dim>
					<dim>12</dim>
				</port>
				<port id="1" precision="I64">
					<dim>5</dim>
				</port>
			</input>
			<output>
				<port id="2" precision="FP32" names="complex_batch_normalization_1/sub_2,complex_batch_normalization_1/sub_2:0">
					<dim>1</dim>
					<dim>129</dim>
					<dim>18</dim>
					<dim>12</dim>
					<dim>36</dim>
				</port>
			</output>
		</layer>
		<layer id="41" name="complex_batch_normalization_1/strided_slice_13/stack" type="Const" version="opset1">
			<data element_type="i32" shape="5" offset="11024" size="20" />
			<output>
				<port id="0" precision="I32" names="complex_batch_normalization_1/strided_slice_13/stack,complex_batch_normalization_1/strided_slice_13/stack:0">
					<dim>5</dim>
				</port>
			</output>
		</layer>
		<layer id="42" name="complex_batch_normalization_1/strided_slice_13/stack_1" type="Const" version="opset1">
			<data element_type="i32" shape="5" offset="11044" size="20" />
			<output>
				<port id="0" precision="I32" names="complex_batch_normalization_1/strided_slice_13/stack_1,complex_batch_normalization_1/strided_slice_13/stack_1:0">
					<dim>5</dim>
				</port>
			</output>
		</layer>
		<layer id="43" name="complex_batch_normalization_1/strided_slice_13/stack_2" type="Const" version="opset1">
			<data element_type="i32" shape="5" offset="11064" size="20" />
			<output>
				<port id="0" precision="I32" names="complex_batch_normalization_1/strided_slice_13/stack_2,complex_batch_normalization_1/strided_slice_13/stack_2:0">
					<dim>5</dim>
				</port>
			</output>
		</layer>
		<layer id="44" name="complex_batch_normalization_1/strided_slice_13" type="StridedSlice" version="opset1">
			<data begin_mask="1, 1, 1, 1, 0" end_mask="1, 1, 1, 1, 1" new_axis_mask="0, 0, 0, 0, 0" shrink_axis_mask="0, 0, 0, 0, 0" ellipsis_mask="0, 0, 0, 0, 0" />
			<input>
				<port id="0" precision="FP32">
					<dim>1</dim>
					<dim>129</dim>
					<dim>18</dim>
					<dim>12</dim>
					<dim>36</dim>
				</port>
				<port id="1" precision="I32">
					<dim>5</dim>
				</port>
				<port id="2" precision="I32">
					<dim>5</dim>
				</port>
				<port id="3" precision="I32">
					<dim>5</dim>
				</port>
			</input>
			<output>
				<port id="4" precision="FP32" names="complex_batch_normalization_1/strided_slice_13,complex_batch_normalization_1/strided_slice_13:0">
					<dim>1</dim>
					<dim>129</dim>
					<dim>18</dim>
					<dim>12</dim>
					<dim>18</dim>
				</port>
			</output>
		</layer>
		<layer id="45" name="Constant_40472" type="Const" version="opset1">
			<data element_type="i64" shape="5" offset="2880" size="40" />
			<output>
				<port id="0" precision="I64">
					<dim>5</dim>
				</port>
			</output>
		</layer>
		<layer id="46" name="Transpose_40473" type="Transpose" version="opset1">
			<input>
				<port id="0" precision="FP32">
					<dim>1</dim>
					<dim>129</dim>
					<dim>18</dim>
					<dim>12</dim>
					<dim>18</dim>
				</port>
				<port id="1" precision="I64">
					<dim>5</dim>
				</port>
			</input>
			<output>
				<port id="2" precision="FP32">
					<dim>1</dim>
					<dim>18</dim>
					<dim>129</dim>
					<dim>18</dim>
					<dim>12</dim>
				</port>
			</output>
		</layer>
		<layer id="47" name="complex_batch_normalization_1/strided_slice_12/stack" type="Const" version="opset1">
			<data element_type="i32" shape="5" offset="11044" size="20" />
			<output>
				<port id="0" precision="I32" names="complex_batch_normalization_1/strided_slice_12/stack,complex_batch_normalization_1/strided_slice_12/stack:0">
					<dim>5</dim>
				</port>
			</output>
		</layer>
		<layer id="48" name="complex_batch_normalization_1/strided_slice_12/stack_1" type="Const" version="opset1">
			<data element_type="i32" shape="5" offset="11024" size="20" />
			<output>
				<port id="0" precision="I32" names="complex_batch_normalization_1/strided_slice_12/stack_1,complex_batch_normalization_1/strided_slice_12/stack_1:0">
					<dim>5</dim>
				</port>
			</output>
		</layer>
		<layer id="49" name="complex_batch_normalization_1/strided_slice_12/stack_2" type="Const" version="opset1">
			<data element_type="i32" shape="5" offset="11064" size="20" />
			<output>
				<port id="0" precision="I32" names="complex_batch_normalization_1/strided_slice_12/stack_2,complex_batch_normalization_1/strided_slice_12/stack_2:0">
					<dim>5</dim>
				</port>
			</output>
		</layer>
		<layer id="50" name="complex_batch_normalization_1/strided_slice_12" type="StridedSlice" version="opset1">
			<data begin_mask="1, 1, 1, 1, 1" end_mask="1, 1, 1, 1, 0" new_axis_mask="0, 0, 0, 0, 0" shrink_axis_mask="0, 0, 0, 0, 0" ellipsis_mask="0, 0, 0, 0, 0" />
			<input>
				<port id="0" precision="FP32">
					<dim>1</dim>
					<dim>129</dim>
					<dim>18</dim>
					<dim>12</dim>
					<dim>36</dim>
				</port>
				<port id="1" precision="I32">
					<dim>5</dim>
				</port>
				<port id="2" precision="I32">
					<dim>5</dim>
				</port>
				<port id="3" precision="I32">
					<dim>5</dim>
				</port>
			</input>
			<output>
				<port id="4" precision="FP32" names="complex_batch_normalization_1/strided_slice_12,complex_batch_normalization_1/strided_slice_12:0">
					<dim>1</dim>
					<dim>129</dim>
					<dim>18</dim>
					<dim>12</dim>
					<dim>18</dim>
				</port>
			</output>
		</layer>
		<layer id="51" name="Constant_40474" type="Const" version="opset1">
			<data element_type="i64" shape="5" offset="2880" size="40" />
			<output>
				<port id="0" precision="I64">
					<dim>5</dim>
				</port>
			</output>
		</layer>
		<layer id="52" name="Transpose_40475" type="Transpose" version="opset1">
			<input>
				<port id="0" precision="FP32">
					<dim>1</dim>
					<dim>129</dim>
					<dim>18</dim>
					<dim>12</dim>
					<dim>18</dim>
				</port>
				<port id="1" precision="I64">
					<dim>5</dim>
				</port>
			</input>
			<output>
				<port id="2" precision="FP32">
					<dim>1</dim>
					<dim>18</dim>
					<dim>129</dim>
					<dim>18</dim>
					<dim>12</dim>
				</port>
			</output>
		</layer>
		<layer id="53" name="Transpose_40471" type="Concat" version="opset1">
			<data axis="1" />
			<input>
				<port id="0" precision="FP32">
					<dim>1</dim>
					<dim>18</dim>
					<dim>129</dim>
					<dim>18</dim>
					<dim>12</dim>
				</port>
				<port id="1" precision="FP32">
					<dim>1</dim>
					<dim>18</dim>
					<dim>129</dim>
					<dim>18</dim>
					<dim>12</dim>
				</port>
			</input>
			<output>
				<port id="2" precision="FP32" names="complex_batch_normalization_1/concat_8,complex_batch_normalization_1/concat_8:0">
					<dim>1</dim>
					<dim>36</dim>
					<dim>129</dim>
					<dim>18</dim>
					<dim>12</dim>
				</port>
			</output>
		</layer>
		<layer id="54" name="Transpose_30652" type="Multiply" version="opset1">
			<data auto_broadcast="numpy" />
			<input>
				<port id="0" precision="FP32">
					<dim>1</dim>
					<dim>36</dim>
					<dim>1</dim>
					<dim>1</dim>
					<dim>1</dim>
				</port>
				<port id="1" precision="FP32">
					<dim>1</dim>
					<dim>36</dim>
					<dim>129</dim>
					<dim>18</dim>
					<dim>12</dim>
				</port>
			</input>
			<output>
				<port id="2" precision="FP32" names="complex_batch_normalization_1/mul_24,complex_batch_normalization_1/mul_24:0">
					<dim>1</dim>
					<dim>36</dim>
					<dim>129</dim>
					<dim>18</dim>
					<dim>12</dim>
				</port>
			</output>
		</layer>
		<layer id="55" name="Transpose_30654" type="Add" version="opset1">
			<data auto_broadcast="numpy" />
			<input>
				<port id="0" precision="FP32">
					<dim>1</dim>
					<dim>36</dim>
					<dim>129</dim>
					<dim>18</dim>
					<dim>12</dim>
				</port>
				<port id="1" precision="FP32">
					<dim>1</dim>
					<dim>36</dim>
					<dim>129</dim>
					<dim>18</dim>
					<dim>12</dim>
				</port>
			</input>
			<output>
				<port id="2" precision="FP32">
					<dim>1</dim>
					<dim>36</dim>
					<dim>129</dim>
					<dim>18</dim>
					<dim>12</dim>
				</port>
			</output>
		</layer>
		<layer id="56" name="Transpose_30658" type="Multiply" version="opset1">
			<data auto_broadcast="numpy" />
			<input>
				<port id="0" precision="FP32">
					<dim>1</dim>
					<dim>36</dim>
					<dim>1</dim>
					<dim>1</dim>
					<dim>1</dim>
				</port>
				<port id="1" precision="FP32">
					<dim>1</dim>
					<dim>36</dim>
					<dim>129</dim>
					<dim>18</dim>
					<dim>12</dim>
				</port>
			</input>
			<output>
				<port id="2" precision="FP32">
					<dim>1</dim>
					<dim>36</dim>
					<dim>129</dim>
					<dim>18</dim>
					<dim>12</dim>
				</port>
			</output>
		</layer>
		<layer id="57" name="Transpose_40477" type="Const" version="opset1">
			<data element_type="f32" shape="1, 36, 1, 1, 1" offset="11084" size="144" />
			<output>
				<port id="0" precision="FP32">
					<dim>1</dim>
					<dim>36</dim>
					<dim>1</dim>
					<dim>1</dim>
					<dim>1</dim>
				</port>
			</output>
		</layer>
		<layer id="58" name="Constant_30653" type="Const" version="opset1">
			<data element_type="i64" shape="5" offset="10984" size="40" />
			<output>
				<port id="0" precision="I64">
					<dim>5</dim>
				</port>
			</output>
		</layer>
		<layer id="59" name="complex_batch_normalization_1/add_13" type="Transpose" version="opset1">
			<input>
				<port id="0" precision="FP32">
					<dim>1</dim>
					<dim>36</dim>
					<dim>129</dim>
					<dim>18</dim>
					<dim>12</dim>
				</port>
				<port id="1" precision="I64">
					<dim>5</dim>
				</port>
			</input>
			<output>
				<port id="2" precision="FP32" names="complex_batch_normalization_1/add_13,complex_batch_normalization_1/add_13:0">
					<dim>1</dim>
					<dim>129</dim>
					<dim>18</dim>
					<dim>12</dim>
					<dim>36</dim>
				</port>
			</output>
		</layer>
		<layer id="60" name="complex_batch_normalization_1/strided_slice_15/stack" type="Const" version="opset1">
			<data element_type="i32" shape="5" offset="11024" size="20" />
			<output>
				<port id="0" precision="I32" names="complex_batch_normalization_1/strided_slice_15/stack,complex_batch_normalization_1/strided_slice_15/stack:0">
					<dim>5</dim>
				</port>
			</output>
		</layer>
		<layer id="61" name="complex_batch_normalization_1/strided_slice_15/stack_1" type="Const" version="opset1">
			<data element_type="i32" shape="5" offset="11044" size="20" />
			<output>
				<port id="0" precision="I32" names="complex_batch_normalization_1/strided_slice_15/stack_1,complex_batch_normalization_1/strided_slice_15/stack_1:0">
					<dim>5</dim>
				</port>
			</output>
		</layer>
		<layer id="62" name="complex_batch_normalization_1/strided_slice_15/stack_2" type="Const" version="opset1">
			<data element_type="i32" shape="5" offset="11064" size="20" />
			<output>
				<port id="0" precision="I32" names="complex_batch_normalization_1/strided_slice_15/stack_2,complex_batch_normalization_1/strided_slice_15/stack_2:0">
					<dim>5</dim>
				</port>
			</output>
		</layer>
		<layer id="63" name="complex_batch_normalization_1/strided_slice_15" type="StridedSlice" version="opset1">
			<data begin_mask="1, 1, 1, 1, 0" end_mask="1, 1, 1, 1, 1" new_axis_mask="0, 0, 0, 0, 0" shrink_axis_mask="0, 0, 0, 0, 0" ellipsis_mask="0, 0, 0, 0, 0" />
			<input>
				<port id="0" precision="FP32">
					<dim>1</dim>
					<dim>129</dim>
					<dim>18</dim>
					<dim>12</dim>
					<dim>36</dim>
				</port>
				<port id="1" precision="I32">
					<dim>5</dim>
				</port>
				<port id="2" precision="I32">
					<dim>5</dim>
				</port>
				<port id="3" precision="I32">
					<dim>5</dim>
				</port>
			</input>
			<output>
				<port id="4" precision="FP32" names="complex_batch_normalization_1/strided_slice_15,complex_batch_normalization_1/strided_slice_15:0">
					<dim>1</dim>
					<dim>129</dim>
					<dim>18</dim>
					<dim>12</dim>
					<dim>18</dim>
				</port>
			</output>
		</layer>
		<layer id="64" name="Constant_40480" type="Const" version="opset1">
			<data element_type="i64" shape="5" offset="2880" size="40" />
			<output>
				<port id="0" precision="I64">
					<dim>5</dim>
				</port>
			</output>
		</layer>
		<layer id="65" name="Transpose_40481" type="Transpose" version="opset1">
			<input>
				<port id="0" precision="FP32">
					<dim>1</dim>
					<dim>129</dim>
					<dim>18</dim>
					<dim>12</dim>
					<dim>18</dim>
				</port>
				<port id="1" precision="I64">
					<dim>5</dim>
				</port>
			</input>
			<output>
				<port id="2" precision="FP32">
					<dim>1</dim>
					<dim>18</dim>
					<dim>129</dim>
					<dim>18</dim>
					<dim>12</dim>
				</port>
			</output>
		</layer>
		<layer id="66" name="complex_batch_normalization_1/strided_slice_14/stack" type="Const" version="opset1">
			<data element_type="i32" shape="5" offset="11044" size="20" />
			<output>
				<port id="0" precision="I32" names="complex_batch_normalization_1/strided_slice_14/stack,complex_batch_normalization_1/strided_slice_14/stack:0">
					<dim>5</dim>
				</port>
			</output>
		</layer>
		<layer id="67" name="complex_batch_normalization_1/strided_slice_14/stack_1" type="Const" version="opset1">
			<data element_type="i32" shape="5" offset="11024" size="20" />
			<output>
				<port id="0" precision="I32" names="complex_batch_normalization_1/strided_slice_14/stack_1,complex_batch_normalization_1/strided_slice_14/stack_1:0">
					<dim>5</dim>
				</port>
			</output>
		</layer>
		<layer id="68" name="complex_batch_normalization_1/strided_slice_14/stack_2" type="Const" version="opset1">
			<data element_type="i32" shape="5" offset="11064" size="20" />
			<output>
				<port id="0" precision="I32" names="complex_batch_normalization_1/strided_slice_14/stack_2,complex_batch_normalization_1/strided_slice_14/stack_2:0">
					<dim>5</dim>
				</port>
			</output>
		</layer>
		<layer id="69" name="complex_batch_normalization_1/strided_slice_14" type="StridedSlice" version="opset1">
			<data begin_mask="1, 1, 1, 1, 1" end_mask="1, 1, 1, 1, 0" new_axis_mask="0, 0, 0, 0, 0" shrink_axis_mask="0, 0, 0, 0, 0" ellipsis_mask="0, 0, 0, 0, 0" />
			<input>
				<port id="0" precision="FP32">
					<dim>1</dim>
					<dim>129</dim>
					<dim>18</dim>
					<dim>12</dim>
					<dim>36</dim>
				</port>
				<port id="1" precision="I32">
					<dim>5</dim>
				</port>
				<port id="2" precision="I32">
					<dim>5</dim>
				</port>
				<port id="3" precision="I32">
					<dim>5</dim>
				</port>
			</input>
			<output>
				<port id="4" precision="FP32" names="complex_batch_normalization_1/strided_slice_14,complex_batch_normalization_1/strided_slice_14:0">
					<dim>1</dim>
					<dim>129</dim>
					<dim>18</dim>
					<dim>12</dim>
					<dim>18</dim>
				</port>
			</output>
		</layer>
		<layer id="70" name="Constant_40482" type="Const" version="opset1">
			<data element_type="i64" shape="5" offset="2880" size="40" />
			<output>
				<port id="0" precision="I64">
					<dim>5</dim>
				</port>
			</output>
		</layer>
		<layer id="71" name="Transpose_40483" type="Transpose" version="opset1">
			<input>
				<port id="0" precision="FP32">
					<dim>1</dim>
					<dim>129</dim>
					<dim>18</dim>
					<dim>12</dim>
					<dim>18</dim>
				</port>
				<port id="1" precision="I64">
					<dim>5</dim>
				</port>
			</input>
			<output>
				<port id="2" precision="FP32">
					<dim>1</dim>
					<dim>18</dim>
					<dim>129</dim>
					<dim>18</dim>
					<dim>12</dim>
				</port>
			</output>
		</layer>
		<layer id="72" name="Transpose_40479" type="Concat" version="opset1">
			<data axis="1" />
			<input>
				<port id="0" precision="FP32">
					<dim>1</dim>
					<dim>18</dim>
					<dim>129</dim>
					<dim>18</dim>
					<dim>12</dim>
				</port>
				<port id="1" precision="FP32">
					<dim>1</dim>
					<dim>18</dim>
					<dim>129</dim>
					<dim>18</dim>
					<dim>12</dim>
				</port>
			</input>
			<output>
				<port id="2" precision="FP32" names="complex_batch_normalization_1/concat_11,complex_batch_normalization_1/concat_11:0">
					<dim>1</dim>
					<dim>36</dim>
					<dim>129</dim>
					<dim>18</dim>
					<dim>12</dim>
				</port>
			</output>
		</layer>
		<layer id="73" name="Transpose_30660" type="Multiply" version="opset1">
			<data auto_broadcast="numpy" />
			<input>
				<port id="0" precision="FP32">
					<dim>1</dim>
					<dim>36</dim>
					<dim>1</dim>
					<dim>1</dim>
					<dim>1</dim>
				</port>
				<port id="1" precision="FP32">
					<dim>1</dim>
					<dim>36</dim>
					<dim>129</dim>
					<dim>18</dim>
					<dim>12</dim>
				</port>
			</input>
			<output>
				<port id="2" precision="FP32" names="complex_batch_normalization_1/mul_26,complex_batch_normalization_1/mul_26:0">
					<dim>1</dim>
					<dim>36</dim>
					<dim>129</dim>
					<dim>18</dim>
					<dim>12</dim>
				</port>
			</output>
		</layer>
		<layer id="74" name="Transpose_30662" type="Add" version="opset1">
			<data auto_broadcast="numpy" />
			<input>
				<port id="0" precision="FP32">
					<dim>1</dim>
					<dim>36</dim>
					<dim>129</dim>
					<dim>18</dim>
					<dim>12</dim>
				</port>
				<port id="1" precision="FP32">
					<dim>1</dim>
					<dim>36</dim>
					<dim>129</dim>
					<dim>18</dim>
					<dim>12</dim>
				</port>
			</input>
			<output>
				<port id="2" precision="FP32">
					<dim>1</dim>
					<dim>36</dim>
					<dim>129</dim>
					<dim>18</dim>
					<dim>12</dim>
				</port>
			</output>
		</layer>
		<layer id="75" name="Transpose_30664" type="Const" version="opset1">
			<data element_type="f32" shape="1, 36, 1, 1, 1" offset="11228" size="144" />
			<output>
				<port id="0" precision="FP32">
					<dim>1</dim>
					<dim>36</dim>
					<dim>1</dim>
					<dim>1</dim>
					<dim>1</dim>
				</port>
			</output>
		</layer>
		<layer id="76" name="Transpose_30666" type="Add" version="opset1">
			<data auto_broadcast="numpy" />
			<input>
				<port id="0" precision="FP32">
					<dim>1</dim>
					<dim>36</dim>
					<dim>129</dim>
					<dim>18</dim>
					<dim>12</dim>
				</port>
				<port id="1" precision="FP32">
					<dim>1</dim>
					<dim>36</dim>
					<dim>1</dim>
					<dim>1</dim>
					<dim>1</dim>
				</port>
			</input>
			<output>
				<port id="2" precision="FP32">
					<dim>1</dim>
					<dim>36</dim>
					<dim>129</dim>
					<dim>18</dim>
					<dim>12</dim>
				</port>
			</output>
		</layer>
		<layer id="77" name="Relu_30667" type="ReLU" version="opset1">
			<input>
				<port id="0" precision="FP32">
					<dim>1</dim>
					<dim>36</dim>
					<dim>129</dim>
					<dim>18</dim>
					<dim>12</dim>
				</port>
			</input>
			<output>
				<port id="1" precision="FP32">
					<dim>1</dim>
					<dim>36</dim>
					<dim>129</dim>
					<dim>18</dim>
					<dim>12</dim>
				</port>
			</output>
		</layer>
		<layer id="78" name="Transpose_1149" type="Const" version="opset1">
			<data element_type="f32" shape="20, 36, 5, 3, 1" offset="11372" size="43200" />
			<output>
				<port id="0" precision="FP32">
					<dim>20</dim>
					<dim>36</dim>
					<dim>5</dim>
					<dim>3</dim>
					<dim>1</dim>
				</port>
			</output>
		</layer>
		<layer id="79" name="Convolution_1150" type="Convolution" version="opset1">
			<data strides="1, 1, 1" dilations="1, 1, 1" pads_begin="0, 0, 0" pads_end="0, 0, 0" auto_pad="same_upper" />
			<input>
				<port id="0" precision="FP32">
					<dim>1</dim>
					<dim>36</dim>
					<dim>129</dim>
					<dim>18</dim>
					<dim>12</dim>
				</port>
				<port id="1" precision="FP32">
					<dim>20</dim>
					<dim>36</dim>
					<dim>5</dim>
					<dim>3</dim>
					<dim>1</dim>
				</port>
			</input>
			<output>
				<port id="2" precision="FP32">
					<dim>1</dim>
					<dim>20</dim>
					<dim>129</dim>
					<dim>18</dim>
					<dim>12</dim>
				</port>
			</output>
		</layer>
		<layer id="80" name="Constant_42364" type="Const" version="opset1">
			<data element_type="f32" shape="1, 20, 1, 1, 1" offset="54572" size="80" />
			<output>
				<port id="0" precision="FP32">
					<dim>1</dim>
					<dim>20</dim>
					<dim>1</dim>
					<dim>1</dim>
					<dim>1</dim>
				</port>
			</output>
		</layer>
		<layer id="81" name="Transpose_30676" type="Add" version="opset1">
			<data auto_broadcast="numpy" />
			<input>
				<port id="0" precision="FP32">
					<dim>1</dim>
					<dim>20</dim>
					<dim>129</dim>
					<dim>18</dim>
					<dim>12</dim>
				</port>
				<port id="1" precision="FP32">
					<dim>1</dim>
					<dim>20</dim>
					<dim>1</dim>
					<dim>1</dim>
					<dim>1</dim>
				</port>
			</input>
			<output>
				<port id="2" precision="FP32">
					<dim>1</dim>
					<dim>20</dim>
					<dim>129</dim>
					<dim>18</dim>
					<dim>12</dim>
				</port>
			</output>
		</layer>
		<layer id="82" name="Transpose_30680" type="Multiply" version="opset1">
			<data auto_broadcast="numpy" />
			<input>
				<port id="0" precision="FP32">
					<dim>1</dim>
					<dim>20</dim>
					<dim>1</dim>
					<dim>1</dim>
					<dim>1</dim>
				</port>
				<port id="1" precision="FP32">
					<dim>1</dim>
					<dim>20</dim>
					<dim>129</dim>
					<dim>18</dim>
					<dim>12</dim>
				</port>
			</input>
			<output>
				<port id="2" precision="FP32">
					<dim>1</dim>
					<dim>20</dim>
					<dim>129</dim>
					<dim>18</dim>
					<dim>12</dim>
				</port>
			</output>
		</layer>
		<layer id="83" name="Transpose_40485" type="Const" version="opset1">
			<data element_type="f32" shape="1, 20, 1, 1, 1" offset="54652" size="80" />
			<output>
				<port id="0" precision="FP32">
					<dim>1</dim>
					<dim>20</dim>
					<dim>1</dim>
					<dim>1</dim>
					<dim>1</dim>
				</port>
			</output>
		</layer>
		<layer id="84" name="Constant_30675" type="Const" version="opset1">
			<data element_type="i64" shape="5" offset="10984" size="40" />
			<output>
				<port id="0" precision="I64">
					<dim>5</dim>
				</port>
			</output>
		</layer>
		<layer id="85" name="complex_batch_normalization_2/sub_2" type="Transpose" version="opset1">
			<input>
				<port id="0" precision="FP32">
					<dim>1</dim>
					<dim>20</dim>
					<dim>129</dim>
					<dim>18</dim>
					<dim>12</dim>
				</port>
				<port id="1" precision="I64">
					<dim>5</dim>
				</port>
			</input>
			<output>
				<port id="2" precision="FP32" names="complex_batch_normalization_2/sub_2,complex_batch_normalization_2/sub_2:0">
					<dim>1</dim>
					<dim>129</dim>
					<dim>18</dim>
					<dim>12</dim>
					<dim>20</dim>
				</port>
			</output>
		</layer>
		<layer id="86" name="complex_batch_normalization_2/strided_slice_13/stack" type="Const" version="opset1">
			<data element_type="i32" shape="5" offset="54732" size="20" />
			<output>
				<port id="0" precision="I32" names="complex_batch_normalization_2/strided_slice_13/stack,complex_batch_normalization_2/strided_slice_13/stack:0">
					<dim>5</dim>
				</port>
			</output>
		</layer>
		<layer id="87" name="complex_batch_normalization_2/strided_slice_13/stack_1" type="Const" version="opset1">
			<data element_type="i32" shape="5" offset="11044" size="20" />
			<output>
				<port id="0" precision="I32" names="complex_batch_normalization_2/strided_slice_13/stack_1,complex_batch_normalization_2/strided_slice_13/stack_1:0">
					<dim>5</dim>
				</port>
			</output>
		</layer>
		<layer id="88" name="complex_batch_normalization_2/strided_slice_13/stack_2" type="Const" version="opset1">
			<data element_type="i32" shape="5" offset="11064" size="20" />
			<output>
				<port id="0" precision="I32" names="complex_batch_normalization_2/strided_slice_13/stack_2,complex_batch_normalization_2/strided_slice_13/stack_2:0">
					<dim>5</dim>
				</port>
			</output>
		</layer>
		<layer id="89" name="complex_batch_normalization_2/strided_slice_13" type="StridedSlice" version="opset1">
			<data begin_mask="1, 1, 1, 1, 0" end_mask="1, 1, 1, 1, 1" new_axis_mask="0, 0, 0, 0, 0" shrink_axis_mask="0, 0, 0, 0, 0" ellipsis_mask="0, 0, 0, 0, 0" />
			<input>
				<port id="0" precision="FP32">
					<dim>1</dim>
					<dim>129</dim>
					<dim>18</dim>
					<dim>12</dim>
					<dim>20</dim>
				</port>
				<port id="1" precision="I32">
					<dim>5</dim>
				</port>
				<port id="2" precision="I32">
					<dim>5</dim>
				</port>
				<port id="3" precision="I32">
					<dim>5</dim>
				</port>
			</input>
			<output>
				<port id="4" precision="FP32" names="complex_batch_normalization_2/strided_slice_13,complex_batch_normalization_2/strided_slice_13:0">
					<dim>1</dim>
					<dim>129</dim>
					<dim>18</dim>
					<dim>12</dim>
					<dim>10</dim>
				</port>
			</output>
		</layer>
		<layer id="90" name="Constant_40488" type="Const" version="opset1">
			<data element_type="i64" shape="5" offset="2880" size="40" />
			<output>
				<port id="0" precision="I64">
					<dim>5</dim>
				</port>
			</output>
		</layer>
		<layer id="91" name="Transpose_40489" type="Transpose" version="opset1">
			<input>
				<port id="0" precision="FP32">
					<dim>1</dim>
					<dim>129</dim>
					<dim>18</dim>
					<dim>12</dim>
					<dim>10</dim>
				</port>
				<port id="1" precision="I64">
					<dim>5</dim>
				</port>
			</input>
			<output>
				<port id="2" precision="FP32">
					<dim>1</dim>
					<dim>10</dim>
					<dim>129</dim>
					<dim>18</dim>
					<dim>12</dim>
				</port>
			</output>
		</layer>
		<layer id="92" name="complex_batch_normalization_2/strided_slice_12/stack" type="Const" version="opset1">
			<data element_type="i32" shape="5" offset="11044" size="20" />
			<output>
				<port id="0" precision="I32" names="complex_batch_normalization_2/strided_slice_12/stack,complex_batch_normalization_2/strided_slice_12/stack:0">
					<dim>5</dim>
				</port>
			</output>
		</layer>
		<layer id="93" name="complex_batch_normalization_2/strided_slice_12/stack_1" type="Const" version="opset1">
			<data element_type="i32" shape="5" offset="54732" size="20" />
			<output>
				<port id="0" precision="I32" names="complex_batch_normalization_2/strided_slice_12/stack_1,complex_batch_normalization_2/strided_slice_12/stack_1:0">
					<dim>5</dim>
				</port>
			</output>
		</layer>
		<layer id="94" name="complex_batch_normalization_2/strided_slice_12/stack_2" type="Const" version="opset1">
			<data element_type="i32" shape="5" offset="11064" size="20" />
			<output>
				<port id="0" precision="I32" names="complex_batch_normalization_2/strided_slice_12/stack_2,complex_batch_normalization_2/strided_slice_12/stack_2:0">
					<dim>5</dim>
				</port>
			</output>
		</layer>
		<layer id="95" name="complex_batch_normalization_2/strided_slice_12" type="StridedSlice" version="opset1">
			<data begin_mask="1, 1, 1, 1, 1" end_mask="1, 1, 1, 1, 0" new_axis_mask="0, 0, 0, 0, 0" shrink_axis_mask="0, 0, 0, 0, 0" ellipsis_mask="0, 0, 0, 0, 0" />
			<input>
				<port id="0" precision="FP32">
					<dim>1</dim>
					<dim>129</dim>
					<dim>18</dim>
					<dim>12</dim>
					<dim>20</dim>
				</port>
				<port id="1" precision="I32">
					<dim>5</dim>
				</port>
				<port id="2" precision="I32">
					<dim>5</dim>
				</port>
				<port id="3" precision="I32">
					<dim>5</dim>
				</port>
			</input>
			<output>
				<port id="4" precision="FP32" names="complex_batch_normalization_2/strided_slice_12,complex_batch_normalization_2/strided_slice_12:0">
					<dim>1</dim>
					<dim>129</dim>
					<dim>18</dim>
					<dim>12</dim>
					<dim>10</dim>
				</port>
			</output>
		</layer>
		<layer id="96" name="Constant_40490" type="Const" version="opset1">
			<data element_type="i64" shape="5" offset="2880" size="40" />
			<output>
				<port id="0" precision="I64">
					<dim>5</dim>
				</port>
			</output>
		</layer>
		<layer id="97" name="Transpose_40491" type="Transpose" version="opset1">
			<input>
				<port id="0" precision="FP32">
					<dim>1</dim>
					<dim>129</dim>
					<dim>18</dim>
					<dim>12</dim>
					<dim>10</dim>
				</port>
				<port id="1" precision="I64">
					<dim>5</dim>
				</port>
			</input>
			<output>
				<port id="2" precision="FP32">
					<dim>1</dim>
					<dim>10</dim>
					<dim>129</dim>
					<dim>18</dim>
					<dim>12</dim>
				</port>
			</output>
		</layer>
		<layer id="98" name="Transpose_40487" type="Concat" version="opset1">
			<data axis="1" />
			<input>
				<port id="0" precision="FP32">
					<dim>1</dim>
					<dim>10</dim>
					<dim>129</dim>
					<dim>18</dim>
					<dim>12</dim>
				</port>
				<port id="1" precision="FP32">
					<dim>1</dim>
					<dim>10</dim>
					<dim>129</dim>
					<dim>18</dim>
					<dim>12</dim>
				</port>
			</input>
			<output>
				<port id="2" precision="FP32" names="complex_batch_normalization_2/concat_8,complex_batch_normalization_2/concat_8:0">
					<dim>1</dim>
					<dim>20</dim>
					<dim>129</dim>
					<dim>18</dim>
					<dim>12</dim>
				</port>
			</output>
		</layer>
		<layer id="99" name="Transpose_30682" type="Multiply" version="opset1">
			<data auto_broadcast="numpy" />
			<input>
				<port id="0" precision="FP32">
					<dim>1</dim>
					<dim>20</dim>
					<dim>1</dim>
					<dim>1</dim>
					<dim>1</dim>
				</port>
				<port id="1" precision="FP32">
					<dim>1</dim>
					<dim>20</dim>
					<dim>129</dim>
					<dim>18</dim>
					<dim>12</dim>
				</port>
			</input>
			<output>
				<port id="2" precision="FP32" names="complex_batch_normalization_2/mul_24,complex_batch_normalization_2/mul_24:0">
					<dim>1</dim>
					<dim>20</dim>
					<dim>129</dim>
					<dim>18</dim>
					<dim>12</dim>
				</port>
			</output>
		</layer>
		<layer id="100" name="Transpose_30684" type="Add" version="opset1">
			<data auto_broadcast="numpy" />
			<input>
				<port id="0" precision="FP32">
					<dim>1</dim>
					<dim>20</dim>
					<dim>129</dim>
					<dim>18</dim>
					<dim>12</dim>
				</port>
				<port id="1" precision="FP32">
					<dim>1</dim>
					<dim>20</dim>
					<dim>129</dim>
					<dim>18</dim>
					<dim>12</dim>
				</port>
			</input>
			<output>
				<port id="2" precision="FP32">
					<dim>1</dim>
					<dim>20</dim>
					<dim>129</dim>
					<dim>18</dim>
					<dim>12</dim>
				</port>
			</output>
		</layer>
		<layer id="101" name="Transpose_30688" type="Multiply" version="opset1">
			<data auto_broadcast="numpy" />
			<input>
				<port id="0" precision="FP32">
					<dim>1</dim>
					<dim>20</dim>
					<dim>1</dim>
					<dim>1</dim>
					<dim>1</dim>
				</port>
				<port id="1" precision="FP32">
					<dim>1</dim>
					<dim>20</dim>
					<dim>129</dim>
					<dim>18</dim>
					<dim>12</dim>
				</port>
			</input>
			<output>
				<port id="2" precision="FP32">
					<dim>1</dim>
					<dim>20</dim>
					<dim>129</dim>
					<dim>18</dim>
					<dim>12</dim>
				</port>
			</output>
		</layer>
		<layer id="102" name="Transpose_40493" type="Const" version="opset1">
			<data element_type="f32" shape="1, 20, 1, 1, 1" offset="54752" size="80" />
			<output>
				<port id="0" precision="FP32">
					<dim>1</dim>
					<dim>20</dim>
					<dim>1</dim>
					<dim>1</dim>
					<dim>1</dim>
				</port>
			</output>
		</layer>
		<layer id="103" name="Constant_30683" type="Const" version="opset1">
			<data element_type="i64" shape="5" offset="10984" size="40" />
			<output>
				<port id="0" precision="I64">
					<dim>5</dim>
				</port>
			</output>
		</layer>
		<layer id="104" name="complex_batch_normalization_2/add_13" type="Transpose" version="opset1">
			<input>
				<port id="0" precision="FP32">
					<dim>1</dim>
					<dim>20</dim>
					<dim>129</dim>
					<dim>18</dim>
					<dim>12</dim>
				</port>
				<port id="1" precision="I64">
					<dim>5</dim>
				</port>
			</input>
			<output>
				<port id="2" precision="FP32" names="complex_batch_normalization_2/add_13,complex_batch_normalization_2/add_13:0">
					<dim>1</dim>
					<dim>129</dim>
					<dim>18</dim>
					<dim>12</dim>
					<dim>20</dim>
				</port>
			</output>
		</layer>
		<layer id="105" name="complex_batch_normalization_2/strided_slice_15/stack" type="Const" version="opset1">
			<data element_type="i32" shape="5" offset="54732" size="20" />
			<output>
				<port id="0" precision="I32" names="complex_batch_normalization_2/strided_slice_15/stack,complex_batch_normalization_2/strided_slice_15/stack:0">
					<dim>5</dim>
				</port>
			</output>
		</layer>
		<layer id="106" name="complex_batch_normalization_2/strided_slice_15/stack_1" type="Const" version="opset1">
			<data element_type="i32" shape="5" offset="11044" size="20" />
			<output>
				<port id="0" precision="I32" names="complex_batch_normalization_2/strided_slice_15/stack_1,complex_batch_normalization_2/strided_slice_15/stack_1:0">
					<dim>5</dim>
				</port>
			</output>
		</layer>
		<layer id="107" name="complex_batch_normalization_2/strided_slice_15/stack_2" type="Const" version="opset1">
			<data element_type="i32" shape="5" offset="11064" size="20" />
			<output>
				<port id="0" precision="I32" names="complex_batch_normalization_2/strided_slice_15/stack_2,complex_batch_normalization_2/strided_slice_15/stack_2:0">
					<dim>5</dim>
				</port>
			</output>
		</layer>
		<layer id="108" name="complex_batch_normalization_2/strided_slice_15" type="StridedSlice" version="opset1">
			<data begin_mask="1, 1, 1, 1, 0" end_mask="1, 1, 1, 1, 1" new_axis_mask="0, 0, 0, 0, 0" shrink_axis_mask="0, 0, 0, 0, 0" ellipsis_mask="0, 0, 0, 0, 0" />
			<input>
				<port id="0" precision="FP32">
					<dim>1</dim>
					<dim>129</dim>
					<dim>18</dim>
					<dim>12</dim>
					<dim>20</dim>
				</port>
				<port id="1" precision="I32">
					<dim>5</dim>
				</port>
				<port id="2" precision="I32">
					<dim>5</dim>
				</port>
				<port id="3" precision="I32">
					<dim>5</dim>
				</port>
			</input>
			<output>
				<port id="4" precision="FP32" names="complex_batch_normalization_2/strided_slice_15,complex_batch_normalization_2/strided_slice_15:0">
					<dim>1</dim>
					<dim>129</dim>
					<dim>18</dim>
					<dim>12</dim>
					<dim>10</dim>
				</port>
			</output>
		</layer>
		<layer id="109" name="Constant_40496" type="Const" version="opset1">
			<data element_type="i64" shape="5" offset="2880" size="40" />
			<output>
				<port id="0" precision="I64">
					<dim>5</dim>
				</port>
			</output>
		</layer>
		<layer id="110" name="Transpose_40497" type="Transpose" version="opset1">
			<input>
				<port id="0" precision="FP32">
					<dim>1</dim>
					<dim>129</dim>
					<dim>18</dim>
					<dim>12</dim>
					<dim>10</dim>
				</port>
				<port id="1" precision="I64">
					<dim>5</dim>
				</port>
			</input>
			<output>
				<port id="2" precision="FP32">
					<dim>1</dim>
					<dim>10</dim>
					<dim>129</dim>
					<dim>18</dim>
					<dim>12</dim>
				</port>
			</output>
		</layer>
		<layer id="111" name="complex_batch_normalization_2/strided_slice_14/stack" type="Const" version="opset1">
			<data element_type="i32" shape="5" offset="11044" size="20" />
			<output>
				<port id="0" precision="I32" names="complex_batch_normalization_2/strided_slice_14/stack,complex_batch_normalization_2/strided_slice_14/stack:0">
					<dim>5</dim>
				</port>
			</output>
		</layer>
		<layer id="112" name="complex_batch_normalization_2/strided_slice_14/stack_1" type="Const" version="opset1">
			<data element_type="i32" shape="5" offset="54732" size="20" />
			<output>
				<port id="0" precision="I32" names="complex_batch_normalization_2/strided_slice_14/stack_1,complex_batch_normalization_2/strided_slice_14/stack_1:0">
					<dim>5</dim>
				</port>
			</output>
		</layer>
		<layer id="113" name="complex_batch_normalization_2/strided_slice_14/stack_2" type="Const" version="opset1">
			<data element_type="i32" shape="5" offset="11064" size="20" />
			<output>
				<port id="0" precision="I32" names="complex_batch_normalization_2/strided_slice_14/stack_2,complex_batch_normalization_2/strided_slice_14/stack_2:0">
					<dim>5</dim>
				</port>
			</output>
		</layer>
		<layer id="114" name="complex_batch_normalization_2/strided_slice_14" type="StridedSlice" version="opset1">
			<data begin_mask="1, 1, 1, 1, 1" end_mask="1, 1, 1, 1, 0" new_axis_mask="0, 0, 0, 0, 0" shrink_axis_mask="0, 0, 0, 0, 0" ellipsis_mask="0, 0, 0, 0, 0" />
			<input>
				<port id="0" precision="FP32">
					<dim>1</dim>
					<dim>129</dim>
					<dim>18</dim>
					<dim>12</dim>
					<dim>20</dim>
				</port>
				<port id="1" precision="I32">
					<dim>5</dim>
				</port>
				<port id="2" precision="I32">
					<dim>5</dim>
				</port>
				<port id="3" precision="I32">
					<dim>5</dim>
				</port>
			</input>
			<output>
				<port id="4" precision="FP32" names="complex_batch_normalization_2/strided_slice_14,complex_batch_normalization_2/strided_slice_14:0">
					<dim>1</dim>
					<dim>129</dim>
					<dim>18</dim>
					<dim>12</dim>
					<dim>10</dim>
				</port>
			</output>
		</layer>
		<layer id="115" name="Constant_40498" type="Const" version="opset1">
			<data element_type="i64" shape="5" offset="2880" size="40" />
			<output>
				<port id="0" precision="I64">
					<dim>5</dim>
				</port>
			</output>
		</layer>
		<layer id="116" name="Transpose_40499" type="Transpose" version="opset1">
			<input>
				<port id="0" precision="FP32">
					<dim>1</dim>
					<dim>129</dim>
					<dim>18</dim>
					<dim>12</dim>
					<dim>10</dim>
				</port>
				<port id="1" precision="I64">
					<dim>5</dim>
				</port>
			</input>
			<output>
				<port id="2" precision="FP32">
					<dim>1</dim>
					<dim>10</dim>
					<dim>129</dim>
					<dim>18</dim>
					<dim>12</dim>
				</port>
			</output>
		</layer>
		<layer id="117" name="Transpose_40495" type="Concat" version="opset1">
			<data axis="1" />
			<input>
				<port id="0" precision="FP32">
					<dim>1</dim>
					<dim>10</dim>
					<dim>129</dim>
					<dim>18</dim>
					<dim>12</dim>
				</port>
				<port id="1" precision="FP32">
					<dim>1</dim>
					<dim>10</dim>
					<dim>129</dim>
					<dim>18</dim>
					<dim>12</dim>
				</port>
			</input>
			<output>
				<port id="2" precision="FP32" names="complex_batch_normalization_2/concat_11,complex_batch_normalization_2/concat_11:0">
					<dim>1</dim>
					<dim>20</dim>
					<dim>129</dim>
					<dim>18</dim>
					<dim>12</dim>
				</port>
			</output>
		</layer>
		<layer id="118" name="Transpose_30690" type="Multiply" version="opset1">
			<data auto_broadcast="numpy" />
			<input>
				<port id="0" precision="FP32">
					<dim>1</dim>
					<dim>20</dim>
					<dim>1</dim>
					<dim>1</dim>
					<dim>1</dim>
				</port>
				<port id="1" precision="FP32">
					<dim>1</dim>
					<dim>20</dim>
					<dim>129</dim>
					<dim>18</dim>
					<dim>12</dim>
				</port>
			</input>
			<output>
				<port id="2" precision="FP32" names="complex_batch_normalization_2/mul_26,complex_batch_normalization_2/mul_26:0">
					<dim>1</dim>
					<dim>20</dim>
					<dim>129</dim>
					<dim>18</dim>
					<dim>12</dim>
				</port>
			</output>
		</layer>
		<layer id="119" name="Transpose_30692" type="Add" version="opset1">
			<data auto_broadcast="numpy" />
			<input>
				<port id="0" precision="FP32">
					<dim>1</dim>
					<dim>20</dim>
					<dim>129</dim>
					<dim>18</dim>
					<dim>12</dim>
				</port>
				<port id="1" precision="FP32">
					<dim>1</dim>
					<dim>20</dim>
					<dim>129</dim>
					<dim>18</dim>
					<dim>12</dim>
				</port>
			</input>
			<output>
				<port id="2" precision="FP32">
					<dim>1</dim>
					<dim>20</dim>
					<dim>129</dim>
					<dim>18</dim>
					<dim>12</dim>
				</port>
			</output>
		</layer>
		<layer id="120" name="Transpose_30694" type="Const" version="opset1">
			<data element_type="f32" shape="1, 20, 1, 1, 1" offset="54832" size="80" />
			<output>
				<port id="0" precision="FP32">
					<dim>1</dim>
					<dim>20</dim>
					<dim>1</dim>
					<dim>1</dim>
					<dim>1</dim>
				</port>
			</output>
		</layer>
		<layer id="121" name="Transpose_30696" type="Add" version="opset1">
			<data auto_broadcast="numpy" />
			<input>
				<port id="0" precision="FP32">
					<dim>1</dim>
					<dim>20</dim>
					<dim>129</dim>
					<dim>18</dim>
					<dim>12</dim>
				</port>
				<port id="1" precision="FP32">
					<dim>1</dim>
					<dim>20</dim>
					<dim>1</dim>
					<dim>1</dim>
					<dim>1</dim>
				</port>
			</input>
			<output>
				<port id="2" precision="FP32">
					<dim>1</dim>
					<dim>20</dim>
					<dim>129</dim>
					<dim>18</dim>
					<dim>12</dim>
				</port>
			</output>
		</layer>
		<layer id="122" name="Relu_30697" type="ReLU" version="opset1">
			<input>
				<port id="0" precision="FP32">
					<dim>1</dim>
					<dim>20</dim>
					<dim>129</dim>
					<dim>18</dim>
					<dim>12</dim>
				</port>
			</input>
			<output>
				<port id="1" precision="FP32">
					<dim>1</dim>
					<dim>20</dim>
					<dim>129</dim>
					<dim>18</dim>
					<dim>12</dim>
				</port>
			</output>
		</layer>
		<layer id="123" name="Transpose_1807" type="Const" version="opset1">
			<data element_type="f32" shape="16, 20, 9, 3, 1" offset="54912" size="34560" />
			<output>
				<port id="0" precision="FP32">
					<dim>16</dim>
					<dim>20</dim>
					<dim>9</dim>
					<dim>3</dim>
					<dim>1</dim>
				</port>
			</output>
		</layer>
		<layer id="124" name="Convolution_1808" type="Convolution" version="opset1">
			<data strides="1, 1, 1" dilations="1, 1, 1" pads_begin="0, 0, 0" pads_end="0, 0, 0" auto_pad="same_upper" />
			<input>
				<port id="0" precision="FP32">
					<dim>1</dim>
					<dim>20</dim>
					<dim>129</dim>
					<dim>18</dim>
					<dim>12</dim>
				</port>
				<port id="1" precision="FP32">
					<dim>16</dim>
					<dim>20</dim>
					<dim>9</dim>
					<dim>3</dim>
					<dim>1</dim>
				</port>
			</input>
			<output>
				<port id="2" precision="FP32">
					<dim>1</dim>
					<dim>16</dim>
					<dim>129</dim>
					<dim>18</dim>
					<dim>12</dim>
				</port>
			</output>
		</layer>
		<layer id="125" name="Constant_42367" type="Const" version="opset1">
			<data element_type="f32" shape="1, 16, 1, 1, 1" offset="89472" size="64" />
			<output>
				<port id="0" precision="FP32">
					<dim>1</dim>
					<dim>16</dim>
					<dim>1</dim>
					<dim>1</dim>
					<dim>1</dim>
				</port>
			</output>
		</layer>
		<layer id="126" name="Transpose_30706" type="Add" version="opset1">
			<data auto_broadcast="numpy" />
			<input>
				<port id="0" precision="FP32">
					<dim>1</dim>
					<dim>16</dim>
					<dim>129</dim>
					<dim>18</dim>
					<dim>12</dim>
				</port>
				<port id="1" precision="FP32">
					<dim>1</dim>
					<dim>16</dim>
					<dim>1</dim>
					<dim>1</dim>
					<dim>1</dim>
				</port>
			</input>
			<output>
				<port id="2" precision="FP32">
					<dim>1</dim>
					<dim>16</dim>
					<dim>129</dim>
					<dim>18</dim>
					<dim>12</dim>
				</port>
			</output>
		</layer>
		<layer id="127" name="Transpose_30710" type="Multiply" version="opset1">
			<data auto_broadcast="numpy" />
			<input>
				<port id="0" precision="FP32">
					<dim>1</dim>
					<dim>16</dim>
					<dim>1</dim>
					<dim>1</dim>
					<dim>1</dim>
				</port>
				<port id="1" precision="FP32">
					<dim>1</dim>
					<dim>16</dim>
					<dim>129</dim>
					<dim>18</dim>
					<dim>12</dim>
				</port>
			</input>
			<output>
				<port id="2" precision="FP32">
					<dim>1</dim>
					<dim>16</dim>
					<dim>129</dim>
					<dim>18</dim>
					<dim>12</dim>
				</port>
			</output>
		</layer>
		<layer id="128" name="Transpose_40501" type="Const" version="opset1">
			<data element_type="f32" shape="1, 16, 1, 1, 1" offset="89536" size="64" />
			<output>
				<port id="0" precision="FP32">
					<dim>1</dim>
					<dim>16</dim>
					<dim>1</dim>
					<dim>1</dim>
					<dim>1</dim>
				</port>
			</output>
		</layer>
		<layer id="129" name="Constant_30705" type="Const" version="opset1">
			<data element_type="i64" shape="5" offset="10984" size="40" />
			<output>
				<port id="0" precision="I64">
					<dim>5</dim>
				</port>
			</output>
		</layer>
		<layer id="130" name="complex_batch_normalization_3/sub_2" type="Transpose" version="opset1">
			<input>
				<port id="0" precision="FP32">
					<dim>1</dim>
					<dim>16</dim>
					<dim>129</dim>
					<dim>18</dim>
					<dim>12</dim>
				</port>
				<port id="1" precision="I64">
					<dim>5</dim>
				</port>
			</input>
			<output>
				<port id="2" precision="FP32" names="complex_batch_normalization_3/sub_2,complex_batch_normalization_3/sub_2:0">
					<dim>1</dim>
					<dim>129</dim>
					<dim>18</dim>
					<dim>12</dim>
					<dim>16</dim>
				</port>
			</output>
		</layer>
		<layer id="131" name="complex_batch_normalization_3/strided_slice_13/stack" type="Const" version="opset1">
			<data element_type="i32" shape="5" offset="89600" size="20" />
			<output>
				<port id="0" precision="I32" names="complex_batch_normalization_3/strided_slice_13/stack,complex_batch_normalization_3/strided_slice_13/stack:0">
					<dim>5</dim>
				</port>
			</output>
		</layer>
		<layer id="132" name="complex_batch_normalization_3/strided_slice_13/stack_1" type="Const" version="opset1">
			<data element_type="i32" shape="5" offset="11044" size="20" />
			<output>
				<port id="0" precision="I32" names="complex_batch_normalization_3/strided_slice_13/stack_1,complex_batch_normalization_3/strided_slice_13/stack_1:0">
					<dim>5</dim>
				</port>
			</output>
		</layer>
		<layer id="133" name="complex_batch_normalization_3/strided_slice_13/stack_2" type="Const" version="opset1">
			<data element_type="i32" shape="5" offset="11064" size="20" />
			<output>
				<port id="0" precision="I32" names="complex_batch_normalization_3/strided_slice_13/stack_2,complex_batch_normalization_3/strided_slice_13/stack_2:0">
					<dim>5</dim>
				</port>
			</output>
		</layer>
		<layer id="134" name="complex_batch_normalization_3/strided_slice_13" type="StridedSlice" version="opset1">
			<data begin_mask="1, 1, 1, 1, 0" end_mask="1, 1, 1, 1, 1" new_axis_mask="0, 0, 0, 0, 0" shrink_axis_mask="0, 0, 0, 0, 0" ellipsis_mask="0, 0, 0, 0, 0" />
			<input>
				<port id="0" precision="FP32">
					<dim>1</dim>
					<dim>129</dim>
					<dim>18</dim>
					<dim>12</dim>
					<dim>16</dim>
				</port>
				<port id="1" precision="I32">
					<dim>5</dim>
				</port>
				<port id="2" precision="I32">
					<dim>5</dim>
				</port>
				<port id="3" precision="I32">
					<dim>5</dim>
				</port>
			</input>
			<output>
				<port id="4" precision="FP32" names="complex_batch_normalization_3/strided_slice_13,complex_batch_normalization_3/strided_slice_13:0">
					<dim>1</dim>
					<dim>129</dim>
					<dim>18</dim>
					<dim>12</dim>
					<dim>8</dim>
				</port>
			</output>
		</layer>
		<layer id="135" name="Constant_40504" type="Const" version="opset1">
			<data element_type="i64" shape="5" offset="2880" size="40" />
			<output>
				<port id="0" precision="I64">
					<dim>5</dim>
				</port>
			</output>
		</layer>
		<layer id="136" name="Transpose_40505" type="Transpose" version="opset1">
			<input>
				<port id="0" precision="FP32">
					<dim>1</dim>
					<dim>129</dim>
					<dim>18</dim>
					<dim>12</dim>
					<dim>8</dim>
				</port>
				<port id="1" precision="I64">
					<dim>5</dim>
				</port>
			</input>
			<output>
				<port id="2" precision="FP32">
					<dim>1</dim>
					<dim>8</dim>
					<dim>129</dim>
					<dim>18</dim>
					<dim>12</dim>
				</port>
			</output>
		</layer>
		<layer id="137" name="complex_batch_normalization_3/strided_slice_12/stack" type="Const" version="opset1">
			<data element_type="i32" shape="5" offset="11044" size="20" />
			<output>
				<port id="0" precision="I32" names="complex_batch_normalization_3/strided_slice_12/stack,complex_batch_normalization_3/strided_slice_12/stack:0">
					<dim>5</dim>
				</port>
			</output>
		</layer>
		<layer id="138" name="complex_batch_normalization_3/strided_slice_12/stack_1" type="Const" version="opset1">
			<data element_type="i32" shape="5" offset="89600" size="20" />
			<output>
				<port id="0" precision="I32" names="complex_batch_normalization_3/strided_slice_12/stack_1,complex_batch_normalization_3/strided_slice_12/stack_1:0">
					<dim>5</dim>
				</port>
			</output>
		</layer>
		<layer id="139" name="complex_batch_normalization_3/strided_slice_12/stack_2" type="Const" version="opset1">
			<data element_type="i32" shape="5" offset="11064" size="20" />
			<output>
				<port id="0" precision="I32" names="complex_batch_normalization_3/strided_slice_12/stack_2,complex_batch_normalization_3/strided_slice_12/stack_2:0">
					<dim>5</dim>
				</port>
			</output>
		</layer>
		<layer id="140" name="complex_batch_normalization_3/strided_slice_12" type="StridedSlice" version="opset1">
			<data begin_mask="1, 1, 1, 1, 1" end_mask="1, 1, 1, 1, 0" new_axis_mask="0, 0, 0, 0, 0" shrink_axis_mask="0, 0, 0, 0, 0" ellipsis_mask="0, 0, 0, 0, 0" />
			<input>
				<port id="0" precision="FP32">
					<dim>1</dim>
					<dim>129</dim>
					<dim>18</dim>
					<dim>12</dim>
					<dim>16</dim>
				</port>
				<port id="1" precision="I32">
					<dim>5</dim>
				</port>
				<port id="2" precision="I32">
					<dim>5</dim>
				</port>
				<port id="3" precision="I32">
					<dim>5</dim>
				</port>
			</input>
			<output>
				<port id="4" precision="FP32" names="complex_batch_normalization_3/strided_slice_12,complex_batch_normalization_3/strided_slice_12:0">
					<dim>1</dim>
					<dim>129</dim>
					<dim>18</dim>
					<dim>12</dim>
					<dim>8</dim>
				</port>
			</output>
		</layer>
		<layer id="141" name="Constant_40506" type="Const" version="opset1">
			<data element_type="i64" shape="5" offset="2880" size="40" />
			<output>
				<port id="0" precision="I64">
					<dim>5</dim>
				</port>
			</output>
		</layer>
		<layer id="142" name="Transpose_40507" type="Transpose" version="opset1">
			<input>
				<port id="0" precision="FP32">
					<dim>1</dim>
					<dim>129</dim>
					<dim>18</dim>
					<dim>12</dim>
					<dim>8</dim>
				</port>
				<port id="1" precision="I64">
					<dim>5</dim>
				</port>
			</input>
			<output>
				<port id="2" precision="FP32">
					<dim>1</dim>
					<dim>8</dim>
					<dim>129</dim>
					<dim>18</dim>
					<dim>12</dim>
				</port>
			</output>
		</layer>
		<layer id="143" name="Transpose_40503" type="Concat" version="opset1">
			<data axis="1" />
			<input>
				<port id="0" precision="FP32">
					<dim>1</dim>
					<dim>8</dim>
					<dim>129</dim>
					<dim>18</dim>
					<dim>12</dim>
				</port>
				<port id="1" precision="FP32">
					<dim>1</dim>
					<dim>8</dim>
					<dim>129</dim>
					<dim>18</dim>
					<dim>12</dim>
				</port>
			</input>
			<output>
				<port id="2" precision="FP32" names="complex_batch_normalization_3/concat_8,complex_batch_normalization_3/concat_8:0">
					<dim>1</dim>
					<dim>16</dim>
					<dim>129</dim>
					<dim>18</dim>
					<dim>12</dim>
				</port>
			</output>
		</layer>
		<layer id="144" name="Transpose_30712" type="Multiply" version="opset1">
			<data auto_broadcast="numpy" />
			<input>
				<port id="0" precision="FP32">
					<dim>1</dim>
					<dim>16</dim>
					<dim>1</dim>
					<dim>1</dim>
					<dim>1</dim>
				</port>
				<port id="1" precision="FP32">
					<dim>1</dim>
					<dim>16</dim>
					<dim>129</dim>
					<dim>18</dim>
					<dim>12</dim>
				</port>
			</input>
			<output>
				<port id="2" precision="FP32" names="complex_batch_normalization_3/mul_24,complex_batch_normalization_3/mul_24:0">
					<dim>1</dim>
					<dim>16</dim>
					<dim>129</dim>
					<dim>18</dim>
					<dim>12</dim>
				</port>
			</output>
		</layer>
		<layer id="145" name="Transpose_30714" type="Add" version="opset1">
			<data auto_broadcast="numpy" />
			<input>
				<port id="0" precision="FP32">
					<dim>1</dim>
					<dim>16</dim>
					<dim>129</dim>
					<dim>18</dim>
					<dim>12</dim>
				</port>
				<port id="1" precision="FP32">
					<dim>1</dim>
					<dim>16</dim>
					<dim>129</dim>
					<dim>18</dim>
					<dim>12</dim>
				</port>
			</input>
			<output>
				<port id="2" precision="FP32">
					<dim>1</dim>
					<dim>16</dim>
					<dim>129</dim>
					<dim>18</dim>
					<dim>12</dim>
				</port>
			</output>
		</layer>
		<layer id="146" name="Transpose_30718" type="Multiply" version="opset1">
			<data auto_broadcast="numpy" />
			<input>
				<port id="0" precision="FP32">
					<dim>1</dim>
					<dim>16</dim>
					<dim>1</dim>
					<dim>1</dim>
					<dim>1</dim>
				</port>
				<port id="1" precision="FP32">
					<dim>1</dim>
					<dim>16</dim>
					<dim>129</dim>
					<dim>18</dim>
					<dim>12</dim>
				</port>
			</input>
			<output>
				<port id="2" precision="FP32">
					<dim>1</dim>
					<dim>16</dim>
					<dim>129</dim>
					<dim>18</dim>
					<dim>12</dim>
				</port>
			</output>
		</layer>
		<layer id="147" name="Transpose_40509" type="Const" version="opset1">
			<data element_type="f32" shape="1, 16, 1, 1, 1" offset="89620" size="64" />
			<output>
				<port id="0" precision="FP32">
					<dim>1</dim>
					<dim>16</dim>
					<dim>1</dim>
					<dim>1</dim>
					<dim>1</dim>
				</port>
			</output>
		</layer>
		<layer id="148" name="Constant_30713" type="Const" version="opset1">
			<data element_type="i64" shape="5" offset="10984" size="40" />
			<output>
				<port id="0" precision="I64">
					<dim>5</dim>
				</port>
			</output>
		</layer>
		<layer id="149" name="complex_batch_normalization_3/add_13" type="Transpose" version="opset1">
			<input>
				<port id="0" precision="FP32">
					<dim>1</dim>
					<dim>16</dim>
					<dim>129</dim>
					<dim>18</dim>
					<dim>12</dim>
				</port>
				<port id="1" precision="I64">
					<dim>5</dim>
				</port>
			</input>
			<output>
				<port id="2" precision="FP32" names="complex_batch_normalization_3/add_13,complex_batch_normalization_3/add_13:0">
					<dim>1</dim>
					<dim>129</dim>
					<dim>18</dim>
					<dim>12</dim>
					<dim>16</dim>
				</port>
			</output>
		</layer>
		<layer id="150" name="complex_batch_normalization_3/strided_slice_15/stack" type="Const" version="opset1">
			<data element_type="i32" shape="5" offset="89600" size="20" />
			<output>
				<port id="0" precision="I32" names="complex_batch_normalization_3/strided_slice_15/stack,complex_batch_normalization_3/strided_slice_15/stack:0">
					<dim>5</dim>
				</port>
			</output>
		</layer>
		<layer id="151" name="complex_batch_normalization_3/strided_slice_15/stack_1" type="Const" version="opset1">
			<data element_type="i32" shape="5" offset="11044" size="20" />
			<output>
				<port id="0" precision="I32" names="complex_batch_normalization_3/strided_slice_15/stack_1,complex_batch_normalization_3/strided_slice_15/stack_1:0">
					<dim>5</dim>
				</port>
			</output>
		</layer>
		<layer id="152" name="complex_batch_normalization_3/strided_slice_15/stack_2" type="Const" version="opset1">
			<data element_type="i32" shape="5" offset="11064" size="20" />
			<output>
				<port id="0" precision="I32" names="complex_batch_normalization_3/strided_slice_15/stack_2,complex_batch_normalization_3/strided_slice_15/stack_2:0">
					<dim>5</dim>
				</port>
			</output>
		</layer>
		<layer id="153" name="complex_batch_normalization_3/strided_slice_15" type="StridedSlice" version="opset1">
			<data begin_mask="1, 1, 1, 1, 0" end_mask="1, 1, 1, 1, 1" new_axis_mask="0, 0, 0, 0, 0" shrink_axis_mask="0, 0, 0, 0, 0" ellipsis_mask="0, 0, 0, 0, 0" />
			<input>
				<port id="0" precision="FP32">
					<dim>1</dim>
					<dim>129</dim>
					<dim>18</dim>
					<dim>12</dim>
					<dim>16</dim>
				</port>
				<port id="1" precision="I32">
					<dim>5</dim>
				</port>
				<port id="2" precision="I32">
					<dim>5</dim>
				</port>
				<port id="3" precision="I32">
					<dim>5</dim>
				</port>
			</input>
			<output>
				<port id="4" precision="FP32" names="complex_batch_normalization_3/strided_slice_15,complex_batch_normalization_3/strided_slice_15:0">
					<dim>1</dim>
					<dim>129</dim>
					<dim>18</dim>
					<dim>12</dim>
					<dim>8</dim>
				</port>
			</output>
		</layer>
		<layer id="154" name="Constant_40512" type="Const" version="opset1">
			<data element_type="i64" shape="5" offset="2880" size="40" />
			<output>
				<port id="0" precision="I64">
					<dim>5</dim>
				</port>
			</output>
		</layer>
		<layer id="155" name="Transpose_40513" type="Transpose" version="opset1">
			<input>
				<port id="0" precision="FP32">
					<dim>1</dim>
					<dim>129</dim>
					<dim>18</dim>
					<dim>12</dim>
					<dim>8</dim>
				</port>
				<port id="1" precision="I64">
					<dim>5</dim>
				</port>
			</input>
			<output>
				<port id="2" precision="FP32">
					<dim>1</dim>
					<dim>8</dim>
					<dim>129</dim>
					<dim>18</dim>
					<dim>12</dim>
				</port>
			</output>
		</layer>
		<layer id="156" name="complex_batch_normalization_3/strided_slice_14/stack" type="Const" version="opset1">
			<data element_type="i32" shape="5" offset="11044" size="20" />
			<output>
				<port id="0" precision="I32" names="complex_batch_normalization_3/strided_slice_14/stack,complex_batch_normalization_3/strided_slice_14/stack:0">
					<dim>5</dim>
				</port>
			</output>
		</layer>
		<layer id="157" name="complex_batch_normalization_3/strided_slice_14/stack_1" type="Const" version="opset1">
			<data element_type="i32" shape="5" offset="89600" size="20" />
			<output>
				<port id="0" precision="I32" names="complex_batch_normalization_3/strided_slice_14/stack_1,complex_batch_normalization_3/strided_slice_14/stack_1:0">
					<dim>5</dim>
				</port>
			</output>
		</layer>
		<layer id="158" name="complex_batch_normalization_3/strided_slice_14/stack_2" type="Const" version="opset1">
			<data element_type="i32" shape="5" offset="11064" size="20" />
			<output>
				<port id="0" precision="I32" names="complex_batch_normalization_3/strided_slice_14/stack_2,complex_batch_normalization_3/strided_slice_14/stack_2:0">
					<dim>5</dim>
				</port>
			</output>
		</layer>
		<layer id="159" name="complex_batch_normalization_3/strided_slice_14" type="StridedSlice" version="opset1">
			<data begin_mask="1, 1, 1, 1, 1" end_mask="1, 1, 1, 1, 0" new_axis_mask="0, 0, 0, 0, 0" shrink_axis_mask="0, 0, 0, 0, 0" ellipsis_mask="0, 0, 0, 0, 0" />
			<input>
				<port id="0" precision="FP32">
					<dim>1</dim>
					<dim>129</dim>
					<dim>18</dim>
					<dim>12</dim>
					<dim>16</dim>
				</port>
				<port id="1" precision="I32">
					<dim>5</dim>
				</port>
				<port id="2" precision="I32">
					<dim>5</dim>
				</port>
				<port id="3" precision="I32">
					<dim>5</dim>
				</port>
			</input>
			<output>
				<port id="4" precision="FP32" names="complex_batch_normalization_3/strided_slice_14,complex_batch_normalization_3/strided_slice_14:0">
					<dim>1</dim>
					<dim>129</dim>
					<dim>18</dim>
					<dim>12</dim>
					<dim>8</dim>
				</port>
			</output>
		</layer>
		<layer id="160" name="Constant_40514" type="Const" version="opset1">
			<data element_type="i64" shape="5" offset="2880" size="40" />
			<output>
				<port id="0" precision="I64">
					<dim>5</dim>
				</port>
			</output>
		</layer>
		<layer id="161" name="Transpose_40515" type="Transpose" version="opset1">
			<input>
				<port id="0" precision="FP32">
					<dim>1</dim>
					<dim>129</dim>
					<dim>18</dim>
					<dim>12</dim>
					<dim>8</dim>
				</port>
				<port id="1" precision="I64">
					<dim>5</dim>
				</port>
			</input>
			<output>
				<port id="2" precision="FP32">
					<dim>1</dim>
					<dim>8</dim>
					<dim>129</dim>
					<dim>18</dim>
					<dim>12</dim>
				</port>
			</output>
		</layer>
		<layer id="162" name="Transpose_40511" type="Concat" version="opset1">
			<data axis="1" />
			<input>
				<port id="0" precision="FP32">
					<dim>1</dim>
					<dim>8</dim>
					<dim>129</dim>
					<dim>18</dim>
					<dim>12</dim>
				</port>
				<port id="1" precision="FP32">
					<dim>1</dim>
					<dim>8</dim>
					<dim>129</dim>
					<dim>18</dim>
					<dim>12</dim>
				</port>
			</input>
			<output>
				<port id="2" precision="FP32" names="complex_batch_normalization_3/concat_11,complex_batch_normalization_3/concat_11:0">
					<dim>1</dim>
					<dim>16</dim>
					<dim>129</dim>
					<dim>18</dim>
					<dim>12</dim>
				</port>
			</output>
		</layer>
		<layer id="163" name="Transpose_30720" type="Multiply" version="opset1">
			<data auto_broadcast="numpy" />
			<input>
				<port id="0" precision="FP32">
					<dim>1</dim>
					<dim>16</dim>
					<dim>1</dim>
					<dim>1</dim>
					<dim>1</dim>
				</port>
				<port id="1" precision="FP32">
					<dim>1</dim>
					<dim>16</dim>
					<dim>129</dim>
					<dim>18</dim>
					<dim>12</dim>
				</port>
			</input>
			<output>
				<port id="2" precision="FP32" names="complex_batch_normalization_3/mul_26,complex_batch_normalization_3/mul_26:0">
					<dim>1</dim>
					<dim>16</dim>
					<dim>129</dim>
					<dim>18</dim>
					<dim>12</dim>
				</port>
			</output>
		</layer>
		<layer id="164" name="Transpose_30722" type="Add" version="opset1">
			<data auto_broadcast="numpy" />
			<input>
				<port id="0" precision="FP32">
					<dim>1</dim>
					<dim>16</dim>
					<dim>129</dim>
					<dim>18</dim>
					<dim>12</dim>
				</port>
				<port id="1" precision="FP32">
					<dim>1</dim>
					<dim>16</dim>
					<dim>129</dim>
					<dim>18</dim>
					<dim>12</dim>
				</port>
			</input>
			<output>
				<port id="2" precision="FP32">
					<dim>1</dim>
					<dim>16</dim>
					<dim>129</dim>
					<dim>18</dim>
					<dim>12</dim>
				</port>
			</output>
		</layer>
		<layer id="165" name="Transpose_30724" type="Const" version="opset1">
			<data element_type="f32" shape="1, 16, 1, 1, 1" offset="89684" size="64" />
			<output>
				<port id="0" precision="FP32">
					<dim>1</dim>
					<dim>16</dim>
					<dim>1</dim>
					<dim>1</dim>
					<dim>1</dim>
				</port>
			</output>
		</layer>
		<layer id="166" name="Transpose_30726" type="Add" version="opset1">
			<data auto_broadcast="numpy" />
			<input>
				<port id="0" precision="FP32">
					<dim>1</dim>
					<dim>16</dim>
					<dim>129</dim>
					<dim>18</dim>
					<dim>12</dim>
				</port>
				<port id="1" precision="FP32">
					<dim>1</dim>
					<dim>16</dim>
					<dim>1</dim>
					<dim>1</dim>
					<dim>1</dim>
				</port>
			</input>
			<output>
				<port id="2" precision="FP32">
					<dim>1</dim>
					<dim>16</dim>
					<dim>129</dim>
					<dim>18</dim>
					<dim>12</dim>
				</port>
			</output>
		</layer>
		<layer id="167" name="Relu_30727" type="ReLU" version="opset1">
			<input>
				<port id="0" precision="FP32">
					<dim>1</dim>
					<dim>16</dim>
					<dim>129</dim>
					<dim>18</dim>
					<dim>12</dim>
				</port>
			</input>
			<output>
				<port id="1" precision="FP32">
					<dim>1</dim>
					<dim>16</dim>
					<dim>129</dim>
					<dim>18</dim>
					<dim>12</dim>
				</port>
			</output>
		</layer>
		<layer id="168" name="Transpose_2465" type="Const" version="opset1">
			<data element_type="f32" shape="36, 16, 9, 3, 1" offset="89748" size="62208" />
			<output>
				<port id="0" precision="FP32">
					<dim>36</dim>
					<dim>16</dim>
					<dim>9</dim>
					<dim>3</dim>
					<dim>1</dim>
				</port>
			</output>
		</layer>
		<layer id="169" name="Convolution_2466" type="Convolution" version="opset1">
			<data strides="1, 1, 1" dilations="1, 1, 1" pads_begin="0, 0, 0" pads_end="0, 0, 0" auto_pad="same_upper" />
			<input>
				<port id="0" precision="FP32">
					<dim>1</dim>
					<dim>16</dim>
					<dim>129</dim>
					<dim>18</dim>
					<dim>12</dim>
				</port>
				<port id="1" precision="FP32">
					<dim>36</dim>
					<dim>16</dim>
					<dim>9</dim>
					<dim>3</dim>
					<dim>1</dim>
				</port>
			</input>
			<output>
				<port id="2" precision="FP32">
					<dim>1</dim>
					<dim>36</dim>
					<dim>129</dim>
					<dim>18</dim>
					<dim>12</dim>
				</port>
			</output>
		</layer>
		<layer id="170" name="Constant_42370" type="Const" version="opset1">
			<data element_type="f32" shape="1, 36, 1, 1, 1" offset="151956" size="144" />
			<output>
				<port id="0" precision="FP32">
					<dim>1</dim>
					<dim>36</dim>
					<dim>1</dim>
					<dim>1</dim>
					<dim>1</dim>
				</port>
			</output>
		</layer>
		<layer id="171" name="Transpose_30736" type="Add" version="opset1">
			<data auto_broadcast="numpy" />
			<input>
				<port id="0" precision="FP32">
					<dim>1</dim>
					<dim>36</dim>
					<dim>129</dim>
					<dim>18</dim>
					<dim>12</dim>
				</port>
				<port id="1" precision="FP32">
					<dim>1</dim>
					<dim>36</dim>
					<dim>1</dim>
					<dim>1</dim>
					<dim>1</dim>
				</port>
			</input>
			<output>
				<port id="2" precision="FP32">
					<dim>1</dim>
					<dim>36</dim>
					<dim>129</dim>
					<dim>18</dim>
					<dim>12</dim>
				</port>
			</output>
		</layer>
		<layer id="172" name="Transpose_30740" type="Multiply" version="opset1">
			<data auto_broadcast="numpy" />
			<input>
				<port id="0" precision="FP32">
					<dim>1</dim>
					<dim>36</dim>
					<dim>1</dim>
					<dim>1</dim>
					<dim>1</dim>
				</port>
				<port id="1" precision="FP32">
					<dim>1</dim>
					<dim>36</dim>
					<dim>129</dim>
					<dim>18</dim>
					<dim>12</dim>
				</port>
			</input>
			<output>
				<port id="2" precision="FP32">
					<dim>1</dim>
					<dim>36</dim>
					<dim>129</dim>
					<dim>18</dim>
					<dim>12</dim>
				</port>
			</output>
		</layer>
		<layer id="173" name="Transpose_40517" type="Const" version="opset1">
			<data element_type="f32" shape="1, 36, 1, 1, 1" offset="152100" size="144" />
			<output>
				<port id="0" precision="FP32">
					<dim>1</dim>
					<dim>36</dim>
					<dim>1</dim>
					<dim>1</dim>
					<dim>1</dim>
				</port>
			</output>
		</layer>
		<layer id="174" name="Constant_30735" type="Const" version="opset1">
			<data element_type="i64" shape="5" offset="10984" size="40" />
			<output>
				<port id="0" precision="I64">
					<dim>5</dim>
				</port>
			</output>
		</layer>
		<layer id="175" name="complex_batch_normalization_4/sub_2" type="Transpose" version="opset1">
			<input>
				<port id="0" precision="FP32">
					<dim>1</dim>
					<dim>36</dim>
					<dim>129</dim>
					<dim>18</dim>
					<dim>12</dim>
				</port>
				<port id="1" precision="I64">
					<dim>5</dim>
				</port>
			</input>
			<output>
				<port id="2" precision="FP32" names="complex_batch_normalization_4/sub_2,complex_batch_normalization_4/sub_2:0">
					<dim>1</dim>
					<dim>129</dim>
					<dim>18</dim>
					<dim>12</dim>
					<dim>36</dim>
				</port>
			</output>
		</layer>
		<layer id="176" name="complex_batch_normalization_4/strided_slice_13/stack" type="Const" version="opset1">
			<data element_type="i32" shape="5" offset="11024" size="20" />
			<output>
				<port id="0" precision="I32" names="complex_batch_normalization_4/strided_slice_13/stack,complex_batch_normalization_4/strided_slice_13/stack:0">
					<dim>5</dim>
				</port>
			</output>
		</layer>
		<layer id="177" name="complex_batch_normalization_4/strided_slice_13/stack_1" type="Const" version="opset1">
			<data element_type="i32" shape="5" offset="11044" size="20" />
			<output>
				<port id="0" precision="I32" names="complex_batch_normalization_4/strided_slice_13/stack_1,complex_batch_normalization_4/strided_slice_13/stack_1:0">
					<dim>5</dim>
				</port>
			</output>
		</layer>
		<layer id="178" name="complex_batch_normalization_4/strided_slice_13/stack_2" type="Const" version="opset1">
			<data element_type="i32" shape="5" offset="11064" size="20" />
			<output>
				<port id="0" precision="I32" names="complex_batch_normalization_4/strided_slice_13/stack_2,complex_batch_normalization_4/strided_slice_13/stack_2:0">
					<dim>5</dim>
				</port>
			</output>
		</layer>
		<layer id="179" name="complex_batch_normalization_4/strided_slice_13" type="StridedSlice" version="opset1">
			<data begin_mask="1, 1, 1, 1, 0" end_mask="1, 1, 1, 1, 1" new_axis_mask="0, 0, 0, 0, 0" shrink_axis_mask="0, 0, 0, 0, 0" ellipsis_mask="0, 0, 0, 0, 0" />
			<input>
				<port id="0" precision="FP32">
					<dim>1</dim>
					<dim>129</dim>
					<dim>18</dim>
					<dim>12</dim>
					<dim>36</dim>
				</port>
				<port id="1" precision="I32">
					<dim>5</dim>
				</port>
				<port id="2" precision="I32">
					<dim>5</dim>
				</port>
				<port id="3" precision="I32">
					<dim>5</dim>
				</port>
			</input>
			<output>
				<port id="4" precision="FP32" names="complex_batch_normalization_4/strided_slice_13,complex_batch_normalization_4/strided_slice_13:0">
					<dim>1</dim>
					<dim>129</dim>
					<dim>18</dim>
					<dim>12</dim>
					<dim>18</dim>
				</port>
			</output>
		</layer>
		<layer id="180" name="Constant_40520" type="Const" version="opset1">
			<data element_type="i64" shape="5" offset="2880" size="40" />
			<output>
				<port id="0" precision="I64">
					<dim>5</dim>
				</port>
			</output>
		</layer>
		<layer id="181" name="Transpose_40521" type="Transpose" version="opset1">
			<input>
				<port id="0" precision="FP32">
					<dim>1</dim>
					<dim>129</dim>
					<dim>18</dim>
					<dim>12</dim>
					<dim>18</dim>
				</port>
				<port id="1" precision="I64">
					<dim>5</dim>
				</port>
			</input>
			<output>
				<port id="2" precision="FP32">
					<dim>1</dim>
					<dim>18</dim>
					<dim>129</dim>
					<dim>18</dim>
					<dim>12</dim>
				</port>
			</output>
		</layer>
		<layer id="182" name="complex_batch_normalization_4/strided_slice_12/stack" type="Const" version="opset1">
			<data element_type="i32" shape="5" offset="11044" size="20" />
			<output>
				<port id="0" precision="I32" names="complex_batch_normalization_4/strided_slice_12/stack,complex_batch_normalization_4/strided_slice_12/stack:0">
					<dim>5</dim>
				</port>
			</output>
		</layer>
		<layer id="183" name="complex_batch_normalization_4/strided_slice_12/stack_1" type="Const" version="opset1">
			<data element_type="i32" shape="5" offset="11024" size="20" />
			<output>
				<port id="0" precision="I32" names="complex_batch_normalization_4/strided_slice_12/stack_1,complex_batch_normalization_4/strided_slice_12/stack_1:0">
					<dim>5</dim>
				</port>
			</output>
		</layer>
		<layer id="184" name="complex_batch_normalization_4/strided_slice_12/stack_2" type="Const" version="opset1">
			<data element_type="i32" shape="5" offset="11064" size="20" />
			<output>
				<port id="0" precision="I32" names="complex_batch_normalization_4/strided_slice_12/stack_2,complex_batch_normalization_4/strided_slice_12/stack_2:0">
					<dim>5</dim>
				</port>
			</output>
		</layer>
		<layer id="185" name="complex_batch_normalization_4/strided_slice_12" type="StridedSlice" version="opset1">
			<data begin_mask="1, 1, 1, 1, 1" end_mask="1, 1, 1, 1, 0" new_axis_mask="0, 0, 0, 0, 0" shrink_axis_mask="0, 0, 0, 0, 0" ellipsis_mask="0, 0, 0, 0, 0" />
			<input>
				<port id="0" precision="FP32">
					<dim>1</dim>
					<dim>129</dim>
					<dim>18</dim>
					<dim>12</dim>
					<dim>36</dim>
				</port>
				<port id="1" precision="I32">
					<dim>5</dim>
				</port>
				<port id="2" precision="I32">
					<dim>5</dim>
				</port>
				<port id="3" precision="I32">
					<dim>5</dim>
				</port>
			</input>
			<output>
				<port id="4" precision="FP32" names="complex_batch_normalization_4/strided_slice_12,complex_batch_normalization_4/strided_slice_12:0">
					<dim>1</dim>
					<dim>129</dim>
					<dim>18</dim>
					<dim>12</dim>
					<dim>18</dim>
				</port>
			</output>
		</layer>
		<layer id="186" name="Constant_40522" type="Const" version="opset1">
			<data element_type="i64" shape="5" offset="2880" size="40" />
			<output>
				<port id="0" precision="I64">
					<dim>5</dim>
				</port>
			</output>
		</layer>
		<layer id="187" name="Transpose_40523" type="Transpose" version="opset1">
			<input>
				<port id="0" precision="FP32">
					<dim>1</dim>
					<dim>129</dim>
					<dim>18</dim>
					<dim>12</dim>
					<dim>18</dim>
				</port>
				<port id="1" precision="I64">
					<dim>5</dim>
				</port>
			</input>
			<output>
				<port id="2" precision="FP32">
					<dim>1</dim>
					<dim>18</dim>
					<dim>129</dim>
					<dim>18</dim>
					<dim>12</dim>
				</port>
			</output>
		</layer>
		<layer id="188" name="Transpose_40519" type="Concat" version="opset1">
			<data axis="1" />
			<input>
				<port id="0" precision="FP32">
					<dim>1</dim>
					<dim>18</dim>
					<dim>129</dim>
					<dim>18</dim>
					<dim>12</dim>
				</port>
				<port id="1" precision="FP32">
					<dim>1</dim>
					<dim>18</dim>
					<dim>129</dim>
					<dim>18</dim>
					<dim>12</dim>
				</port>
			</input>
			<output>
				<port id="2" precision="FP32" names="complex_batch_normalization_4/concat_8,complex_batch_normalization_4/concat_8:0">
					<dim>1</dim>
					<dim>36</dim>
					<dim>129</dim>
					<dim>18</dim>
					<dim>12</dim>
				</port>
			</output>
		</layer>
		<layer id="189" name="Transpose_30742" type="Multiply" version="opset1">
			<data auto_broadcast="numpy" />
			<input>
				<port id="0" precision="FP32">
					<dim>1</dim>
					<dim>36</dim>
					<dim>1</dim>
					<dim>1</dim>
					<dim>1</dim>
				</port>
				<port id="1" precision="FP32">
					<dim>1</dim>
					<dim>36</dim>
					<dim>129</dim>
					<dim>18</dim>
					<dim>12</dim>
				</port>
			</input>
			<output>
				<port id="2" precision="FP32" names="complex_batch_normalization_4/mul_24,complex_batch_normalization_4/mul_24:0">
					<dim>1</dim>
					<dim>36</dim>
					<dim>129</dim>
					<dim>18</dim>
					<dim>12</dim>
				</port>
			</output>
		</layer>
		<layer id="190" name="Transpose_30744" type="Add" version="opset1">
			<data auto_broadcast="numpy" />
			<input>
				<port id="0" precision="FP32">
					<dim>1</dim>
					<dim>36</dim>
					<dim>129</dim>
					<dim>18</dim>
					<dim>12</dim>
				</port>
				<port id="1" precision="FP32">
					<dim>1</dim>
					<dim>36</dim>
					<dim>129</dim>
					<dim>18</dim>
					<dim>12</dim>
				</port>
			</input>
			<output>
				<port id="2" precision="FP32">
					<dim>1</dim>
					<dim>36</dim>
					<dim>129</dim>
					<dim>18</dim>
					<dim>12</dim>
				</port>
			</output>
		</layer>
		<layer id="191" name="Transpose_30748" type="Multiply" version="opset1">
			<data auto_broadcast="numpy" />
			<input>
				<port id="0" precision="FP32">
					<dim>1</dim>
					<dim>36</dim>
					<dim>1</dim>
					<dim>1</dim>
					<dim>1</dim>
				</port>
				<port id="1" precision="FP32">
					<dim>1</dim>
					<dim>36</dim>
					<dim>129</dim>
					<dim>18</dim>
					<dim>12</dim>
				</port>
			</input>
			<output>
				<port id="2" precision="FP32">
					<dim>1</dim>
					<dim>36</dim>
					<dim>129</dim>
					<dim>18</dim>
					<dim>12</dim>
				</port>
			</output>
		</layer>
		<layer id="192" name="Transpose_40525" type="Const" version="opset1">
			<data element_type="f32" shape="1, 36, 1, 1, 1" offset="152244" size="144" />
			<output>
				<port id="0" precision="FP32">
					<dim>1</dim>
					<dim>36</dim>
					<dim>1</dim>
					<dim>1</dim>
					<dim>1</dim>
				</port>
			</output>
		</layer>
		<layer id="193" name="Constant_30743" type="Const" version="opset1">
			<data element_type="i64" shape="5" offset="10984" size="40" />
			<output>
				<port id="0" precision="I64">
					<dim>5</dim>
				</port>
			</output>
		</layer>
		<layer id="194" name="complex_batch_normalization_4/add_13" type="Transpose" version="opset1">
			<input>
				<port id="0" precision="FP32">
					<dim>1</dim>
					<dim>36</dim>
					<dim>129</dim>
					<dim>18</dim>
					<dim>12</dim>
				</port>
				<port id="1" precision="I64">
					<dim>5</dim>
				</port>
			</input>
			<output>
				<port id="2" precision="FP32" names="complex_batch_normalization_4/add_13,complex_batch_normalization_4/add_13:0">
					<dim>1</dim>
					<dim>129</dim>
					<dim>18</dim>
					<dim>12</dim>
					<dim>36</dim>
				</port>
			</output>
		</layer>
		<layer id="195" name="complex_batch_normalization_4/strided_slice_15/stack" type="Const" version="opset1">
			<data element_type="i32" shape="5" offset="11024" size="20" />
			<output>
				<port id="0" precision="I32" names="complex_batch_normalization_4/strided_slice_15/stack,complex_batch_normalization_4/strided_slice_15/stack:0">
					<dim>5</dim>
				</port>
			</output>
		</layer>
		<layer id="196" name="complex_batch_normalization_4/strided_slice_15/stack_1" type="Const" version="opset1">
			<data element_type="i32" shape="5" offset="11044" size="20" />
			<output>
				<port id="0" precision="I32" names="complex_batch_normalization_4/strided_slice_15/stack_1,complex_batch_normalization_4/strided_slice_15/stack_1:0">
					<dim>5</dim>
				</port>
			</output>
		</layer>
		<layer id="197" name="complex_batch_normalization_4/strided_slice_15/stack_2" type="Const" version="opset1">
			<data element_type="i32" shape="5" offset="11064" size="20" />
			<output>
				<port id="0" precision="I32" names="complex_batch_normalization_4/strided_slice_15/stack_2,complex_batch_normalization_4/strided_slice_15/stack_2:0">
					<dim>5</dim>
				</port>
			</output>
		</layer>
		<layer id="198" name="complex_batch_normalization_4/strided_slice_15" type="StridedSlice" version="opset1">
			<data begin_mask="1, 1, 1, 1, 0" end_mask="1, 1, 1, 1, 1" new_axis_mask="0, 0, 0, 0, 0" shrink_axis_mask="0, 0, 0, 0, 0" ellipsis_mask="0, 0, 0, 0, 0" />
			<input>
				<port id="0" precision="FP32">
					<dim>1</dim>
					<dim>129</dim>
					<dim>18</dim>
					<dim>12</dim>
					<dim>36</dim>
				</port>
				<port id="1" precision="I32">
					<dim>5</dim>
				</port>
				<port id="2" precision="I32">
					<dim>5</dim>
				</port>
				<port id="3" precision="I32">
					<dim>5</dim>
				</port>
			</input>
			<output>
				<port id="4" precision="FP32" names="complex_batch_normalization_4/strided_slice_15,complex_batch_normalization_4/strided_slice_15:0">
					<dim>1</dim>
					<dim>129</dim>
					<dim>18</dim>
					<dim>12</dim>
					<dim>18</dim>
				</port>
			</output>
		</layer>
		<layer id="199" name="Constant_40528" type="Const" version="opset1">
			<data element_type="i64" shape="5" offset="2880" size="40" />
			<output>
				<port id="0" precision="I64">
					<dim>5</dim>
				</port>
			</output>
		</layer>
		<layer id="200" name="Transpose_40529" type="Transpose" version="opset1">
			<input>
				<port id="0" precision="FP32">
					<dim>1</dim>
					<dim>129</dim>
					<dim>18</dim>
					<dim>12</dim>
					<dim>18</dim>
				</port>
				<port id="1" precision="I64">
					<dim>5</dim>
				</port>
			</input>
			<output>
				<port id="2" precision="FP32">
					<dim>1</dim>
					<dim>18</dim>
					<dim>129</dim>
					<dim>18</dim>
					<dim>12</dim>
				</port>
			</output>
		</layer>
		<layer id="201" name="complex_batch_normalization_4/strided_slice_14/stack" type="Const" version="opset1">
			<data element_type="i32" shape="5" offset="11044" size="20" />
			<output>
				<port id="0" precision="I32" names="complex_batch_normalization_4/strided_slice_14/stack,complex_batch_normalization_4/strided_slice_14/stack:0">
					<dim>5</dim>
				</port>
			</output>
		</layer>
		<layer id="202" name="complex_batch_normalization_4/strided_slice_14/stack_1" type="Const" version="opset1">
			<data element_type="i32" shape="5" offset="11024" size="20" />
			<output>
				<port id="0" precision="I32" names="complex_batch_normalization_4/strided_slice_14/stack_1,complex_batch_normalization_4/strided_slice_14/stack_1:0">
					<dim>5</dim>
				</port>
			</output>
		</layer>
		<layer id="203" name="complex_batch_normalization_4/strided_slice_14/stack_2" type="Const" version="opset1">
			<data element_type="i32" shape="5" offset="11064" size="20" />
			<output>
				<port id="0" precision="I32" names="complex_batch_normalization_4/strided_slice_14/stack_2,complex_batch_normalization_4/strided_slice_14/stack_2:0">
					<dim>5</dim>
				</port>
			</output>
		</layer>
		<layer id="204" name="complex_batch_normalization_4/strided_slice_14" type="StridedSlice" version="opset1">
			<data begin_mask="1, 1, 1, 1, 1" end_mask="1, 1, 1, 1, 0" new_axis_mask="0, 0, 0, 0, 0" shrink_axis_mask="0, 0, 0, 0, 0" ellipsis_mask="0, 0, 0, 0, 0" />
			<input>
				<port id="0" precision="FP32">
					<dim>1</dim>
					<dim>129</dim>
					<dim>18</dim>
					<dim>12</dim>
					<dim>36</dim>
				</port>
				<port id="1" precision="I32">
					<dim>5</dim>
				</port>
				<port id="2" precision="I32">
					<dim>5</dim>
				</port>
				<port id="3" precision="I32">
					<dim>5</dim>
				</port>
			</input>
			<output>
				<port id="4" precision="FP32" names="complex_batch_normalization_4/strided_slice_14,complex_batch_normalization_4/strided_slice_14:0">
					<dim>1</dim>
					<dim>129</dim>
					<dim>18</dim>
					<dim>12</dim>
					<dim>18</dim>
				</port>
			</output>
		</layer>
		<layer id="205" name="Constant_40530" type="Const" version="opset1">
			<data element_type="i64" shape="5" offset="2880" size="40" />
			<output>
				<port id="0" precision="I64">
					<dim>5</dim>
				</port>
			</output>
		</layer>
		<layer id="206" name="Transpose_40531" type="Transpose" version="opset1">
			<input>
				<port id="0" precision="FP32">
					<dim>1</dim>
					<dim>129</dim>
					<dim>18</dim>
					<dim>12</dim>
					<dim>18</dim>
				</port>
				<port id="1" precision="I64">
					<dim>5</dim>
				</port>
			</input>
			<output>
				<port id="2" precision="FP32">
					<dim>1</dim>
					<dim>18</dim>
					<dim>129</dim>
					<dim>18</dim>
					<dim>12</dim>
				</port>
			</output>
		</layer>
		<layer id="207" name="Transpose_40527" type="Concat" version="opset1">
			<data axis="1" />
			<input>
				<port id="0" precision="FP32">
					<dim>1</dim>
					<dim>18</dim>
					<dim>129</dim>
					<dim>18</dim>
					<dim>12</dim>
				</port>
				<port id="1" precision="FP32">
					<dim>1</dim>
					<dim>18</dim>
					<dim>129</dim>
					<dim>18</dim>
					<dim>12</dim>
				</port>
			</input>
			<output>
				<port id="2" precision="FP32" names="complex_batch_normalization_4/concat_11,complex_batch_normalization_4/concat_11:0">
					<dim>1</dim>
					<dim>36</dim>
					<dim>129</dim>
					<dim>18</dim>
					<dim>12</dim>
				</port>
			</output>
		</layer>
		<layer id="208" name="Transpose_30750" type="Multiply" version="opset1">
			<data auto_broadcast="numpy" />
			<input>
				<port id="0" precision="FP32">
					<dim>1</dim>
					<dim>36</dim>
					<dim>1</dim>
					<dim>1</dim>
					<dim>1</dim>
				</port>
				<port id="1" precision="FP32">
					<dim>1</dim>
					<dim>36</dim>
					<dim>129</dim>
					<dim>18</dim>
					<dim>12</dim>
				</port>
			</input>
			<output>
				<port id="2" precision="FP32" names="complex_batch_normalization_4/mul_26,complex_batch_normalization_4/mul_26:0">
					<dim>1</dim>
					<dim>36</dim>
					<dim>129</dim>
					<dim>18</dim>
					<dim>12</dim>
				</port>
			</output>
		</layer>
		<layer id="209" name="Transpose_30752" type="Add" version="opset1">
			<data auto_broadcast="numpy" />
			<input>
				<port id="0" precision="FP32">
					<dim>1</dim>
					<dim>36</dim>
					<dim>129</dim>
					<dim>18</dim>
					<dim>12</dim>
				</port>
				<port id="1" precision="FP32">
					<dim>1</dim>
					<dim>36</dim>
					<dim>129</dim>
					<dim>18</dim>
					<dim>12</dim>
				</port>
			</input>
			<output>
				<port id="2" precision="FP32">
					<dim>1</dim>
					<dim>36</dim>
					<dim>129</dim>
					<dim>18</dim>
					<dim>12</dim>
				</port>
			</output>
		</layer>
		<layer id="210" name="Transpose_30754" type="Const" version="opset1">
			<data element_type="f32" shape="1, 36, 1, 1, 1" offset="152388" size="144" />
			<output>
				<port id="0" precision="FP32">
					<dim>1</dim>
					<dim>36</dim>
					<dim>1</dim>
					<dim>1</dim>
					<dim>1</dim>
				</port>
			</output>
		</layer>
		<layer id="211" name="Transpose_30756" type="Add" version="opset1">
			<data auto_broadcast="numpy" />
			<input>
				<port id="0" precision="FP32">
					<dim>1</dim>
					<dim>36</dim>
					<dim>129</dim>
					<dim>18</dim>
					<dim>12</dim>
				</port>
				<port id="1" precision="FP32">
					<dim>1</dim>
					<dim>36</dim>
					<dim>1</dim>
					<dim>1</dim>
					<dim>1</dim>
				</port>
			</input>
			<output>
				<port id="2" precision="FP32">
					<dim>1</dim>
					<dim>36</dim>
					<dim>129</dim>
					<dim>18</dim>
					<dim>12</dim>
				</port>
			</output>
		</layer>
		<layer id="212" name="Relu_30757" type="ReLU" version="opset1">
			<input>
				<port id="0" precision="FP32">
					<dim>1</dim>
					<dim>36</dim>
					<dim>129</dim>
					<dim>18</dim>
					<dim>12</dim>
				</port>
			</input>
			<output>
				<port id="1" precision="FP32">
					<dim>1</dim>
					<dim>36</dim>
					<dim>129</dim>
					<dim>18</dim>
					<dim>12</dim>
				</port>
			</output>
		</layer>
		<layer id="213" name="Transpose_3123" type="Const" version="opset1">
			<data element_type="f32" shape="20, 36, 5, 3, 1" offset="152532" size="43200" />
			<output>
				<port id="0" precision="FP32">
					<dim>20</dim>
					<dim>36</dim>
					<dim>5</dim>
					<dim>3</dim>
					<dim>1</dim>
				</port>
			</output>
		</layer>
		<layer id="214" name="Convolution_3124" type="Convolution" version="opset1">
			<data strides="1, 1, 1" dilations="1, 1, 1" pads_begin="0, 0, 0" pads_end="0, 0, 0" auto_pad="same_upper" />
			<input>
				<port id="0" precision="FP32">
					<dim>1</dim>
					<dim>36</dim>
					<dim>129</dim>
					<dim>18</dim>
					<dim>12</dim>
				</port>
				<port id="1" precision="FP32">
					<dim>20</dim>
					<dim>36</dim>
					<dim>5</dim>
					<dim>3</dim>
					<dim>1</dim>
				</port>
			</input>
			<output>
				<port id="2" precision="FP32">
					<dim>1</dim>
					<dim>20</dim>
					<dim>129</dim>
					<dim>18</dim>
					<dim>12</dim>
				</port>
			</output>
		</layer>
		<layer id="215" name="Constant_42373" type="Const" version="opset1">
			<data element_type="f32" shape="1, 20, 1, 1, 1" offset="195732" size="80" />
			<output>
				<port id="0" precision="FP32">
					<dim>1</dim>
					<dim>20</dim>
					<dim>1</dim>
					<dim>1</dim>
					<dim>1</dim>
				</port>
			</output>
		</layer>
		<layer id="216" name="Transpose_30766" type="Add" version="opset1">
			<data auto_broadcast="numpy" />
			<input>
				<port id="0" precision="FP32">
					<dim>1</dim>
					<dim>20</dim>
					<dim>129</dim>
					<dim>18</dim>
					<dim>12</dim>
				</port>
				<port id="1" precision="FP32">
					<dim>1</dim>
					<dim>20</dim>
					<dim>1</dim>
					<dim>1</dim>
					<dim>1</dim>
				</port>
			</input>
			<output>
				<port id="2" precision="FP32">
					<dim>1</dim>
					<dim>20</dim>
					<dim>129</dim>
					<dim>18</dim>
					<dim>12</dim>
				</port>
			</output>
		</layer>
		<layer id="217" name="Transpose_30770" type="Multiply" version="opset1">
			<data auto_broadcast="numpy" />
			<input>
				<port id="0" precision="FP32">
					<dim>1</dim>
					<dim>20</dim>
					<dim>1</dim>
					<dim>1</dim>
					<dim>1</dim>
				</port>
				<port id="1" precision="FP32">
					<dim>1</dim>
					<dim>20</dim>
					<dim>129</dim>
					<dim>18</dim>
					<dim>12</dim>
				</port>
			</input>
			<output>
				<port id="2" precision="FP32">
					<dim>1</dim>
					<dim>20</dim>
					<dim>129</dim>
					<dim>18</dim>
					<dim>12</dim>
				</port>
			</output>
		</layer>
		<layer id="218" name="Transpose_40533" type="Const" version="opset1">
			<data element_type="f32" shape="1, 20, 1, 1, 1" offset="195812" size="80" />
			<output>
				<port id="0" precision="FP32">
					<dim>1</dim>
					<dim>20</dim>
					<dim>1</dim>
					<dim>1</dim>
					<dim>1</dim>
				</port>
			</output>
		</layer>
		<layer id="219" name="Constant_30765" type="Const" version="opset1">
			<data element_type="i64" shape="5" offset="10984" size="40" />
			<output>
				<port id="0" precision="I64">
					<dim>5</dim>
				</port>
			</output>
		</layer>
		<layer id="220" name="complex_batch_normalization_5/sub_2" type="Transpose" version="opset1">
			<input>
				<port id="0" precision="FP32">
					<dim>1</dim>
					<dim>20</dim>
					<dim>129</dim>
					<dim>18</dim>
					<dim>12</dim>
				</port>
				<port id="1" precision="I64">
					<dim>5</dim>
				</port>
			</input>
			<output>
				<port id="2" precision="FP32" names="complex_batch_normalization_5/sub_2,complex_batch_normalization_5/sub_2:0">
					<dim>1</dim>
					<dim>129</dim>
					<dim>18</dim>
					<dim>12</dim>
					<dim>20</dim>
				</port>
			</output>
		</layer>
		<layer id="221" name="complex_batch_normalization_5/strided_slice_13/stack" type="Const" version="opset1">
			<data element_type="i32" shape="5" offset="54732" size="20" />
			<output>
				<port id="0" precision="I32" names="complex_batch_normalization_5/strided_slice_13/stack,complex_batch_normalization_5/strided_slice_13/stack:0">
					<dim>5</dim>
				</port>
			</output>
		</layer>
		<layer id="222" name="complex_batch_normalization_5/strided_slice_13/stack_1" type="Const" version="opset1">
			<data element_type="i32" shape="5" offset="11044" size="20" />
			<output>
				<port id="0" precision="I32" names="complex_batch_normalization_5/strided_slice_13/stack_1,complex_batch_normalization_5/strided_slice_13/stack_1:0">
					<dim>5</dim>
				</port>
			</output>
		</layer>
		<layer id="223" name="complex_batch_normalization_5/strided_slice_13/stack_2" type="Const" version="opset1">
			<data element_type="i32" shape="5" offset="11064" size="20" />
			<output>
				<port id="0" precision="I32" names="complex_batch_normalization_5/strided_slice_13/stack_2,complex_batch_normalization_5/strided_slice_13/stack_2:0">
					<dim>5</dim>
				</port>
			</output>
		</layer>
		<layer id="224" name="complex_batch_normalization_5/strided_slice_13" type="StridedSlice" version="opset1">
			<data begin_mask="1, 1, 1, 1, 0" end_mask="1, 1, 1, 1, 1" new_axis_mask="0, 0, 0, 0, 0" shrink_axis_mask="0, 0, 0, 0, 0" ellipsis_mask="0, 0, 0, 0, 0" />
			<input>
				<port id="0" precision="FP32">
					<dim>1</dim>
					<dim>129</dim>
					<dim>18</dim>
					<dim>12</dim>
					<dim>20</dim>
				</port>
				<port id="1" precision="I32">
					<dim>5</dim>
				</port>
				<port id="2" precision="I32">
					<dim>5</dim>
				</port>
				<port id="3" precision="I32">
					<dim>5</dim>
				</port>
			</input>
			<output>
				<port id="4" precision="FP32" names="complex_batch_normalization_5/strided_slice_13,complex_batch_normalization_5/strided_slice_13:0">
					<dim>1</dim>
					<dim>129</dim>
					<dim>18</dim>
					<dim>12</dim>
					<dim>10</dim>
				</port>
			</output>
		</layer>
		<layer id="225" name="Constant_40536" type="Const" version="opset1">
			<data element_type="i64" shape="5" offset="2880" size="40" />
			<output>
				<port id="0" precision="I64">
					<dim>5</dim>
				</port>
			</output>
		</layer>
		<layer id="226" name="Transpose_40537" type="Transpose" version="opset1">
			<input>
				<port id="0" precision="FP32">
					<dim>1</dim>
					<dim>129</dim>
					<dim>18</dim>
					<dim>12</dim>
					<dim>10</dim>
				</port>
				<port id="1" precision="I64">
					<dim>5</dim>
				</port>
			</input>
			<output>
				<port id="2" precision="FP32">
					<dim>1</dim>
					<dim>10</dim>
					<dim>129</dim>
					<dim>18</dim>
					<dim>12</dim>
				</port>
			</output>
		</layer>
		<layer id="227" name="complex_batch_normalization_5/strided_slice_12/stack" type="Const" version="opset1">
			<data element_type="i32" shape="5" offset="11044" size="20" />
			<output>
				<port id="0" precision="I32" names="complex_batch_normalization_5/strided_slice_12/stack,complex_batch_normalization_5/strided_slice_12/stack:0">
					<dim>5</dim>
				</port>
			</output>
		</layer>
		<layer id="228" name="complex_batch_normalization_5/strided_slice_12/stack_1" type="Const" version="opset1">
			<data element_type="i32" shape="5" offset="54732" size="20" />
			<output>
				<port id="0" precision="I32" names="complex_batch_normalization_5/strided_slice_12/stack_1,complex_batch_normalization_5/strided_slice_12/stack_1:0">
					<dim>5</dim>
				</port>
			</output>
		</layer>
		<layer id="229" name="complex_batch_normalization_5/strided_slice_12/stack_2" type="Const" version="opset1">
			<data element_type="i32" shape="5" offset="11064" size="20" />
			<output>
				<port id="0" precision="I32" names="complex_batch_normalization_5/strided_slice_12/stack_2,complex_batch_normalization_5/strided_slice_12/stack_2:0">
					<dim>5</dim>
				</port>
			</output>
		</layer>
		<layer id="230" name="complex_batch_normalization_5/strided_slice_12" type="StridedSlice" version="opset1">
			<data begin_mask="1, 1, 1, 1, 1" end_mask="1, 1, 1, 1, 0" new_axis_mask="0, 0, 0, 0, 0" shrink_axis_mask="0, 0, 0, 0, 0" ellipsis_mask="0, 0, 0, 0, 0" />
			<input>
				<port id="0" precision="FP32">
					<dim>1</dim>
					<dim>129</dim>
					<dim>18</dim>
					<dim>12</dim>
					<dim>20</dim>
				</port>
				<port id="1" precision="I32">
					<dim>5</dim>
				</port>
				<port id="2" precision="I32">
					<dim>5</dim>
				</port>
				<port id="3" precision="I32">
					<dim>5</dim>
				</port>
			</input>
			<output>
				<port id="4" precision="FP32" names="complex_batch_normalization_5/strided_slice_12,complex_batch_normalization_5/strided_slice_12:0">
					<dim>1</dim>
					<dim>129</dim>
					<dim>18</dim>
					<dim>12</dim>
					<dim>10</dim>
				</port>
			</output>
		</layer>
		<layer id="231" name="Constant_40538" type="Const" version="opset1">
			<data element_type="i64" shape="5" offset="2880" size="40" />
			<output>
				<port id="0" precision="I64">
					<dim>5</dim>
				</port>
			</output>
		</layer>
		<layer id="232" name="Transpose_40539" type="Transpose" version="opset1">
			<input>
				<port id="0" precision="FP32">
					<dim>1</dim>
					<dim>129</dim>
					<dim>18</dim>
					<dim>12</dim>
					<dim>10</dim>
				</port>
				<port id="1" precision="I64">
					<dim>5</dim>
				</port>
			</input>
			<output>
				<port id="2" precision="FP32">
					<dim>1</dim>
					<dim>10</dim>
					<dim>129</dim>
					<dim>18</dim>
					<dim>12</dim>
				</port>
			</output>
		</layer>
		<layer id="233" name="Transpose_40535" type="Concat" version="opset1">
			<data axis="1" />
			<input>
				<port id="0" precision="FP32">
					<dim>1</dim>
					<dim>10</dim>
					<dim>129</dim>
					<dim>18</dim>
					<dim>12</dim>
				</port>
				<port id="1" precision="FP32">
					<dim>1</dim>
					<dim>10</dim>
					<dim>129</dim>
					<dim>18</dim>
					<dim>12</dim>
				</port>
			</input>
			<output>
				<port id="2" precision="FP32" names="complex_batch_normalization_5/concat_8,complex_batch_normalization_5/concat_8:0">
					<dim>1</dim>
					<dim>20</dim>
					<dim>129</dim>
					<dim>18</dim>
					<dim>12</dim>
				</port>
			</output>
		</layer>
		<layer id="234" name="Transpose_30772" type="Multiply" version="opset1">
			<data auto_broadcast="numpy" />
			<input>
				<port id="0" precision="FP32">
					<dim>1</dim>
					<dim>20</dim>
					<dim>1</dim>
					<dim>1</dim>
					<dim>1</dim>
				</port>
				<port id="1" precision="FP32">
					<dim>1</dim>
					<dim>20</dim>
					<dim>129</dim>
					<dim>18</dim>
					<dim>12</dim>
				</port>
			</input>
			<output>
				<port id="2" precision="FP32" names="complex_batch_normalization_5/mul_24,complex_batch_normalization_5/mul_24:0">
					<dim>1</dim>
					<dim>20</dim>
					<dim>129</dim>
					<dim>18</dim>
					<dim>12</dim>
				</port>
			</output>
		</layer>
		<layer id="235" name="Transpose_30774" type="Add" version="opset1">
			<data auto_broadcast="numpy" />
			<input>
				<port id="0" precision="FP32">
					<dim>1</dim>
					<dim>20</dim>
					<dim>129</dim>
					<dim>18</dim>
					<dim>12</dim>
				</port>
				<port id="1" precision="FP32">
					<dim>1</dim>
					<dim>20</dim>
					<dim>129</dim>
					<dim>18</dim>
					<dim>12</dim>
				</port>
			</input>
			<output>
				<port id="2" precision="FP32">
					<dim>1</dim>
					<dim>20</dim>
					<dim>129</dim>
					<dim>18</dim>
					<dim>12</dim>
				</port>
			</output>
		</layer>
		<layer id="236" name="Transpose_30778" type="Multiply" version="opset1">
			<data auto_broadcast="numpy" />
			<input>
				<port id="0" precision="FP32">
					<dim>1</dim>
					<dim>20</dim>
					<dim>1</dim>
					<dim>1</dim>
					<dim>1</dim>
				</port>
				<port id="1" precision="FP32">
					<dim>1</dim>
					<dim>20</dim>
					<dim>129</dim>
					<dim>18</dim>
					<dim>12</dim>
				</port>
			</input>
			<output>
				<port id="2" precision="FP32">
					<dim>1</dim>
					<dim>20</dim>
					<dim>129</dim>
					<dim>18</dim>
					<dim>12</dim>
				</port>
			</output>
		</layer>
		<layer id="237" name="Transpose_40541" type="Const" version="opset1">
			<data element_type="f32" shape="1, 20, 1, 1, 1" offset="195892" size="80" />
			<output>
				<port id="0" precision="FP32">
					<dim>1</dim>
					<dim>20</dim>
					<dim>1</dim>
					<dim>1</dim>
					<dim>1</dim>
				</port>
			</output>
		</layer>
		<layer id="238" name="Constant_30773" type="Const" version="opset1">
			<data element_type="i64" shape="5" offset="10984" size="40" />
			<output>
				<port id="0" precision="I64">
					<dim>5</dim>
				</port>
			</output>
		</layer>
		<layer id="239" name="complex_batch_normalization_5/add_13" type="Transpose" version="opset1">
			<input>
				<port id="0" precision="FP32">
					<dim>1</dim>
					<dim>20</dim>
					<dim>129</dim>
					<dim>18</dim>
					<dim>12</dim>
				</port>
				<port id="1" precision="I64">
					<dim>5</dim>
				</port>
			</input>
			<output>
				<port id="2" precision="FP32" names="complex_batch_normalization_5/add_13,complex_batch_normalization_5/add_13:0">
					<dim>1</dim>
					<dim>129</dim>
					<dim>18</dim>
					<dim>12</dim>
					<dim>20</dim>
				</port>
			</output>
		</layer>
		<layer id="240" name="complex_batch_normalization_5/strided_slice_15/stack" type="Const" version="opset1">
			<data element_type="i32" shape="5" offset="54732" size="20" />
			<output>
				<port id="0" precision="I32" names="complex_batch_normalization_5/strided_slice_15/stack,complex_batch_normalization_5/strided_slice_15/stack:0">
					<dim>5</dim>
				</port>
			</output>
		</layer>
		<layer id="241" name="complex_batch_normalization_5/strided_slice_15/stack_1" type="Const" version="opset1">
			<data element_type="i32" shape="5" offset="11044" size="20" />
			<output>
				<port id="0" precision="I32" names="complex_batch_normalization_5/strided_slice_15/stack_1,complex_batch_normalization_5/strided_slice_15/stack_1:0">
					<dim>5</dim>
				</port>
			</output>
		</layer>
		<layer id="242" name="complex_batch_normalization_5/strided_slice_15/stack_2" type="Const" version="opset1">
			<data element_type="i32" shape="5" offset="11064" size="20" />
			<output>
				<port id="0" precision="I32" names="complex_batch_normalization_5/strided_slice_15/stack_2,complex_batch_normalization_5/strided_slice_15/stack_2:0">
					<dim>5</dim>
				</port>
			</output>
		</layer>
		<layer id="243" name="complex_batch_normalization_5/strided_slice_15" type="StridedSlice" version="opset1">
			<data begin_mask="1, 1, 1, 1, 0" end_mask="1, 1, 1, 1, 1" new_axis_mask="0, 0, 0, 0, 0" shrink_axis_mask="0, 0, 0, 0, 0" ellipsis_mask="0, 0, 0, 0, 0" />
			<input>
				<port id="0" precision="FP32">
					<dim>1</dim>
					<dim>129</dim>
					<dim>18</dim>
					<dim>12</dim>
					<dim>20</dim>
				</port>
				<port id="1" precision="I32">
					<dim>5</dim>
				</port>
				<port id="2" precision="I32">
					<dim>5</dim>
				</port>
				<port id="3" precision="I32">
					<dim>5</dim>
				</port>
			</input>
			<output>
				<port id="4" precision="FP32" names="complex_batch_normalization_5/strided_slice_15,complex_batch_normalization_5/strided_slice_15:0">
					<dim>1</dim>
					<dim>129</dim>
					<dim>18</dim>
					<dim>12</dim>
					<dim>10</dim>
				</port>
			</output>
		</layer>
		<layer id="244" name="Constant_40544" type="Const" version="opset1">
			<data element_type="i64" shape="5" offset="2880" size="40" />
			<output>
				<port id="0" precision="I64">
					<dim>5</dim>
				</port>
			</output>
		</layer>
		<layer id="245" name="Transpose_40545" type="Transpose" version="opset1">
			<input>
				<port id="0" precision="FP32">
					<dim>1</dim>
					<dim>129</dim>
					<dim>18</dim>
					<dim>12</dim>
					<dim>10</dim>
				</port>
				<port id="1" precision="I64">
					<dim>5</dim>
				</port>
			</input>
			<output>
				<port id="2" precision="FP32">
					<dim>1</dim>
					<dim>10</dim>
					<dim>129</dim>
					<dim>18</dim>
					<dim>12</dim>
				</port>
			</output>
		</layer>
		<layer id="246" name="complex_batch_normalization_5/strided_slice_14/stack" type="Const" version="opset1">
			<data element_type="i32" shape="5" offset="11044" size="20" />
			<output>
				<port id="0" precision="I32" names="complex_batch_normalization_5/strided_slice_14/stack,complex_batch_normalization_5/strided_slice_14/stack:0">
					<dim>5</dim>
				</port>
			</output>
		</layer>
		<layer id="247" name="complex_batch_normalization_5/strided_slice_14/stack_1" type="Const" version="opset1">
			<data element_type="i32" shape="5" offset="54732" size="20" />
			<output>
				<port id="0" precision="I32" names="complex_batch_normalization_5/strided_slice_14/stack_1,complex_batch_normalization_5/strided_slice_14/stack_1:0">
					<dim>5</dim>
				</port>
			</output>
		</layer>
		<layer id="248" name="complex_batch_normalization_5/strided_slice_14/stack_2" type="Const" version="opset1">
			<data element_type="i32" shape="5" offset="11064" size="20" />
			<output>
				<port id="0" precision="I32" names="complex_batch_normalization_5/strided_slice_14/stack_2,complex_batch_normalization_5/strided_slice_14/stack_2:0">
					<dim>5</dim>
				</port>
			</output>
		</layer>
		<layer id="249" name="complex_batch_normalization_5/strided_slice_14" type="StridedSlice" version="opset1">
			<data begin_mask="1, 1, 1, 1, 1" end_mask="1, 1, 1, 1, 0" new_axis_mask="0, 0, 0, 0, 0" shrink_axis_mask="0, 0, 0, 0, 0" ellipsis_mask="0, 0, 0, 0, 0" />
			<input>
				<port id="0" precision="FP32">
					<dim>1</dim>
					<dim>129</dim>
					<dim>18</dim>
					<dim>12</dim>
					<dim>20</dim>
				</port>
				<port id="1" precision="I32">
					<dim>5</dim>
				</port>
				<port id="2" precision="I32">
					<dim>5</dim>
				</port>
				<port id="3" precision="I32">
					<dim>5</dim>
				</port>
			</input>
			<output>
				<port id="4" precision="FP32" names="complex_batch_normalization_5/strided_slice_14,complex_batch_normalization_5/strided_slice_14:0">
					<dim>1</dim>
					<dim>129</dim>
					<dim>18</dim>
					<dim>12</dim>
					<dim>10</dim>
				</port>
			</output>
		</layer>
		<layer id="250" name="Constant_40546" type="Const" version="opset1">
			<data element_type="i64" shape="5" offset="2880" size="40" />
			<output>
				<port id="0" precision="I64">
					<dim>5</dim>
				</port>
			</output>
		</layer>
		<layer id="251" name="Transpose_40547" type="Transpose" version="opset1">
			<input>
				<port id="0" precision="FP32">
					<dim>1</dim>
					<dim>129</dim>
					<dim>18</dim>
					<dim>12</dim>
					<dim>10</dim>
				</port>
				<port id="1" precision="I64">
					<dim>5</dim>
				</port>
			</input>
			<output>
				<port id="2" precision="FP32">
					<dim>1</dim>
					<dim>10</dim>
					<dim>129</dim>
					<dim>18</dim>
					<dim>12</dim>
				</port>
			</output>
		</layer>
		<layer id="252" name="Transpose_40543" type="Concat" version="opset1">
			<data axis="1" />
			<input>
				<port id="0" precision="FP32">
					<dim>1</dim>
					<dim>10</dim>
					<dim>129</dim>
					<dim>18</dim>
					<dim>12</dim>
				</port>
				<port id="1" precision="FP32">
					<dim>1</dim>
					<dim>10</dim>
					<dim>129</dim>
					<dim>18</dim>
					<dim>12</dim>
				</port>
			</input>
			<output>
				<port id="2" precision="FP32" names="complex_batch_normalization_5/concat_11,complex_batch_normalization_5/concat_11:0">
					<dim>1</dim>
					<dim>20</dim>
					<dim>129</dim>
					<dim>18</dim>
					<dim>12</dim>
				</port>
			</output>
		</layer>
		<layer id="253" name="Transpose_30780" type="Multiply" version="opset1">
			<data auto_broadcast="numpy" />
			<input>
				<port id="0" precision="FP32">
					<dim>1</dim>
					<dim>20</dim>
					<dim>1</dim>
					<dim>1</dim>
					<dim>1</dim>
				</port>
				<port id="1" precision="FP32">
					<dim>1</dim>
					<dim>20</dim>
					<dim>129</dim>
					<dim>18</dim>
					<dim>12</dim>
				</port>
			</input>
			<output>
				<port id="2" precision="FP32" names="complex_batch_normalization_5/mul_26,complex_batch_normalization_5/mul_26:0">
					<dim>1</dim>
					<dim>20</dim>
					<dim>129</dim>
					<dim>18</dim>
					<dim>12</dim>
				</port>
			</output>
		</layer>
		<layer id="254" name="Transpose_30782" type="Add" version="opset1">
			<data auto_broadcast="numpy" />
			<input>
				<port id="0" precision="FP32">
					<dim>1</dim>
					<dim>20</dim>
					<dim>129</dim>
					<dim>18</dim>
					<dim>12</dim>
				</port>
				<port id="1" precision="FP32">
					<dim>1</dim>
					<dim>20</dim>
					<dim>129</dim>
					<dim>18</dim>
					<dim>12</dim>
				</port>
			</input>
			<output>
				<port id="2" precision="FP32">
					<dim>1</dim>
					<dim>20</dim>
					<dim>129</dim>
					<dim>18</dim>
					<dim>12</dim>
				</port>
			</output>
		</layer>
		<layer id="255" name="Transpose_30784" type="Const" version="opset1">
			<data element_type="f32" shape="1, 20, 1, 1, 1" offset="195972" size="80" />
			<output>
				<port id="0" precision="FP32">
					<dim>1</dim>
					<dim>20</dim>
					<dim>1</dim>
					<dim>1</dim>
					<dim>1</dim>
				</port>
			</output>
		</layer>
		<layer id="256" name="Transpose_30786" type="Add" version="opset1">
			<data auto_broadcast="numpy" />
			<input>
				<port id="0" precision="FP32">
					<dim>1</dim>
					<dim>20</dim>
					<dim>129</dim>
					<dim>18</dim>
					<dim>12</dim>
				</port>
				<port id="1" precision="FP32">
					<dim>1</dim>
					<dim>20</dim>
					<dim>1</dim>
					<dim>1</dim>
					<dim>1</dim>
				</port>
			</input>
			<output>
				<port id="2" precision="FP32">
					<dim>1</dim>
					<dim>20</dim>
					<dim>129</dim>
					<dim>18</dim>
					<dim>12</dim>
				</port>
			</output>
		</layer>
		<layer id="257" name="Relu_30787" type="ReLU" version="opset1">
			<input>
				<port id="0" precision="FP32">
					<dim>1</dim>
					<dim>20</dim>
					<dim>129</dim>
					<dim>18</dim>
					<dim>12</dim>
				</port>
			</input>
			<output>
				<port id="1" precision="FP32">
					<dim>1</dim>
					<dim>20</dim>
					<dim>129</dim>
					<dim>18</dim>
					<dim>12</dim>
				</port>
			</output>
		</layer>
		<layer id="258" name="Transpose_3781" type="Const" version="opset1">
			<data element_type="f32" shape="16, 20, 9, 3, 1" offset="196052" size="34560" />
			<output>
				<port id="0" precision="FP32">
					<dim>16</dim>
					<dim>20</dim>
					<dim>9</dim>
					<dim>3</dim>
					<dim>1</dim>
				</port>
			</output>
		</layer>
		<layer id="259" name="Convolution_3782" type="Convolution" version="opset1">
			<data strides="1, 1, 1" dilations="1, 1, 1" pads_begin="0, 0, 0" pads_end="0, 0, 0" auto_pad="same_upper" />
			<input>
				<port id="0" precision="FP32">
					<dim>1</dim>
					<dim>20</dim>
					<dim>129</dim>
					<dim>18</dim>
					<dim>12</dim>
				</port>
				<port id="1" precision="FP32">
					<dim>16</dim>
					<dim>20</dim>
					<dim>9</dim>
					<dim>3</dim>
					<dim>1</dim>
				</port>
			</input>
			<output>
				<port id="2" precision="FP32">
					<dim>1</dim>
					<dim>16</dim>
					<dim>129</dim>
					<dim>18</dim>
					<dim>12</dim>
				</port>
			</output>
		</layer>
		<layer id="260" name="Constant_42376" type="Const" version="opset1">
			<data element_type="f32" shape="1, 16, 1, 1, 1" offset="230612" size="64" />
			<output>
				<port id="0" precision="FP32">
					<dim>1</dim>
					<dim>16</dim>
					<dim>1</dim>
					<dim>1</dim>
					<dim>1</dim>
				</port>
			</output>
		</layer>
		<layer id="261" name="Transpose_30796" type="Add" version="opset1">
			<data auto_broadcast="numpy" />
			<input>
				<port id="0" precision="FP32">
					<dim>1</dim>
					<dim>16</dim>
					<dim>129</dim>
					<dim>18</dim>
					<dim>12</dim>
				</port>
				<port id="1" precision="FP32">
					<dim>1</dim>
					<dim>16</dim>
					<dim>1</dim>
					<dim>1</dim>
					<dim>1</dim>
				</port>
			</input>
			<output>
				<port id="2" precision="FP32">
					<dim>1</dim>
					<dim>16</dim>
					<dim>129</dim>
					<dim>18</dim>
					<dim>12</dim>
				</port>
			</output>
		</layer>
		<layer id="262" name="Transpose_30800" type="Multiply" version="opset1">
			<data auto_broadcast="numpy" />
			<input>
				<port id="0" precision="FP32">
					<dim>1</dim>
					<dim>16</dim>
					<dim>1</dim>
					<dim>1</dim>
					<dim>1</dim>
				</port>
				<port id="1" precision="FP32">
					<dim>1</dim>
					<dim>16</dim>
					<dim>129</dim>
					<dim>18</dim>
					<dim>12</dim>
				</port>
			</input>
			<output>
				<port id="2" precision="FP32">
					<dim>1</dim>
					<dim>16</dim>
					<dim>129</dim>
					<dim>18</dim>
					<dim>12</dim>
				</port>
			</output>
		</layer>
		<layer id="263" name="Transpose_40549" type="Const" version="opset1">
			<data element_type="f32" shape="1, 16, 1, 1, 1" offset="230676" size="64" />
			<output>
				<port id="0" precision="FP32">
					<dim>1</dim>
					<dim>16</dim>
					<dim>1</dim>
					<dim>1</dim>
					<dim>1</dim>
				</port>
			</output>
		</layer>
		<layer id="264" name="Constant_30795" type="Const" version="opset1">
			<data element_type="i64" shape="5" offset="10984" size="40" />
			<output>
				<port id="0" precision="I64">
					<dim>5</dim>
				</port>
			</output>
		</layer>
		<layer id="265" name="complex_batch_normalization_6/sub_2" type="Transpose" version="opset1">
			<input>
				<port id="0" precision="FP32">
					<dim>1</dim>
					<dim>16</dim>
					<dim>129</dim>
					<dim>18</dim>
					<dim>12</dim>
				</port>
				<port id="1" precision="I64">
					<dim>5</dim>
				</port>
			</input>
			<output>
				<port id="2" precision="FP32" names="complex_batch_normalization_6/sub_2,complex_batch_normalization_6/sub_2:0">
					<dim>1</dim>
					<dim>129</dim>
					<dim>18</dim>
					<dim>12</dim>
					<dim>16</dim>
				</port>
			</output>
		</layer>
		<layer id="266" name="complex_batch_normalization_6/strided_slice_13/stack" type="Const" version="opset1">
			<data element_type="i32" shape="5" offset="89600" size="20" />
			<output>
				<port id="0" precision="I32" names="complex_batch_normalization_6/strided_slice_13/stack,complex_batch_normalization_6/strided_slice_13/stack:0">
					<dim>5</dim>
				</port>
			</output>
		</layer>
		<layer id="267" name="complex_batch_normalization_6/strided_slice_13/stack_1" type="Const" version="opset1">
			<data element_type="i32" shape="5" offset="11044" size="20" />
			<output>
				<port id="0" precision="I32" names="complex_batch_normalization_6/strided_slice_13/stack_1,complex_batch_normalization_6/strided_slice_13/stack_1:0">
					<dim>5</dim>
				</port>
			</output>
		</layer>
		<layer id="268" name="complex_batch_normalization_6/strided_slice_13/stack_2" type="Const" version="opset1">
			<data element_type="i32" shape="5" offset="11064" size="20" />
			<output>
				<port id="0" precision="I32" names="complex_batch_normalization_6/strided_slice_13/stack_2,complex_batch_normalization_6/strided_slice_13/stack_2:0">
					<dim>5</dim>
				</port>
			</output>
		</layer>
		<layer id="269" name="complex_batch_normalization_6/strided_slice_13" type="StridedSlice" version="opset1">
			<data begin_mask="1, 1, 1, 1, 0" end_mask="1, 1, 1, 1, 1" new_axis_mask="0, 0, 0, 0, 0" shrink_axis_mask="0, 0, 0, 0, 0" ellipsis_mask="0, 0, 0, 0, 0" />
			<input>
				<port id="0" precision="FP32">
					<dim>1</dim>
					<dim>129</dim>
					<dim>18</dim>
					<dim>12</dim>
					<dim>16</dim>
				</port>
				<port id="1" precision="I32">
					<dim>5</dim>
				</port>
				<port id="2" precision="I32">
					<dim>5</dim>
				</port>
				<port id="3" precision="I32">
					<dim>5</dim>
				</port>
			</input>
			<output>
				<port id="4" precision="FP32" names="complex_batch_normalization_6/strided_slice_13,complex_batch_normalization_6/strided_slice_13:0">
					<dim>1</dim>
					<dim>129</dim>
					<dim>18</dim>
					<dim>12</dim>
					<dim>8</dim>
				</port>
			</output>
		</layer>
		<layer id="270" name="Constant_40552" type="Const" version="opset1">
			<data element_type="i64" shape="5" offset="2880" size="40" />
			<output>
				<port id="0" precision="I64">
					<dim>5</dim>
				</port>
			</output>
		</layer>
		<layer id="271" name="Transpose_40553" type="Transpose" version="opset1">
			<input>
				<port id="0" precision="FP32">
					<dim>1</dim>
					<dim>129</dim>
					<dim>18</dim>
					<dim>12</dim>
					<dim>8</dim>
				</port>
				<port id="1" precision="I64">
					<dim>5</dim>
				</port>
			</input>
			<output>
				<port id="2" precision="FP32">
					<dim>1</dim>
					<dim>8</dim>
					<dim>129</dim>
					<dim>18</dim>
					<dim>12</dim>
				</port>
			</output>
		</layer>
		<layer id="272" name="complex_batch_normalization_6/strided_slice_12/stack" type="Const" version="opset1">
			<data element_type="i32" shape="5" offset="11044" size="20" />
			<output>
				<port id="0" precision="I32" names="complex_batch_normalization_6/strided_slice_12/stack,complex_batch_normalization_6/strided_slice_12/stack:0">
					<dim>5</dim>
				</port>
			</output>
		</layer>
		<layer id="273" name="complex_batch_normalization_6/strided_slice_12/stack_1" type="Const" version="opset1">
			<data element_type="i32" shape="5" offset="89600" size="20" />
			<output>
				<port id="0" precision="I32" names="complex_batch_normalization_6/strided_slice_12/stack_1,complex_batch_normalization_6/strided_slice_12/stack_1:0">
					<dim>5</dim>
				</port>
			</output>
		</layer>
		<layer id="274" name="complex_batch_normalization_6/strided_slice_12/stack_2" type="Const" version="opset1">
			<data element_type="i32" shape="5" offset="11064" size="20" />
			<output>
				<port id="0" precision="I32" names="complex_batch_normalization_6/strided_slice_12/stack_2,complex_batch_normalization_6/strided_slice_12/stack_2:0">
					<dim>5</dim>
				</port>
			</output>
		</layer>
		<layer id="275" name="complex_batch_normalization_6/strided_slice_12" type="StridedSlice" version="opset1">
			<data begin_mask="1, 1, 1, 1, 1" end_mask="1, 1, 1, 1, 0" new_axis_mask="0, 0, 0, 0, 0" shrink_axis_mask="0, 0, 0, 0, 0" ellipsis_mask="0, 0, 0, 0, 0" />
			<input>
				<port id="0" precision="FP32">
					<dim>1</dim>
					<dim>129</dim>
					<dim>18</dim>
					<dim>12</dim>
					<dim>16</dim>
				</port>
				<port id="1" precision="I32">
					<dim>5</dim>
				</port>
				<port id="2" precision="I32">
					<dim>5</dim>
				</port>
				<port id="3" precision="I32">
					<dim>5</dim>
				</port>
			</input>
			<output>
				<port id="4" precision="FP32" names="complex_batch_normalization_6/strided_slice_12,complex_batch_normalization_6/strided_slice_12:0">
					<dim>1</dim>
					<dim>129</dim>
					<dim>18</dim>
					<dim>12</dim>
					<dim>8</dim>
				</port>
			</output>
		</layer>
		<layer id="276" name="Constant_40554" type="Const" version="opset1">
			<data element_type="i64" shape="5" offset="2880" size="40" />
			<output>
				<port id="0" precision="I64">
					<dim>5</dim>
				</port>
			</output>
		</layer>
		<layer id="277" name="Transpose_40555" type="Transpose" version="opset1">
			<input>
				<port id="0" precision="FP32">
					<dim>1</dim>
					<dim>129</dim>
					<dim>18</dim>
					<dim>12</dim>
					<dim>8</dim>
				</port>
				<port id="1" precision="I64">
					<dim>5</dim>
				</port>
			</input>
			<output>
				<port id="2" precision="FP32">
					<dim>1</dim>
					<dim>8</dim>
					<dim>129</dim>
					<dim>18</dim>
					<dim>12</dim>
				</port>
			</output>
		</layer>
		<layer id="278" name="Transpose_40551" type="Concat" version="opset1">
			<data axis="1" />
			<input>
				<port id="0" precision="FP32">
					<dim>1</dim>
					<dim>8</dim>
					<dim>129</dim>
					<dim>18</dim>
					<dim>12</dim>
				</port>
				<port id="1" precision="FP32">
					<dim>1</dim>
					<dim>8</dim>
					<dim>129</dim>
					<dim>18</dim>
					<dim>12</dim>
				</port>
			</input>
			<output>
				<port id="2" precision="FP32" names="complex_batch_normalization_6/concat_8,complex_batch_normalization_6/concat_8:0">
					<dim>1</dim>
					<dim>16</dim>
					<dim>129</dim>
					<dim>18</dim>
					<dim>12</dim>
				</port>
			</output>
		</layer>
		<layer id="279" name="Transpose_30802" type="Multiply" version="opset1">
			<data auto_broadcast="numpy" />
			<input>
				<port id="0" precision="FP32">
					<dim>1</dim>
					<dim>16</dim>
					<dim>1</dim>
					<dim>1</dim>
					<dim>1</dim>
				</port>
				<port id="1" precision="FP32">
					<dim>1</dim>
					<dim>16</dim>
					<dim>129</dim>
					<dim>18</dim>
					<dim>12</dim>
				</port>
			</input>
			<output>
				<port id="2" precision="FP32" names="complex_batch_normalization_6/mul_24,complex_batch_normalization_6/mul_24:0">
					<dim>1</dim>
					<dim>16</dim>
					<dim>129</dim>
					<dim>18</dim>
					<dim>12</dim>
				</port>
			</output>
		</layer>
		<layer id="280" name="Transpose_30804" type="Add" version="opset1">
			<data auto_broadcast="numpy" />
			<input>
				<port id="0" precision="FP32">
					<dim>1</dim>
					<dim>16</dim>
					<dim>129</dim>
					<dim>18</dim>
					<dim>12</dim>
				</port>
				<port id="1" precision="FP32">
					<dim>1</dim>
					<dim>16</dim>
					<dim>129</dim>
					<dim>18</dim>
					<dim>12</dim>
				</port>
			</input>
			<output>
				<port id="2" precision="FP32">
					<dim>1</dim>
					<dim>16</dim>
					<dim>129</dim>
					<dim>18</dim>
					<dim>12</dim>
				</port>
			</output>
		</layer>
		<layer id="281" name="Transpose_30808" type="Multiply" version="opset1">
			<data auto_broadcast="numpy" />
			<input>
				<port id="0" precision="FP32">
					<dim>1</dim>
					<dim>16</dim>
					<dim>1</dim>
					<dim>1</dim>
					<dim>1</dim>
				</port>
				<port id="1" precision="FP32">
					<dim>1</dim>
					<dim>16</dim>
					<dim>129</dim>
					<dim>18</dim>
					<dim>12</dim>
				</port>
			</input>
			<output>
				<port id="2" precision="FP32">
					<dim>1</dim>
					<dim>16</dim>
					<dim>129</dim>
					<dim>18</dim>
					<dim>12</dim>
				</port>
			</output>
		</layer>
		<layer id="282" name="Transpose_40557" type="Const" version="opset1">
			<data element_type="f32" shape="1, 16, 1, 1, 1" offset="230740" size="64" />
			<output>
				<port id="0" precision="FP32">
					<dim>1</dim>
					<dim>16</dim>
					<dim>1</dim>
					<dim>1</dim>
					<dim>1</dim>
				</port>
			</output>
		</layer>
		<layer id="283" name="Constant_30803" type="Const" version="opset1">
			<data element_type="i64" shape="5" offset="10984" size="40" />
			<output>
				<port id="0" precision="I64">
					<dim>5</dim>
				</port>
			</output>
		</layer>
		<layer id="284" name="complex_batch_normalization_6/add_13" type="Transpose" version="opset1">
			<input>
				<port id="0" precision="FP32">
					<dim>1</dim>
					<dim>16</dim>
					<dim>129</dim>
					<dim>18</dim>
					<dim>12</dim>
				</port>
				<port id="1" precision="I64">
					<dim>5</dim>
				</port>
			</input>
			<output>
				<port id="2" precision="FP32" names="complex_batch_normalization_6/add_13,complex_batch_normalization_6/add_13:0">
					<dim>1</dim>
					<dim>129</dim>
					<dim>18</dim>
					<dim>12</dim>
					<dim>16</dim>
				</port>
			</output>
		</layer>
		<layer id="285" name="complex_batch_normalization_6/strided_slice_15/stack" type="Const" version="opset1">
			<data element_type="i32" shape="5" offset="89600" size="20" />
			<output>
				<port id="0" precision="I32" names="complex_batch_normalization_6/strided_slice_15/stack,complex_batch_normalization_6/strided_slice_15/stack:0">
					<dim>5</dim>
				</port>
			</output>
		</layer>
		<layer id="286" name="complex_batch_normalization_6/strided_slice_15/stack_1" type="Const" version="opset1">
			<data element_type="i32" shape="5" offset="11044" size="20" />
			<output>
				<port id="0" precision="I32" names="complex_batch_normalization_6/strided_slice_15/stack_1,complex_batch_normalization_6/strided_slice_15/stack_1:0">
					<dim>5</dim>
				</port>
			</output>
		</layer>
		<layer id="287" name="complex_batch_normalization_6/strided_slice_15/stack_2" type="Const" version="opset1">
			<data element_type="i32" shape="5" offset="11064" size="20" />
			<output>
				<port id="0" precision="I32" names="complex_batch_normalization_6/strided_slice_15/stack_2,complex_batch_normalization_6/strided_slice_15/stack_2:0">
					<dim>5</dim>
				</port>
			</output>
		</layer>
		<layer id="288" name="complex_batch_normalization_6/strided_slice_15" type="StridedSlice" version="opset1">
			<data begin_mask="1, 1, 1, 1, 0" end_mask="1, 1, 1, 1, 1" new_axis_mask="0, 0, 0, 0, 0" shrink_axis_mask="0, 0, 0, 0, 0" ellipsis_mask="0, 0, 0, 0, 0" />
			<input>
				<port id="0" precision="FP32">
					<dim>1</dim>
					<dim>129</dim>
					<dim>18</dim>
					<dim>12</dim>
					<dim>16</dim>
				</port>
				<port id="1" precision="I32">
					<dim>5</dim>
				</port>
				<port id="2" precision="I32">
					<dim>5</dim>
				</port>
				<port id="3" precision="I32">
					<dim>5</dim>
				</port>
			</input>
			<output>
				<port id="4" precision="FP32" names="complex_batch_normalization_6/strided_slice_15,complex_batch_normalization_6/strided_slice_15:0">
					<dim>1</dim>
					<dim>129</dim>
					<dim>18</dim>
					<dim>12</dim>
					<dim>8</dim>
				</port>
			</output>
		</layer>
		<layer id="289" name="Constant_40560" type="Const" version="opset1">
			<data element_type="i64" shape="5" offset="2880" size="40" />
			<output>
				<port id="0" precision="I64">
					<dim>5</dim>
				</port>
			</output>
		</layer>
		<layer id="290" name="Transpose_40561" type="Transpose" version="opset1">
			<input>
				<port id="0" precision="FP32">
					<dim>1</dim>
					<dim>129</dim>
					<dim>18</dim>
					<dim>12</dim>
					<dim>8</dim>
				</port>
				<port id="1" precision="I64">
					<dim>5</dim>
				</port>
			</input>
			<output>
				<port id="2" precision="FP32">
					<dim>1</dim>
					<dim>8</dim>
					<dim>129</dim>
					<dim>18</dim>
					<dim>12</dim>
				</port>
			</output>
		</layer>
		<layer id="291" name="complex_batch_normalization_6/strided_slice_14/stack" type="Const" version="opset1">
			<data element_type="i32" shape="5" offset="11044" size="20" />
			<output>
				<port id="0" precision="I32" names="complex_batch_normalization_6/strided_slice_14/stack,complex_batch_normalization_6/strided_slice_14/stack:0">
					<dim>5</dim>
				</port>
			</output>
		</layer>
		<layer id="292" name="complex_batch_normalization_6/strided_slice_14/stack_1" type="Const" version="opset1">
			<data element_type="i32" shape="5" offset="89600" size="20" />
			<output>
				<port id="0" precision="I32" names="complex_batch_normalization_6/strided_slice_14/stack_1,complex_batch_normalization_6/strided_slice_14/stack_1:0">
					<dim>5</dim>
				</port>
			</output>
		</layer>
		<layer id="293" name="complex_batch_normalization_6/strided_slice_14/stack_2" type="Const" version="opset1">
			<data element_type="i32" shape="5" offset="11064" size="20" />
			<output>
				<port id="0" precision="I32" names="complex_batch_normalization_6/strided_slice_14/stack_2,complex_batch_normalization_6/strided_slice_14/stack_2:0">
					<dim>5</dim>
				</port>
			</output>
		</layer>
		<layer id="294" name="complex_batch_normalization_6/strided_slice_14" type="StridedSlice" version="opset1">
			<data begin_mask="1, 1, 1, 1, 1" end_mask="1, 1, 1, 1, 0" new_axis_mask="0, 0, 0, 0, 0" shrink_axis_mask="0, 0, 0, 0, 0" ellipsis_mask="0, 0, 0, 0, 0" />
			<input>
				<port id="0" precision="FP32">
					<dim>1</dim>
					<dim>129</dim>
					<dim>18</dim>
					<dim>12</dim>
					<dim>16</dim>
				</port>
				<port id="1" precision="I32">
					<dim>5</dim>
				</port>
				<port id="2" precision="I32">
					<dim>5</dim>
				</port>
				<port id="3" precision="I32">
					<dim>5</dim>
				</port>
			</input>
			<output>
				<port id="4" precision="FP32" names="complex_batch_normalization_6/strided_slice_14,complex_batch_normalization_6/strided_slice_14:0">
					<dim>1</dim>
					<dim>129</dim>
					<dim>18</dim>
					<dim>12</dim>
					<dim>8</dim>
				</port>
			</output>
		</layer>
		<layer id="295" name="Constant_40562" type="Const" version="opset1">
			<data element_type="i64" shape="5" offset="2880" size="40" />
			<output>
				<port id="0" precision="I64">
					<dim>5</dim>
				</port>
			</output>
		</layer>
		<layer id="296" name="Transpose_40563" type="Transpose" version="opset1">
			<input>
				<port id="0" precision="FP32">
					<dim>1</dim>
					<dim>129</dim>
					<dim>18</dim>
					<dim>12</dim>
					<dim>8</dim>
				</port>
				<port id="1" precision="I64">
					<dim>5</dim>
				</port>
			</input>
			<output>
				<port id="2" precision="FP32">
					<dim>1</dim>
					<dim>8</dim>
					<dim>129</dim>
					<dim>18</dim>
					<dim>12</dim>
				</port>
			</output>
		</layer>
		<layer id="297" name="Transpose_40559" type="Concat" version="opset1">
			<data axis="1" />
			<input>
				<port id="0" precision="FP32">
					<dim>1</dim>
					<dim>8</dim>
					<dim>129</dim>
					<dim>18</dim>
					<dim>12</dim>
				</port>
				<port id="1" precision="FP32">
					<dim>1</dim>
					<dim>8</dim>
					<dim>129</dim>
					<dim>18</dim>
					<dim>12</dim>
				</port>
			</input>
			<output>
				<port id="2" precision="FP32" names="complex_batch_normalization_6/concat_11,complex_batch_normalization_6/concat_11:0">
					<dim>1</dim>
					<dim>16</dim>
					<dim>129</dim>
					<dim>18</dim>
					<dim>12</dim>
				</port>
			</output>
		</layer>
		<layer id="298" name="Transpose_30810" type="Multiply" version="opset1">
			<data auto_broadcast="numpy" />
			<input>
				<port id="0" precision="FP32">
					<dim>1</dim>
					<dim>16</dim>
					<dim>1</dim>
					<dim>1</dim>
					<dim>1</dim>
				</port>
				<port id="1" precision="FP32">
					<dim>1</dim>
					<dim>16</dim>
					<dim>129</dim>
					<dim>18</dim>
					<dim>12</dim>
				</port>
			</input>
			<output>
				<port id="2" precision="FP32" names="complex_batch_normalization_6/mul_26,complex_batch_normalization_6/mul_26:0">
					<dim>1</dim>
					<dim>16</dim>
					<dim>129</dim>
					<dim>18</dim>
					<dim>12</dim>
				</port>
			</output>
		</layer>
		<layer id="299" name="Transpose_30812" type="Add" version="opset1">
			<data auto_broadcast="numpy" />
			<input>
				<port id="0" precision="FP32">
					<dim>1</dim>
					<dim>16</dim>
					<dim>129</dim>
					<dim>18</dim>
					<dim>12</dim>
				</port>
				<port id="1" precision="FP32">
					<dim>1</dim>
					<dim>16</dim>
					<dim>129</dim>
					<dim>18</dim>
					<dim>12</dim>
				</port>
			</input>
			<output>
				<port id="2" precision="FP32">
					<dim>1</dim>
					<dim>16</dim>
					<dim>129</dim>
					<dim>18</dim>
					<dim>12</dim>
				</port>
			</output>
		</layer>
		<layer id="300" name="Transpose_30814" type="Const" version="opset1">
			<data element_type="f32" shape="1, 16, 1, 1, 1" offset="230804" size="64" />
			<output>
				<port id="0" precision="FP32">
					<dim>1</dim>
					<dim>16</dim>
					<dim>1</dim>
					<dim>1</dim>
					<dim>1</dim>
				</port>
			</output>
		</layer>
		<layer id="301" name="Transpose_30816" type="Add" version="opset1">
			<data auto_broadcast="numpy" />
			<input>
				<port id="0" precision="FP32">
					<dim>1</dim>
					<dim>16</dim>
					<dim>129</dim>
					<dim>18</dim>
					<dim>12</dim>
				</port>
				<port id="1" precision="FP32">
					<dim>1</dim>
					<dim>16</dim>
					<dim>1</dim>
					<dim>1</dim>
					<dim>1</dim>
				</port>
			</input>
			<output>
				<port id="2" precision="FP32">
					<dim>1</dim>
					<dim>16</dim>
					<dim>129</dim>
					<dim>18</dim>
					<dim>12</dim>
				</port>
			</output>
		</layer>
		<layer id="302" name="Relu_30817" type="ReLU" version="opset1">
			<input>
				<port id="0" precision="FP32">
					<dim>1</dim>
					<dim>16</dim>
					<dim>129</dim>
					<dim>18</dim>
					<dim>12</dim>
				</port>
			</input>
			<output>
				<port id="1" precision="FP32">
					<dim>1</dim>
					<dim>16</dim>
					<dim>129</dim>
					<dim>18</dim>
					<dim>12</dim>
				</port>
			</output>
		</layer>
		<layer id="303" name="Transpose_4439" type="Const" version="opset1">
			<data element_type="f32" shape="36, 16, 9, 3, 1" offset="230868" size="62208" />
			<output>
				<port id="0" precision="FP32">
					<dim>36</dim>
					<dim>16</dim>
					<dim>9</dim>
					<dim>3</dim>
					<dim>1</dim>
				</port>
			</output>
		</layer>
		<layer id="304" name="Convolution_4440" type="Convolution" version="opset1">
			<data strides="1, 1, 1" dilations="1, 1, 1" pads_begin="0, 0, 0" pads_end="0, 0, 0" auto_pad="same_upper" />
			<input>
				<port id="0" precision="FP32">
					<dim>1</dim>
					<dim>16</dim>
					<dim>129</dim>
					<dim>18</dim>
					<dim>12</dim>
				</port>
				<port id="1" precision="FP32">
					<dim>36</dim>
					<dim>16</dim>
					<dim>9</dim>
					<dim>3</dim>
					<dim>1</dim>
				</port>
			</input>
			<output>
				<port id="2" precision="FP32">
					<dim>1</dim>
					<dim>36</dim>
					<dim>129</dim>
					<dim>18</dim>
					<dim>12</dim>
				</port>
			</output>
		</layer>
		<layer id="305" name="Constant_42379" type="Const" version="opset1">
			<data element_type="f32" shape="1, 36, 1, 1, 1" offset="293076" size="144" />
			<output>
				<port id="0" precision="FP32">
					<dim>1</dim>
					<dim>36</dim>
					<dim>1</dim>
					<dim>1</dim>
					<dim>1</dim>
				</port>
			</output>
		</layer>
		<layer id="306" name="Transpose_30826" type="Add" version="opset1">
			<data auto_broadcast="numpy" />
			<input>
				<port id="0" precision="FP32">
					<dim>1</dim>
					<dim>36</dim>
					<dim>129</dim>
					<dim>18</dim>
					<dim>12</dim>
				</port>
				<port id="1" precision="FP32">
					<dim>1</dim>
					<dim>36</dim>
					<dim>1</dim>
					<dim>1</dim>
					<dim>1</dim>
				</port>
			</input>
			<output>
				<port id="2" precision="FP32">
					<dim>1</dim>
					<dim>36</dim>
					<dim>129</dim>
					<dim>18</dim>
					<dim>12</dim>
				</port>
			</output>
		</layer>
		<layer id="307" name="Transpose_30830" type="Multiply" version="opset1">
			<data auto_broadcast="numpy" />
			<input>
				<port id="0" precision="FP32">
					<dim>1</dim>
					<dim>36</dim>
					<dim>1</dim>
					<dim>1</dim>
					<dim>1</dim>
				</port>
				<port id="1" precision="FP32">
					<dim>1</dim>
					<dim>36</dim>
					<dim>129</dim>
					<dim>18</dim>
					<dim>12</dim>
				</port>
			</input>
			<output>
				<port id="2" precision="FP32">
					<dim>1</dim>
					<dim>36</dim>
					<dim>129</dim>
					<dim>18</dim>
					<dim>12</dim>
				</port>
			</output>
		</layer>
		<layer id="308" name="Transpose_40565" type="Const" version="opset1">
			<data element_type="f32" shape="1, 36, 1, 1, 1" offset="293220" size="144" />
			<output>
				<port id="0" precision="FP32">
					<dim>1</dim>
					<dim>36</dim>
					<dim>1</dim>
					<dim>1</dim>
					<dim>1</dim>
				</port>
			</output>
		</layer>
		<layer id="309" name="Constant_30825" type="Const" version="opset1">
			<data element_type="i64" shape="5" offset="10984" size="40" />
			<output>
				<port id="0" precision="I64">
					<dim>5</dim>
				</port>
			</output>
		</layer>
		<layer id="310" name="complex_batch_normalization_7/sub_2" type="Transpose" version="opset1">
			<input>
				<port id="0" precision="FP32">
					<dim>1</dim>
					<dim>36</dim>
					<dim>129</dim>
					<dim>18</dim>
					<dim>12</dim>
				</port>
				<port id="1" precision="I64">
					<dim>5</dim>
				</port>
			</input>
			<output>
				<port id="2" precision="FP32" names="complex_batch_normalization_7/sub_2,complex_batch_normalization_7/sub_2:0">
					<dim>1</dim>
					<dim>129</dim>
					<dim>18</dim>
					<dim>12</dim>
					<dim>36</dim>
				</port>
			</output>
		</layer>
		<layer id="311" name="complex_batch_normalization_7/strided_slice_13/stack" type="Const" version="opset1">
			<data element_type="i32" shape="5" offset="11024" size="20" />
			<output>
				<port id="0" precision="I32" names="complex_batch_normalization_7/strided_slice_13/stack,complex_batch_normalization_7/strided_slice_13/stack:0">
					<dim>5</dim>
				</port>
			</output>
		</layer>
		<layer id="312" name="complex_batch_normalization_7/strided_slice_13/stack_1" type="Const" version="opset1">
			<data element_type="i32" shape="5" offset="11044" size="20" />
			<output>
				<port id="0" precision="I32" names="complex_batch_normalization_7/strided_slice_13/stack_1,complex_batch_normalization_7/strided_slice_13/stack_1:0">
					<dim>5</dim>
				</port>
			</output>
		</layer>
		<layer id="313" name="complex_batch_normalization_7/strided_slice_13/stack_2" type="Const" version="opset1">
			<data element_type="i32" shape="5" offset="11064" size="20" />
			<output>
				<port id="0" precision="I32" names="complex_batch_normalization_7/strided_slice_13/stack_2,complex_batch_normalization_7/strided_slice_13/stack_2:0">
					<dim>5</dim>
				</port>
			</output>
		</layer>
		<layer id="314" name="complex_batch_normalization_7/strided_slice_13" type="StridedSlice" version="opset1">
			<data begin_mask="1, 1, 1, 1, 0" end_mask="1, 1, 1, 1, 1" new_axis_mask="0, 0, 0, 0, 0" shrink_axis_mask="0, 0, 0, 0, 0" ellipsis_mask="0, 0, 0, 0, 0" />
			<input>
				<port id="0" precision="FP32">
					<dim>1</dim>
					<dim>129</dim>
					<dim>18</dim>
					<dim>12</dim>
					<dim>36</dim>
				</port>
				<port id="1" precision="I32">
					<dim>5</dim>
				</port>
				<port id="2" precision="I32">
					<dim>5</dim>
				</port>
				<port id="3" precision="I32">
					<dim>5</dim>
				</port>
			</input>
			<output>
				<port id="4" precision="FP32" names="complex_batch_normalization_7/strided_slice_13,complex_batch_normalization_7/strided_slice_13:0">
					<dim>1</dim>
					<dim>129</dim>
					<dim>18</dim>
					<dim>12</dim>
					<dim>18</dim>
				</port>
			</output>
		</layer>
		<layer id="315" name="Constant_40568" type="Const" version="opset1">
			<data element_type="i64" shape="5" offset="2880" size="40" />
			<output>
				<port id="0" precision="I64">
					<dim>5</dim>
				</port>
			</output>
		</layer>
		<layer id="316" name="Transpose_40569" type="Transpose" version="opset1">
			<input>
				<port id="0" precision="FP32">
					<dim>1</dim>
					<dim>129</dim>
					<dim>18</dim>
					<dim>12</dim>
					<dim>18</dim>
				</port>
				<port id="1" precision="I64">
					<dim>5</dim>
				</port>
			</input>
			<output>
				<port id="2" precision="FP32">
					<dim>1</dim>
					<dim>18</dim>
					<dim>129</dim>
					<dim>18</dim>
					<dim>12</dim>
				</port>
			</output>
		</layer>
		<layer id="317" name="complex_batch_normalization_7/strided_slice_12/stack" type="Const" version="opset1">
			<data element_type="i32" shape="5" offset="11044" size="20" />
			<output>
				<port id="0" precision="I32" names="complex_batch_normalization_7/strided_slice_12/stack,complex_batch_normalization_7/strided_slice_12/stack:0">
					<dim>5</dim>
				</port>
			</output>
		</layer>
		<layer id="318" name="complex_batch_normalization_7/strided_slice_12/stack_1" type="Const" version="opset1">
			<data element_type="i32" shape="5" offset="11024" size="20" />
			<output>
				<port id="0" precision="I32" names="complex_batch_normalization_7/strided_slice_12/stack_1,complex_batch_normalization_7/strided_slice_12/stack_1:0">
					<dim>5</dim>
				</port>
			</output>
		</layer>
		<layer id="319" name="complex_batch_normalization_7/strided_slice_12/stack_2" type="Const" version="opset1">
			<data element_type="i32" shape="5" offset="11064" size="20" />
			<output>
				<port id="0" precision="I32" names="complex_batch_normalization_7/strided_slice_12/stack_2,complex_batch_normalization_7/strided_slice_12/stack_2:0">
					<dim>5</dim>
				</port>
			</output>
		</layer>
		<layer id="320" name="complex_batch_normalization_7/strided_slice_12" type="StridedSlice" version="opset1">
			<data begin_mask="1, 1, 1, 1, 1" end_mask="1, 1, 1, 1, 0" new_axis_mask="0, 0, 0, 0, 0" shrink_axis_mask="0, 0, 0, 0, 0" ellipsis_mask="0, 0, 0, 0, 0" />
			<input>
				<port id="0" precision="FP32">
					<dim>1</dim>
					<dim>129</dim>
					<dim>18</dim>
					<dim>12</dim>
					<dim>36</dim>
				</port>
				<port id="1" precision="I32">
					<dim>5</dim>
				</port>
				<port id="2" precision="I32">
					<dim>5</dim>
				</port>
				<port id="3" precision="I32">
					<dim>5</dim>
				</port>
			</input>
			<output>
…
		<edge from-layer="53" from-port="2" to-layer="54" to-port="1" />
		<edge from-layer="54" from-port="2" to-layer="55" to-port="1" />
		<edge from-layer="55" from-port="2" to-layer="59" to-port="0" />
		<edge from-layer="55" from-port="2" to-layer="56" to-port="1" />
		<edge from-layer="56" from-port="2" to-layer="74" to-port="0" />
		<edge from-layer="57" from-port="0" to-layer="73" to-port="0" />
		<edge from-layer="58" from-port="0" to-layer="59" to-port="1" />
		<edge from-layer="59" from-port="2" to-layer="63" to-port="0" />
		<edge from-layer="59" from-port="2" to-layer="69" to-port="0" />
		<edge from-layer="60" from-port="0" to-layer="63" to-port="1" />
		<edge from-layer="61" from-port="0" to-layer="63" to-port="2" />
		<edge from-layer="62" from-port="0" to-layer="63" to-port="3" />
		<edge from-layer="63" from-port="4" to-layer="65" to-port="0" />
		<edge from-layer="64" from-port="0" to-layer="65" to-port="1" />
		<edge from-layer="65" from-port="2" to-layer="72" to-port="0" />
		<edge from-layer="66" from-port="0" to-layer="69" to-port="1" />
		<edge from-layer="67" from-port="0" to-layer="69" to-port="2" />
		<edge from-layer="68" from-port="0" to-layer="69" to-port="3" />
		<edge from-layer="69" from-port="4" to-layer="71" to-port="0" />
		<edge from-layer="70" from-port="0" to-layer="71" to-port="1" />
		<edge from-layer="71" from-port="2" to-layer="72" to-port="1" />
		<edge from-layer="72" from-port="2" to-layer="73" to-port="1" />
		<edge from-layer="73" from-port="2" to-layer="74" to-port="1" />
		<edge from-layer="74" from-port="2" to-layer="76" to-port="0" />
		<edge from-layer="75" from-port="0" to-layer="76" to-port="1" />
		<edge from-layer="76" from-port="2" to-layer="77" to-port="0" />
		<edge from-layer="77" from-port="1" to-layer="79" to-port="0" />
		<edge from-layer="78" from-port="0" to-layer="79" to-port="1" />
		<edge from-layer="79" from-port="2" to-layer="81" to-port="0" />
		<edge from-layer="80" from-port="0" to-layer="81" to-port="1" />
		<edge from-layer="81" from-port="2" to-layer="82" to-port="1" />
		<edge from-layer="81" from-port="2" to-layer="85" to-port="0" />
		<edge from-layer="82" from-port="2" to-layer="100" to-port="0" />
		<edge from-layer="83" from-port="0" to-layer="99" to-port="0" />
		<edge from-layer="84" from-port="0" to-layer="85" to-port="1" />
		<edge from-layer="85" from-port="2" to-layer="89" to-port="0" />
		<edge from-layer="85" from-port="2" to-layer="95" to-port="0" />
		<edge from-layer="86" from-port="0" to-layer="89" to-port="1" />
		<edge from-layer="87" from-port="0" to-layer="89" to-port="2" />
		<edge from-layer="88" from-port="0" to-layer="89" to-port="3" />
		<edge from-layer="89" from-port="4" to-layer="91" to-port="0" />
		<edge from-layer="90" from-port="0" to-layer="91" to-port="1" />
		<edge from-layer="91" from-port="2" to-layer="98" to-port="0" />
		<edge from-layer="92" from-port="0" to-layer="95" to-port="1" />
		<edge from-layer="93" from-port="0" to-layer="95" to-port="2" />
		<edge from-layer="94" from-port="0" to-layer="95" to-port="3" />
		<edge from-layer="95" from-port="4" to-layer="97" to-port="0" />
		<edge from-layer="96" from-port="0" to-layer="97" to-port="1" />
		<edge from-layer="97" from-port="2" to-layer="98" to-port="1" />
		<edge from-layer="98" from-port="2" to-layer="99" to-port="1" />
		<edge from-layer="99" from-port="2" to-layer="100" to-port="1" />
		<edge from-layer="100" from-port="2" to-layer="101" to-port="1" />
		<edge from-layer="100" from-port="2" to-layer="104" to-port="0" />
		<edge from-layer="101" from-port="2" to-layer="119" to-port="0" />
		<edge from-layer="102" from-port="0" to-layer="118" to-port="0" />
		<edge from-layer="103" from-port="0" to-layer="104" to-port="1" />
		<edge from-layer="104" from-port="2" to-layer="108" to-port="0" />
		<edge from-layer="104" from-port="2" to-layer="114" to-port="0" />
		<edge from-layer="105" from-port="0" to-layer="108" to-port="1" />
		<edge from-layer="106" from-port="0" to-layer="108" to-port="2" />
		<edge from-layer="107" from-port="0" to-layer="108" to-port="3" />
		<edge from-layer="108" from-port="4" to-layer="110" to-port="0" />
		<edge from-layer="109" from-port="0" to-layer="110" to-port="1" />
		<edge from-layer="110" from-port="2" to-layer="117" to-port="0" />
		<edge from-layer="111" from-port="0" to-layer="114" to-port="1" />
		<edge from-layer="112" from-port="0" to-layer="114" to-port="2" />
		<edge from-layer="113" from-port="0" to-layer="114" to-port="3" />
		<edge from-layer="114" from-port="4" to-layer="116" to-port="0" />
		<edge from-layer="115" from-port="0" to-layer="116" to-port="1" />
		<edge from-layer="116" from-port="2" to-layer="117" to-port="1" />
		<edge from-layer="117" from-port="2" to-layer="118" to-port="1" />
		<edge from-layer="118" from-port="2" to-layer="119" to-port="1" />
		<edge from-layer="119" from-port="2" to-layer="121" to-port="0" />
		<edge from-layer="120" from-port="0" to-layer="121" to-port="1" />
		<edge from-layer="121" from-port="2" to-layer="122" to-port="0" />
		<edge from-layer="122" from-port="1" to-layer="124" to-port="0" />
		<edge from-layer="123" from-port="0" to-layer="124" to-port="1" />
		<edge from-layer="124" from-port="2" to-layer="126" to-port="0" />
		<edge from-layer="125" from-port="0" to-layer="126" to-port="1" />
		<edge from-layer="126" from-port="2" to-layer="130" to-port="0" />
		<edge from-layer="126" from-port="2" to-layer="127" to-port="1" />
		<edge from-layer="127" from-port="2" to-layer="145" to-port="0" />
		<edge from-layer="128" from-port="0" to-layer="144" to-port="0" />
		<edge from-layer="129" from-port="0" to-layer="130" to-port="1" />
		<edge from-layer="130" from-port="2" to-layer="140" to-port="0" />
		<edge from-layer="130" from-port="2" to-layer="134" to-port="0" />
		<edge from-layer="131" from-port="0" to-layer="134" to-port="1" />
		<edge from-layer="132" from-port="0" to-layer="134" to-port="2" />
		<edge from-layer="133" from-port="0" to-layer="134" to-port="3" />
		<edge from-layer="134" from-port="4" to-layer="136" to-port="0" />
		<edge from-layer="135" from-port="0" to-layer="136" to-port="1" />
		<edge from-layer="136" from-port="2" to-layer="143" to-port="0" />
		<edge from-layer="137" from-port="0" to-layer="140" to-port="1" />
		<edge from-layer="138" from-port="0" to-layer="140" to-port="2" />
		<edge from-layer="139" from-port="0" to-layer="140" to-port="3" />
		<edge from-layer="140" from-port="4" to-layer="142" to-port="0" />
		<edge from-layer="141" from-port="0" to-layer="142" to-port="1" />
		<edge from-layer="142" from-port="2" to-layer="143" to-port="1" />
		<edge from-layer="143" from-port="2" to-layer="144" to-port="1" />
		<edge from-layer="144" from-port="2" to-layer="145" to-port="1" />
		<edge from-layer="145" from-port="2" to-layer="149" to-port="0" />
		<edge from-layer="145" from-port="2" to-layer="146" to-port="1" />
		<edge from-layer="146" from-port="2" to-layer="164" to-port="0" />
		<edge from-layer="147" from-port="0" to-layer="163" to-port="0" />
		<edge from-layer="148" from-port="0" to-layer="149" to-port="1" />
		<edge from-layer="149" from-port="2" to-layer="159" to-port="0" />
		<edge from-layer="149" from-port="2" to-layer="153" to-port="0" />
		<edge from-layer="150" from-port="0" to-layer="153" to-port="1" />
		<edge from-layer="151" from-port="0" to-layer="153" to-port="2" />
		<edge from-layer="152" from-port="0" to-layer="153" to-port="3" />
		<edge from-layer="153" from-port="4" to-layer="155" to-port="0" />
		<edge from-layer="154" from-port="0" to-layer="155" to-port="1" />
		<edge from-layer="155" from-port="2" to-layer="162" to-port="0" />
		<edge from-layer="156" from-port="0" to-layer="159" to-port="1" />
		<edge from-layer="157" from-port="0" to-layer="159" to-port="2" />
		<edge from-layer="158" from-port="0" to-layer="159" to-port="3" />
		<edge from-layer="159" from-port="4" to-layer="161" to-port="0" />
		<edge from-layer="160" from-port="0" to-layer="161" to-port="1" />
		<edge from-layer="161" from-port="2" to-layer="162" to-port="1" />
		<edge from-layer="162" from-port="2" to-layer="163" to-port="1" />
		<edge from-layer="163" from-port="2" to-layer="164" to-port="1" />
		<edge from-layer="164" from-port="2" to-layer="166" to-port="0" />
		<edge from-layer="165" from-port="0" to-layer="166" to-port="1" />
		<edge from-layer="166" from-port="2" to-layer="167" to-port="0" />
		<edge from-layer="167" from-port="1" to-layer="169" to-port="0" />
		<edge from-layer="168" from-port="0" to-layer="169" to-port="1" />
		<edge from-layer="169" from-port="2" to-layer="171" to-port="0" />
		<edge from-layer="170" from-port="0" to-layer="171" to-port="1" />
		<edge from-layer="171" from-port="2" to-layer="175" to-port="0" />
		<edge from-layer="171" from-port="2" to-layer="172" to-port="1" />
		<edge from-layer="172" from-port="2" to-layer="190" to-port="0" />
		<edge from-layer="173" from-port="0" to-layer="189" to-port="0" />
		<edge from-layer="174" from-port="0" to-layer="175" to-port="1" />
		<edge from-layer="175" from-port="2" to-layer="179" to-port="0" />
		<edge from-layer="175" from-port="2" to-layer="185" to-port="0" />
		<edge from-layer="176" from-port="0" to-layer="179" to-port="1" />
		<edge from-layer="177" from-port="0" to-layer="179" to-port="2" />
		<edge from-layer="178" from-port="0" to-layer="179" to-port="3" />
		<edge from-layer="179" from-port="4" to-layer="181" to-port="0" />
		<edge from-layer="180" from-port="0" to-layer="181" to-port="1" />
		<edge from-layer="181" from-port="2" to-layer="188" to-port="0" />
		<edge from-layer="182" from-port="0" to-layer="185" to-port="1" />
		<edge from-layer="183" from-port="0" to-layer="185" to-port="2" />
		<edge from-layer="184" from-port="0" to-layer="185" to-port="3" />
		<edge from-layer="185" from-port="4" to-layer="187" to-port="0" />
		<edge from-layer="186" from-port="0" to-layer="187" to-port="1" />
		<edge from-layer="187" from-port="2" to-layer="188" to-port="1" />
		<edge from-layer="188" from-port="2" to-layer="189" to-port="1" />
		<edge from-layer="189" from-port="2" to-layer="190" to-port="1" />
		<edge from-layer="190" from-port="2" to-layer="194" to-port="0" />
		<edge from-layer="190" from-port="2" to-layer="191" to-port="1" />
		<edge from-layer="191" from-port="2" to-layer="209" to-port="0" />
		<edge from-layer="192" from-port="0" to-layer="208" to-port="0" />
		<edge from-layer="193" from-port="0" to-layer="194" to-port="1" />
		<edge from-layer="194" from-port="2" to-layer="204" to-port="0" />
		<edge from-layer="194" from-port="2" to-layer="198" to-port="0" />
		<edge from-layer="195" from-port="0" to-layer="198" to-port="1" />
		<edge from-layer="196" from-port="0" to-layer="198" to-port="2" />
		<edge from-layer="197" from-port="0" to-layer="198" to-port="3" />
		<edge from-layer="198" from-port="4" to-layer="200" to-port="0" />
		<edge from-layer="199" from-port="0" to-layer="200" to-port="1" />
		<edge from-layer="200" from-port="2" to-layer="207" to-port="0" />
		<edge from-layer="201" from-port="0" to-layer="204" to-port="1" />
		<edge from-layer="202" from-port="0" to-layer="204" to-port="2" />
		<edge from-layer="203" from-port="0" to-layer="204" to-port="3" />
		<edge from-layer="204" from-port="4" to-layer="206" to-port="0" />
		<edge from-layer="205" from-port="0" to-layer="206" to-port="1" />
		<edge from-layer="206" from-port="2" to-layer="207" to-port="1" />
		<edge from-layer="207" from-port="2" to-layer="208" to-port="1" />
		<edge from-layer="208" from-port="2" to-layer="209" to-port="1" />
		<edge from-layer="209" from-port="2" to-layer="211" to-port="0" />
		<edge from-layer="210" from-port="0" to-layer="211" to-port="1" />
		<edge from-layer="211" from-port="2" to-layer="212" to-port="0" />
		<edge from-layer="212" from-port="1" to-layer="214" to-port="0" />
		<edge from-layer="213" from-port="0" to-layer="214" to-port="1" />
		<edge from-layer="214" from-port="2" to-layer="216" to-port="0" />
		<edge from-layer="215" from-port="0" to-layer="216" to-port="1" />
		<edge from-layer="216" from-port="2" to-layer="220" to-port="0" />
		<edge from-layer="216" from-port="2" to-layer="217" to-port="1" />
		<edge from-layer="217" from-port="2" to-layer="235" to-port="0" />
		<edge from-layer="218" from-port="0" to-layer="234" to-port="0" />
		<edge from-layer="219" from-port="0" to-layer="220" to-port="1" />
		<edge from-layer="220" from-port="2" to-layer="230" to-port="0" />
		<edge from-layer="220" from-port="2" to-layer="224" to-port="0" />
		<edge from-layer="221" from-port="0" to-layer="224" to-port="1" />
		<edge from-layer="222" from-port="0" to-layer="224" to-port="2" />
		<edge from-layer="223" from-port="0" to-layer="224" to-port="3" />
		<edge from-layer="224" from-port="4" to-layer="226" to-port="0" />
		<edge from-layer="225" from-port="0" to-layer="226" to-port="1" />
		<edge from-layer="226" from-port="2" to-layer="233" to-port="0" />
		<edge from-layer="227" from-port="0" to-layer="230" to-port="1" />
		<edge from-layer="228" from-port="0" to-layer="230" to-port="2" />
		<edge from-layer="229" from-port="0" to-layer="230" to-port="3" />
		<edge from-layer="230" from-port="4" to-layer="232" to-port="0" />
		<edge from-layer="231" from-port="0" to-layer="232" to-port="1" />
		<edge from-layer="232" from-port="2" to-layer="233" to-port="1" />
		<edge from-layer="233" from-port="2" to-layer="234" to-port="1" />
		<edge from-layer="234" from-port="2" to-layer="235" to-port="1" />
		<edge from-layer="235" from-port="2" to-layer="239" to-port="0" />
		<edge from-layer="235" from-port="2" to-layer="236" to-port="1" />
		<edge from-layer="236" from-port="2" to-layer="254" to-port="0" />
		<edge from-layer="237" from-port="0" to-layer="253" to-port="0" />
		<edge from-layer="238" from-port="0" to-layer="239" to-port="1" />
		<edge from-layer="239" from-port="2" to-layer="249" to-port="0" />
		<edge from-layer="239" from-port="2" to-layer="243" to-port="0" />
		<edge from-layer="240" from-port="0" to-layer="243" to-port="1" />
		<edge from-layer="241" from-port="0" to-layer="243" to-port="2" />
		<edge from-layer="242" from-port="0" to-layer="243" to-port="3" />
		<edge from-layer="243" from-port="4" to-layer="245" to-port="0" />
		<edge from-layer="244" from-port="0" to-layer="245" to-port="1" />
		<edge from-layer="245" from-port="2" to-layer="252" to-port="0" />
		<edge from-layer="246" from-port="0" to-layer="249" to-port="1" />
		<edge from-layer="247" from-port="0" to-layer="249" to-port="2" />
		<edge from-layer="248" from-port="0" to-layer="249" to-port="3" />
		<edge from-layer="249" from-port="4" to-layer="251" to-port="0" />
		<edge from-layer="250" from-port="0" to-layer="251" to-port="1" />
		<edge from-layer="251" from-port="2" to-layer="252" to-port="1" />
		<edge from-layer="252" from-port="2" to-layer="253" to-port="1" />
		<edge from-layer="253" from-port="2" to-layer="254" to-port="1" />
		<edge from-layer="254" from-port="2" to-layer="256" to-port="0" />
		<edge from-layer="255" from-port="0" to-layer="256" to-port="1" />
		<edge from-layer="256" from-port="2" to-layer="257" to-port="0" />
		<edge from-layer="257" from-port="1" to-layer="259" to-port="0" />
		<edge from-layer="258" from-port="0" to-layer="259" to-port="1" />
		<edge from-layer="259" from-port="2" to-layer="261" to-port="0" />
		<edge from-layer="260" from-port="0" to-layer="261" to-port="1" />
		<edge from-layer="261" from-port="2" to-layer="262" to-port="1" />
		<edge from-layer="261" from-port="2" to-layer="265" to-port="0" />
		<edge from-layer="262" from-port="2" to-layer="280" to-port="0" />
		<edge from-layer="263" from-port="0" to-layer="279" to-port="0" />
		<edge from-layer="264" from-port="0" to-layer="265" to-port="1" />
		<edge from-layer="265" from-port="2" to-layer="269" to-port="0" />
		<edge from-layer="265" from-port="2" to-layer="275" to-port="0" />
		<edge from-layer="266" from-port="0" to-layer="269" to-port="1" />
		<edge from-layer="267" from-port="0" to-layer="269" to-port="2" />
		<edge from-layer="268" from-port="0" to-layer="269" to-port="3" />
		<edge from-layer="269" from-port="4" to-layer="271" to-port="0" />
		<edge from-layer="270" from-port="0" to-layer="271" to-port="1" />
		<edge from-layer="271" from-port="2" to-layer="278" to-port="0" />
		<edge from-layer="272" from-port="0" to-layer="275" to-port="1" />
		<edge from-layer="273" from-port="0" to-layer="275" to-port="2" />
		<edge from-layer="274" from-port="0" to-layer="275" to-port="3" />
		<edge from-layer="275" from-port="4" to-layer="277" to-port="0" />
		<edge from-layer="276" from-port="0" to-layer="277" to-port="1" />
		<edge from-layer="277" from-port="2" to-layer="278" to-port="1" />
		<edge from-layer="278" from-port="2" to-layer="279" to-port="1" />
		<edge from-layer="279" from-port="2" to-layer="280" to-port="1" />
		<edge from-layer="280" from-port="2" to-layer="284" to-port="0" />
		<edge from-layer="280" from-port="2" to-layer="281" to-port="1" />
		<edge from-layer="281" from-port="2" to-layer="299" to-port="0" />
		<edge from-layer="282" from-port="0" to-layer="298" to-port="0" />
		<edge from-layer="283" from-port="0" to-layer="284" to-port="1" />
		<edge from-layer="284" from-port="2" to-layer="294" to-port="0" />
		<edge from-layer="284" from-port="2" to-layer="288" to-port="0" />
		<edge from-layer="285" from-port="0" to-layer="288" to-port="1" />
		<edge from-layer="286" from-port="0" to-layer="288" to-port="2" />
		<edge from-layer="287" from-port="0" to-layer="288" to-port="3" />
		<edge from-layer="288" from-port="4" to-layer="290" to-port="0" />
		<edge from-layer="289" from-port="0" to-layer="290" to-port="1" />
		<edge from-layer="290" from-port="2" to-layer="297" to-port="0" />
		<edge from-layer="291" from-port="0" to-layer="294" to-port="1" />
		<edge from-layer="292" from-port="0" to-layer="294" to-port="2" />
		<edge from-layer="293" from-port="0" to-layer="294" to-port="3" />
		<edge from-layer="294" from-port="4" to-layer="296" to-port="0" />
		<edge from-layer="295" from-port="0" to-layer="296" to-port="1" />
		<edge from-layer="296" from-port="2" to-layer="297" to-port="1" />
		<edge from-layer="297" from-port="2" to-layer="298" to-port="1" />
		<edge from-layer="298" from-port="2" to-layer="299" to-port="1" />
		<edge from-layer="299" from-port="2" to-layer="301" to-port="0" />
		<edge from-layer="300" from-port="0" to-layer="301" to-port="1" />
		<edge from-layer="301" from-port="2" to-layer="302" to-port="0" />
		<edge from-layer="302" from-port="1" to-layer="304" to-port="0" />
		<edge from-layer="303" from-port="0" to-layer="304" to-port="1" />
		<edge from-layer="304" from-port="2" to-layer="306" to-port="0" />
		<edge from-layer="305" from-port="0" to-layer="306" to-port="1" />
		<edge from-layer="306" from-port="2" to-layer="310" to-port="0" />
		<edge from-layer="306" from-port="2" to-layer="307" to-port="1" />
		<edge from-layer="307" from-port="2" to-layer="325" to-port="0" />
		<edge from-layer="308" from-port="0" to-layer="324" to-port="0" />
		<edge from-layer="309" from-port="0" to-layer="310" to-port="1" />
		<edge from-layer="310" from-port="2" to-layer="320" to-port="0" />
		<edge from-layer="310" from-port="2" to-layer="314" to-port="0" />
		<edge from-layer="311" from-port="0" to-layer="314" to-port="1" />
		<edge from-layer="312" from-port="0" to-layer="314" to-port="2" />
		<edge from-layer="313" from-port="0" to-layer="314" to-port="3" />
		<edge from-layer="314" from-port="4" to-layer="316" to-port="0" />
		<edge from-layer="315" from-port="0" to-layer="316" to-port="1" />
		<edge from-layer="316" from-port="2" to-layer="323" to-port="0" />
		<edge from-layer="317" from-port="0" to-layer="320" to-port="1" />
		<edge from-layer="318" from-port="0" to-layer="320" to-port="2" />
		<edge from-layer="319" from-port="0" to-layer="320" to-port="3" />
		<edge from-layer="320" from-port="4" to-layer="322" to-port="0" />
		<edge from-layer="321" from-port="0" to-layer="322" to-port="1" />
		<edge from-layer="322" from-port="2" to-layer="323" to-port="1" />
		<edge from-layer="323" from-port="2" to-layer="324" to-port="1" />
		<edge from-layer="324" from-port="2" to-layer="325" to-port="1" />
		<edge from-layer="325" from-port="2" to-layer="329" to-port="0" />
		<edge from-layer="325" from-port="2" to-layer="326" to-port="1" />
		<edge from-layer="326" from-port="2" to-layer="344" to-port="0" />
		<edge from-layer="327" from-port="0" to-layer="343" to-port="0" />
		<edge from-layer="328" from-port="0" to-layer="329" to-port="1" />
		<edge from-layer="329" from-port="2" to-layer="333" to-port="0" />
		<edge from-layer="329" from-port="2" to-layer="339" to-port="0" />
		<edge from-layer="330" from-port="0" to-layer="333" to-port="1" />
		<edge from-layer="331" from-port="0" to-layer="333" to-port="2" />
		<edge from-layer="332" from-port="0" to-layer="333" to-port="3" />
		<edge from-layer="333" from-port="4" to-layer="335" to-port="0" />
		<edge from-layer="334" from-port="0" to-layer="335" to-port="1" />
		<edge from-layer="335" from-port="2" to-layer="342" to-port="0" />
		<edge from-layer="336" from-port="0" to-layer="339" to-port="1" />
		<edge from-layer="337" from-port="0" to-layer="339" to-port="2" />
		<edge from-layer="338" from-port="0" to-layer="339" to-port="3" />
		<edge from-layer="339" from-port="4" to-layer="341" to-port="0" />
		<edge from-layer="340" from-port="0" to-layer="341" to-port="1" />
		<edge from-layer="341" from-port="2" to-layer="342" to-port="1" />
		<edge from-layer="342" from-port="2" to-layer="343" to-port="1" />
		<edge from-layer="343" from-port="2" to-layer="344" to-port="1" />
		<edge from-layer="344" from-port="2" to-layer="346" to-port="0" />
		<edge from-layer="345" from-port="0" to-layer="346" to-port="1" />
		<edge from-layer="346" from-port="2" to-layer="347" to-port="0" />
		<edge from-layer="347" from-port="1" to-layer="349" to-port="0" />
		<edge from-layer="348" from-port="0" to-layer="349" to-port="1" />
		<edge from-layer="349" from-port="2" to-layer="351" to-port="0" />
		<edge from-layer="350" from-port="0" to-layer="351" to-port="1" />
		<edge from-layer="351" from-port="2" to-layer="352" to-port="1" />
		<edge from-layer="351" from-port="2" to-layer="355" to-port="0" />
		<edge from-layer="352" from-port="2" to-layer="370" to-port="0" />
		<edge from-layer="353" from-port="0" to-layer="369" to-port="0" />
		<edge from-layer="354" from-port="0" to-layer="355" to-port="1" />
		<edge from-layer="355" from-port="2" to-layer="365" to-port="0" />
		<edge from-layer="355" from-port="2" to-layer="359" to-port="0" />
		<edge from-layer="356" from-port="0" to-layer="359" to-port="1" />
		<edge from-layer="357" from-port="0" to-layer="359" to-port="2" />
		<edge from-layer="358" from-port="0" to-layer="359" to-port="3" />
		<edge from-layer="359" from-port="4" to-layer="361" to-port="0" />
		<edge from-layer="360" from-port="0" to-layer="361" to-port="1" />
		<edge from-layer="361" from-port="2" to-layer="368" to-port="0" />
		<edge from-layer="362" from-port="0" to-layer="365" to-port="1" />
		<edge from-layer="363" from-port="0" to-layer="365" to-port="2" />
		<edge from-layer="364" from-port="0" to-layer="365" to-port="3" />
		<edge from-layer="365" from-port="4" to-layer="367" to-port="0" />
		<edge from-layer="366" from-port="0" to-layer="367" to-port="1" />
		<edge from-layer="367" from-port="2" to-layer="368" to-port="1" />
		<edge from-layer="368" from-port="2" to-layer="369" to-port="1" />
		<edge from-layer="369" from-port="2" to-layer="370" to-port="1" />
		<edge from-layer="370" from-port="2" to-layer="374" to-port="0" />
		<edge from-layer="370" from-port="2" to-layer="371" to-port="1" />
		<edge from-layer="371" from-port="2" to-layer="389" to-port="0" />
		<edge from-layer="372" from-port="0" to-layer="388" to-port="0" />
		<edge from-layer="373" from-port="0" to-layer="374" to-port="1" />
		<edge from-layer="374" from-port="2" to-layer="384" to-port="0" />
		<edge from-layer="374" from-port="2" to-layer="378" to-port="0" />
		<edge from-layer="375" from-port="0" to-layer="378" to-port="1" />
		<edge from-layer="376" from-port="0" to-layer="378" to-port="2" />
		<edge from-layer="377" from-port="0" to-layer="378" to-port="3" />
		<edge from-layer="378" from-port="4" to-layer="380" to-port="0" />
		<edge from-layer="379" from-port="0" to-layer="380" to-port="1" />
		<edge from-layer="380" from-port="2" to-layer="387" to-port="0" />
		<edge from-layer="381" from-port="0" to-layer="384" to-port="1" />
		<edge from-layer="382" from-port="0" to-layer="384" to-port="2" />
		<edge from-layer="383" from-port="0" to-layer="384" to-port="3" />
		<edge from-layer="384" from-port="4" to-layer="386" to-port="0" />
		<edge from-layer="385" from-port="0" to-layer="386" to-port="1" />
		<edge from-layer="386" from-port="2" to-layer="387" to-port="1" />
		<edge from-layer="387" from-port="2" to-layer="388" to-port="1" />
		<edge from-layer="388" from-port="2" to-layer="389" to-port="1" />
		<edge from-layer="389" from-port="2" to-layer="391" to-port="0" />
		<edge from-layer="390" from-port="0" to-layer="391" to-port="1" />
		<edge from-layer="391" from-port="2" to-layer="392" to-port="0" />
		<edge from-layer="392" from-port="1" to-layer="394" to-port="0" />
		<edge from-layer="393" from-port="0" to-layer="394" to-port="1" />
		<edge from-layer="394" from-port="2" to-layer="396" to-port="0" />
		<edge from-layer="395" from-port="0" to-layer="396" to-port="1" />
		<edge from-layer="396" from-port="2" to-layer="397" to-port="1" />
		<edge from-layer="396" from-port="2" to-layer="400" to-port="0" />
		<edge from-layer="397" from-port="2" to-layer="415" to-port="0" />
		<edge from-layer="398" from-port="0" to-layer="414" to-port="0" />
		<edge from-layer="399" from-port="0" to-layer="400" to-port="1" />
		<edge from-layer="400" from-port="2" to-layer="404" to-port="0" />
		<edge from-layer="400" from-port="2" to-layer="410" to-port="0" />
		<edge from-layer="401" from-port="0" to-layer="404" to-port="1" />
		<edge from-layer="402" from-port="0" to-layer="404" to-port="2" />
		<edge from-layer="403" from-port="0" to-layer="404" to-port="3" />
		<edge from-layer="404" from-port="4" to-layer="406" to-port="0" />
		<edge from-layer="405" from-port="0" to-layer="406" to-port="1" />
		<edge from-layer="406" from-port="2" to-layer="413" to-port="0" />
		<edge from-layer="407" from-port="0" to-layer="410" to-port="1" />
		<edge from-layer="408" from-port="0" to-layer="410" to-port="2" />
		<edge from-layer="409" from-port="0" to-layer="410" to-port="3" />
		<edge from-layer="410" from-port="4" to-layer="412" to-port="0" />
		<edge from-layer="411" from-port="0" to-layer="412" to-port="1" />
		<edge from-layer="412" from-port="2" to-layer="413" to-port="1" />
		<edge from-layer="413" from-port="2" to-layer="414" to-port="1" />
		<edge from-layer="414" from-port="2" to-layer="415" to-port="1" />
		<edge from-layer="415" from-port="2" to-layer="416" to-port="1" />
		<edge from-layer="415" from-port="2" to-layer="419" to-port="0" />
		<edge from-layer="416" from-port="2" to-layer="434" to-port="0" />
		<edge from-layer="417" from-port="0" to-layer="433" to-port="0" />
		<edge from-layer="418" from-port="0" to-layer="419" to-port="1" />
		<edge from-layer="419" from-port="2" to-layer="429" to-port="0" />
		<edge from-layer="419" from-port="2" to-layer="423" to-port="0" />
		<edge from-layer="420" from-port="0" to-layer="423" to-port="1" />
		<edge from-layer="421" from-port="0" to-layer="423" to-port="2" />
		<edge from-layer="422" from-port="0" to-layer="423" to-port="3" />
		<edge from-layer="423" from-port="4" to-layer="425" to-port="0" />
		<edge from-layer="424" from-port="0" to-layer="425" to-port="1" />
		<edge from-layer="425" from-port="2" to-layer="432" to-port="0" />
		<edge from-layer="426" from-port="0" to-layer="429" to-port="1" />
		<edge from-layer="427" from-port="0" to-layer="429" to-port="2" />
		<edge from-layer="428" from-port="0" to-layer="429" to-port="3" />
		<edge from-layer="429" from-port="4" to-layer="431" to-port="0" />
		<edge from-layer="430" from-port="0" to-layer="431" to-port="1" />
		<edge from-layer="431" from-port="2" to-layer="432" to-port="1" />
		<edge from-layer="432" from-port="2" to-layer="433" to-port="1" />
		<edge from-layer="433" from-port="2" to-layer="434" to-port="1" />
		<edge from-layer="434" from-port="2" to-layer="436" to-port="0" />
		<edge from-layer="435" from-port="0" to-layer="436" to-port="1" />
		<edge from-layer="436" from-port="2" to-layer="437" to-port="0" />
		<edge from-layer="437" from-port="1" to-layer="439" to-port="0" />
		<edge from-layer="438" from-port="0" to-layer="439" to-port="1" />
		<edge from-layer="439" from-port="2" to-layer="441" to-port="0" />
		<edge from-layer="440" from-port="0" to-layer="441" to-port="1" />
		<edge from-layer="441" from-port="2" to-layer="442" to-port="1" />
		<edge from-layer="441" from-port="2" to-layer="445" to-port="0" />
		<edge from-layer="442" from-port="2" to-layer="460" to-port="0" />
		<edge from-layer="443" from-port="0" to-layer="459" to-port="0" />
		<edge from-layer="444" from-port="0" to-layer="445" to-port="1" />
		<edge from-layer="445" from-port="2" to-layer="455" to-port="0" />
		<edge from-layer="445" from-port="2" to-layer="449" to-port="0" />
		<edge from-layer="446" from-port="0" to-layer="449" to-port="1" />
		<edge from-layer="447" from-port="0" to-layer="449" to-port="2" />
		<edge from-layer="448" from-port="0" to-layer="449" to-port="3" />
		<edge from-layer="449" from-port="4" to-layer="451" to-port="0" />
		<edge from-layer="450" from-port="0" to-layer="451" to-port="1" />
		<edge from-layer="451" from-port="2" to-layer="458" to-port="0" />
		<edge from-layer="452" from-port="0" to-layer="455" to-port="1" />
		<edge from-layer="453" from-port="0" to-layer="455" to-port="2" />
		<edge from-layer="454" from-port="0" to-layer="455" to-port="3" />
		<edge from-layer="455" from-port="4" to-layer="457" to-port="0" />
		<edge from-layer="456" from-port="0" to-layer="457" to-port="1" />
		<edge from-layer="457" from-port="2" to-layer="458" to-port="1" />
		<edge from-layer="458" from-port="2" to-layer="459" to-port="1" />
		<edge from-layer="459" from-port="2" to-layer="460" to-port="1" />
		<edge from-layer="460" from-port="2" to-layer="461" to-port="1" />
		<edge from-layer="460" from-port="2" to-layer="464" to-port="0" />
		<edge from-layer="461" from-port="2" to-layer="479" to-port="0" />
		<edge from-layer="462" from-port="0" to-layer="478" to-port="0" />
		<edge from-layer="463" from-port="0" to-layer="464" to-port="1" />
		<edge from-layer="464" from-port="2" to-layer="474" to-port="0" />
		<edge from-layer="464" from-port="2" to-layer="468" to-port="0" />
		<edge from-layer="465" from-port="0" to-layer="468" to-port="1" />
		<edge from-layer="466" from-port="0" to-layer="468" to-port="2" />
		<edge from-layer="467" from-port="0" to-layer="468" to-port="3" />
		<edge from-layer="468" from-port="4" to-layer="470" to-port="0" />
		<edge from-layer="469" from-port="0" to-layer="470" to-port="1" />
		<edge from-layer="470" from-port="2" to-layer="477" to-port="0" />
		<edge from-layer="471" from-port="0" to-layer="474" to-port="1" />
		<edge from-layer="472" from-port="0" to-layer="474" to-port="2" />
		<edge from-layer="473" from-port="0" to-layer="474" to-port="3" />
		<edge from-layer="474" from-port="4" to-layer="476" to-port="0" />
		<edge from-layer="475" from-port="0" to-layer="476" to-port="1" />
		<edge from-layer="476" from-port="2" to-layer="477" to-port="1" />
		<edge from-layer="477" from-port="2" to-layer="478" to-port="1" />
		<edge from-layer="478" from-port="2" to-layer="479" to-port="1" />
		<edge from-layer="479" from-port="2" to-layer="481" to-port="0" />
		<edge from-layer="480" from-port="0" to-layer="481" to-port="1" />
		<edge from-layer="481" from-port="2" to-layer="482" to-port="0" />
		<edge from-layer="482" from-port="1" to-layer="484" to-port="0" />
		<edge from-layer="483" from-port="0" to-layer="484" to-port="1" />
		<edge from-layer="484" from-port="2" to-layer="486" to-port="0" />
		<edge from-layer="485" from-port="0" to-layer="486" to-port="1" />
		<edge from-layer="486" from-port="2" to-layer="490" to-port="0" />
		<edge from-layer="486" from-port="2" to-layer="487" to-port="1" />
		<edge from-layer="487" from-port="2" to-layer="505" to-port="0" />
		<edge from-layer="488" from-port="0" to-layer="504" to-port="0" />
		<edge from-layer="489" from-port="0" to-layer="490" to-port="1" />
		<edge from-layer="490" from-port="2" to-layer="500" to-port="0" />
		<edge from-layer="490" from-port="2" to-layer="494" to-port="0" />
		<edge from-layer="491" from-port="0" to-layer="494" to-port="1" />
		<edge from-layer="492" from-port="0" to-layer="494" to-port="2" />
		<edge from-layer="493" from-port="0" to-layer="494" to-port="3" />
		<edge from-layer="494" from-port="4" to-layer="496" to-port="0" />
		<edge from-layer="495" from-port="0" to-layer="496" to-port="1" />
		<edge from-layer="496" from-port="2" to-layer="503" to-port="0" />
		<edge from-layer="497" from-port="0" to-layer="500" to-port="1" />
		<edge from-layer="498" from-port="0" to-layer="500" to-port="2" />
		<edge from-layer="499" from-port="0" to-layer="500" to-port="3" />
		<edge from-layer="500" from-port="4" to-layer="502" to-port="0" />
		<edge from-layer="501" from-port="0" to-layer="502" to-port="1" />
		<edge from-layer="502" from-port="2" to-layer="503" to-port="1" />
		<edge from-layer="503" from-port="2" to-layer="504" to-port="1" />
		<edge from-layer="504" from-port="2" to-layer="505" to-port="1" />
		<edge from-layer="505" from-port="2" to-layer="509" to-port="0" />
		<edge from-layer="505" from-port="2" to-layer="506" to-port="1" />
		<edge from-layer="506" from-port="2" to-layer="524" to-port="0" />
		<edge from-layer="507" from-port="0" to-layer="523" to-port="0" />
		<edge from-layer="508" from-port="0" to-layer="509" to-port="1" />
		<edge from-layer="509" from-port="2" to-layer="519" to-port="0" />
		<edge from-layer="509" from-port="2" to-layer="513" to-port="0" />
		<edge from-layer="510" from-port="0" to-layer="513" to-port="1" />
		<edge from-layer="511" from-port="0" to-layer="513" to-port="2" />
		<edge from-layer="512" from-port="0" to-layer="513" to-port="3" />
		<edge from-layer="513" from-port="4" to-layer="515" to-port="0" />
		<edge from-layer="514" from-port="0" to-layer="515" to-port="1" />
		<edge from-layer="515" from-port="2" to-layer="522" to-port="0" />
		<edge from-layer="516" from-port="0" to-layer="519" to-port="1" />
		<edge from-layer="517" from-port="0" to-layer="519" to-port="2" />
		<edge from-layer="518" from-port="0" to-layer="519" to-port="3" />
		<edge from-layer="519" from-port="4" to-layer="521" to-port="0" />
		<edge from-layer="520" from-port="0" to-layer="521" to-port="1" />
		<edge from-layer="521" from-port="2" to-layer="522" to-port="1" />
		<edge from-layer="522" from-port="2" to-layer="523" to-port="1" />
		<edge from-layer="523" from-port="2" to-layer="524" to-port="1" />
		<edge from-layer="524" from-port="2" to-layer="526" to-port="0" />
		<edge from-layer="525" from-port="0" to-layer="526" to-port="1" />
		<edge from-layer="526" from-port="2" to-layer="527" to-port="0" />
		<edge from-layer="527" from-port="1" to-layer="529" to-port="0" />
		<edge from-layer="528" from-port="0" to-layer="529" to-port="1" />
		<edge from-layer="529" from-port="2" to-layer="531" to-port="0" />
		<edge from-layer="530" from-port="0" to-layer="531" to-port="1" />
		<edge from-layer="531" from-port="2" to-layer="532" to-port="1" />
		<edge from-layer="531" from-port="2" to-layer="535" to-port="0" />
		<edge from-layer="532" from-port="2" to-layer="550" to-port="0" />
		<edge from-layer="533" from-port="0" to-layer="549" to-port="0" />
		<edge from-layer="534" from-port="0" to-layer="535" to-port="1" />
		<edge from-layer="535" from-port="2" to-layer="539" to-port="0" />
		<edge from-layer="535" from-port="2" to-layer="545" to-port="0" />
		<edge from-layer="536" from-port="0" to-layer="539" to-port="1" />
		<edge from-layer="537" from-port="0" to-layer="539" to-port="2" />
		<edge from-layer="538" from-port="0" to-layer="539" to-port="3" />
		<edge from-layer="539" from-port="4" to-layer="541" to-port="0" />
		<edge from-layer="540" from-port="0" to-layer="541" to-port="1" />
		<edge from-layer="541" from-port="2" to-layer="548" to-port="0" />
		<edge from-layer="542" from-port="0" to-layer="545" to-port="1" />
		<edge from-layer="543" from-port="0" to-layer="545" to-port="2" />
		<edge from-layer="544" from-port="0" to-layer="545" to-port="3" />
		<edge from-layer="545" from-port="4" to-layer="547" to-port="0" />
		<edge from-layer="546" from-port="0" to-layer="547" to-port="1" />
		<edge from-layer="547" from-port="2" to-layer="548" to-port="1" />
		<edge from-layer="548" from-port="2" to-layer="549" to-port="1" />
		<edge from-layer="549" from-port="2" to-layer="550" to-port="1" />
		<edge from-layer="550" from-port="2" to-layer="554" to-port="0" />
		<edge from-layer="550" from-port="2" to-layer="551" to-port="1" />
		<edge from-layer="551" from-port="2" to-layer="569" to-port="0" />
		<edge from-layer="552" from-port="0" to-layer="568" to-port="0" />
		<edge from-layer="553" from-port="0" to-layer="554" to-port="1" />
		<edge from-layer="554" from-port="2" to-layer="564" to-port="0" />
		<edge from-layer="554" from-port="2" to-layer="558" to-port="0" />
		<edge from-layer="555" from-port="0" to-layer="558" to-port="1" />
		<edge from-layer="556" from-port="0" to-layer="558" to-port="2" />
		<edge from-layer="557" from-port="0" to-layer="558" to-port="3" />
		<edge from-layer="558" from-port="4" to-layer="560" to-port="0" />
		<edge from-layer="559" from-port="0" to-layer="560" to-port="1" />
		<edge from-layer="560" from-port="2" to-layer="567" to-port="0" />
		<edge from-layer="561" from-port="0" to-layer="564" to-port="1" />
		<edge from-layer="562" from-port="0" to-layer="564" to-port="2" />
		<edge from-layer="563" from-port="0" to-layer="564" to-port="3" />
		<edge from-layer="564" from-port="4" to-layer="566" to-port="0" />
		<edge from-layer="565" from-port="0" to-layer="566" to-port="1" />
		<edge from-layer="566" from-port="2" to-layer="567" to-port="1" />
		<edge from-layer="567" from-port="2" to-layer="568" to-port="1" />
		<edge from-layer="568" from-port="2" to-layer="569" to-port="1" />
		<edge from-layer="569" from-port="2" to-layer="571" to-port="0" />
		<edge from-layer="570" from-port="0" to-layer="571" to-port="1" />
		<edge from-layer="571" from-port="2" to-layer="572" to-port="0" />
		<edge from-layer="572" from-port="1" to-layer="574" to-port="0" />
		<edge from-layer="573" from-port="0" to-layer="574" to-port="1" />
		<edge from-layer="574" from-port="2" to-layer="576" to-port="0" />
		<edge from-layer="575" from-port="0" to-layer="576" to-port="1" />
		<edge from-layer="576" from-port="2" to-layer="577" to-port="1" />
		<edge from-layer="576" from-port="2" to-layer="580" to-port="0" />
		<edge from-layer="577" from-port="2" to-layer="595" to-port="0" />
		<edge from-layer="578" from-port="0" to-layer="594" to-port="0" />
		<edge from-layer="579" from-port="0" to-layer="580" to-port="1" />
		<edge from-layer="580" from-port="2" to-layer="590" to-port="0" />
		<edge from-layer="580" from-port="2" to-layer="584" to-port="0" />
		<edge from-layer="581" from-port="0" to-layer="584" to-port="1" />
		<edge from-layer="582" from-port="0" to-layer="584" to-port="2" />
		<edge from-layer="583" from-port="0" to-layer="584" to-port="3" />
		<edge from-layer="584" from-port="4" to-layer="586" to-port="0" />
		<edge from-layer="585" from-port="0" to-layer="586" to-port="1" />
		<edge from-layer="586" from-port="2" to-layer="593" to-port="0" />
		<edge from-layer="587" from-port="0" to-layer="590" to-port="1" />
		<edge from-layer="588" from-port="0" to-layer="590" to-port="2" />
		<edge from-layer="589" from-port="0" to-layer="590" to-port="3" />
		<edge from-layer="590" from-port="4" to-layer="592" to-port="0" />
		<edge from-layer="591" from-port="0" to-layer="592" to-port="1" />
		<edge from-layer="592" from-port="2" to-layer="593" to-port="1" />
		<edge from-layer="593" from-port="2" to-layer="594" to-port="1" />
		<edge from-layer="594" from-port="2" to-layer="595" to-port="1" />
		<edge from-layer="595" from-port="2" to-layer="599" to-port="0" />
		<edge from-layer="595" from-port="2" to-layer="596" to-port="1" />
		<edge from-layer="596" from-port="2" to-layer="614" to-port="0" />
		<edge from-layer="597" from-port="0" to-layer="613" to-port="0" />
		<edge from-layer="598" from-port="0" to-layer="599" to-port="1" />
		<edge from-layer="599" from-port="2" to-layer="609" to-port="0" />
		<edge from-layer="599" from-port="2" to-layer="603" to-port="0" />
		<edge from-layer="600" from-port="0" to-layer="603" to-port="1" />
		<edge from-layer="601" from-port="0" to-layer="603" to-port="2" />
		<edge from-layer="602" from-port="0" to-layer="603" to-port="3" />
		<edge from-layer="603" from-port="4" to-layer="605" to-port="0" />
		<edge from-layer="604" from-port="0" to-layer="605" to-port="1" />
		<edge from-layer="605" from-port="2" to-layer="612" to-port="0" />
		<edge from-layer="606" from-port="0" to-layer="609" to-port="1" />
		<edge from-layer="607" from-port="0" to-layer="609" to-port="2" />
		<edge from-layer="608" from-port="0" to-layer="609" to-port="3" />
		<edge from-layer="609" from-port="4" to-layer="611" to-port="0" />
		<edge from-layer="610" from-port="0" to-layer="611" to-port="1" />
		<edge from-layer="611" from-port="2" to-layer="612" to-port="1" />
		<edge from-layer="612" from-port="2" to-layer="613" to-port="1" />
		<edge from-layer="613" from-port="2" to-layer="614" to-port="1" />
		<edge from-layer="614" from-port="2" to-layer="616" to-port="0" />
		<edge from-layer="615" from-port="0" to-layer="616" to-port="1" />
		<edge from-layer="616" from-port="2" to-layer="617" to-port="0" />
		<edge from-layer="617" from-port="1" to-layer="619" to-port="0" />
		<edge from-layer="618" from-port="0" to-layer="619" to-port="1" />
		<edge from-layer="619" from-port="2" to-layer="621" to-port="0" />
		<edge from-layer="620" from-port="0" to-layer="621" to-port="1" />
		<edge from-layer="621" from-port="2" to-layer="622" to-port="1" />
		<edge from-layer="621" from-port="2" to-layer="625" to-port="0" />
		<edge from-layer="622" from-port="2" to-layer="640" to-port="0" />
		<edge from-layer="623" from-port="0" to-layer="639" to-port="0" />
		<edge from-layer="624" from-port="0" to-layer="625" to-port="1" />
		<edge from-layer="625" from-port="2" to-layer="635" to-port="0" />
		<edge from-layer="625" from-port="2" to-layer="629" to-port="0" />
		<edge from-layer="626" from-port="0" to-layer="629" to-port="1" />
		<edge from-layer="627" from-port="0" to-layer="629" to-port="2" />
		<edge from-layer="628" from-port="0" to-layer="629" to-port="3" />
		<edge from-layer="629" from-port="4" to-layer="631" to-port="0" />
		<edge from-layer="630" from-port="0" to-layer="631" to-port="1" />
		<edge from-layer="631" from-port="2" to-layer="638" to-port="0" />
		<edge from-layer="632" from-port="0" to-layer="635" to-port="1" />
		<edge from-layer="633" from-port="0" to-layer="635" to-port="2" />
		<edge from-layer="634" from-port="0" to-layer="635" to-port="3" />
		<edge from-layer="635" from-port="4" to-layer="637" to-port="0" />
		<edge from-layer="636" from-port="0" to-layer="637" to-port="1" />
		<edge from-layer="637" from-port="2" to-layer="638" to-port="1" />
		<edge from-layer="638" from-port="2" to-layer="639" to-port="1" />
		<edge from-layer="639" from-port="2" to-layer="640" to-port="1" />
		<edge from-layer="640" from-port="2" to-layer="641" to-port="1" />
		<edge from-layer="640" from-port="2" to-layer="644" to-port="0" />
		<edge from-layer="641" from-port="2" to-layer="659" to-port="0" />
		<edge from-layer="642" from-port="0" to-layer="658" to-port="0" />
		<edge from-layer="643" from-port="0" to-layer="644" to-port="1" />
		<edge from-layer="644" from-port="2" to-layer="648" to-port="0" />
		<edge from-layer="644" from-port="2" to-layer="654" to-port="0" />
		<edge from-layer="645" from-port="0" to-layer="648" to-port="1" />
		<edge from-layer="646" from-port="0" to-layer="648" to-port="2" />
		<edge from-layer="647" from-port="0" to-layer="648" to-port="3" />
		<edge from-layer="648" from-port="4" to-layer="650" to-port="0" />
		<edge from-layer="649" from-port="0" to-layer="650" to-port="1" />
		<edge from-layer="650" from-port="2" to-layer="657" to-port="0" />
		<edge from-layer="651" from-port="0" to-layer="654" to-port="1" />
		<edge from-layer="652" from-port="0" to-layer="654" to-port="2" />
		<edge from-layer="653" from-port="0" to-layer="654" to-port="3" />
		<edge from-layer="654" from-port="4" to-layer="656" to-port="0" />
		<edge from-layer="655" from-port="0" to-layer="656" to-port="1" />
		<edge from-layer="656" from-port="2" to-layer="657" to-port="1" />
		<edge from-layer="657" from-port="2" to-layer="658" to-port="1" />
		<edge from-layer="658" from-port="2" to-layer="659" to-port="1" />
		<edge from-layer="659" from-port="2" to-layer="661" to-port="0" />
		<edge from-layer="660" from-port="0" to-layer="661" to-port="1" />
		<edge from-layer="661" from-port="2" to-layer="662" to-port="0" />
		<edge from-layer="662" from-port="1" to-layer="664" to-port="0" />
		<edge from-layer="663" from-port="0" to-layer="664" to-port="1" />
		<edge from-layer="664" from-port="2" to-layer="666" to-port="0" />
		<edge from-layer="665" from-port="0" to-layer="666" to-port="1" />
		<edge from-layer="666" from-port="2" to-layer="667" to-port="1" />
		<edge from-layer="666" from-port="2" to-layer="670" to-port="0" />
		<edge from-layer="667" from-port="2" to-layer="685" to-port="0" />
		<edge from-layer="668" from-port="0" to-layer="684" to-port="0" />
		<edge from-layer="669" from-port="0" to-layer="670" to-port="1" />
		<edge from-layer="670" from-port="2" to-layer="680" to-port="0" />
		<edge from-layer="670" from-port="2" to-layer="674" to-port="0" />
		<edge from-layer="671" from-port="0" to-layer="674" to-port="1" />
		<edge from-layer="672" from-port="0" to-layer="674" to-port="2" />
		<edge from-layer="673" from-port="0" to-layer="674" to-port="3" />
		<edge from-layer="674" from-port="4" to-layer="676" to-port="0" />
		<edge from-layer="675" from-port="0" to-layer="676" to-port="1" />
		<edge from-layer="676" from-port="2" to-layer="683" to-port="0" />
		<edge from-layer="677" from-port="0" to-layer="680" to-port="1" />
		<edge from-layer="678" from-port="0" to-layer="680" to-port="2" />
		<edge from-layer="679" from-port="0" to-layer="680" to-port="3" />
		<edge from-layer="680" from-port="4" to-layer="682" to-port="0" />
		<edge from-layer="681" from-port="0" to-layer="682" to-port="1" />
		<edge from-layer="682" from-port="2" to-layer="683" to-port="1" />
		<edge from-layer="683" from-port="2" to-layer="684" to-port="1" />
		<edge from-layer="684" from-port="2" to-layer="685" to-port="1" />
		<edge from-layer="685" from-port="2" to-layer="686" to-port="1" />
		<edge from-layer="685" from-port="2" to-layer="689" to-port="0" />
		<edge from-layer="686" from-port="2" to-layer="704" to-port="0" />
		<edge from-layer="687" from-port="0" to-layer="703" to-port="0" />
		<edge from-layer="688" from-port="0" to-layer="689" to-port="1" />
		<edge from-layer="689" from-port="2" to-layer="699" to-port="0" />
		<edge from-layer="689" from-port="2" to-layer="693" to-port="0" />
		<edge from-layer="690" from-port="0" to-layer="693" to-port="1" />
		<edge from-layer="691" from-port="0" to-layer="693" to-port="2" />
		<edge from-layer="692" from-port="0" to-layer="693" to-port="3" />
		<edge from-layer="693" from-port="4" to-layer="695" to-port="0" />
		<edge from-layer="694" from-port="0" to-layer="695" to-port="1" />
		<edge from-layer="695" from-port="2" to-layer="702" to-port="0" />
		<edge from-layer="696" from-port="0" to-layer="699" to-port="1" />
		<edge from-layer="697" from-port="0" to-layer="699" to-port="2" />
		<edge from-layer="698" from-port="0" to-layer="699" to-port="3" />
		<edge from-layer="699" from-port="4" to-layer="701" to-port="0" />
		<edge from-layer="700" from-port="0" to-layer="701" to-port="1" />
		<edge from-layer="701" from-port="2" to-layer="702" to-port="1" />
		<edge from-layer="702" from-port="2" to-layer="703" to-port="1" />
		<edge from-layer="703" from-port="2" to-layer="704" to-port="1" />
		<edge from-layer="704" from-port="2" to-layer="706" to-port="0" />
		<edge from-layer="705" from-port="0" to-layer="706" to-port="1" />
		<edge from-layer="706" from-port="2" to-layer="707" to-port="0" />
		<edge from-layer="707" from-port="1" to-layer="709" to-port="0" />
		<edge from-layer="708" from-port="0" to-layer="709" to-port="1" />
		<edge from-layer="709" from-port="2" to-layer="711" to-port="0" />
		<edge from-layer="710" from-port="0" to-layer="711" to-port="1" />
		<edge from-layer="711" from-port="2" to-layer="713" to-port="0" />
		<edge from-layer="712" from-port="0" to-layer="713" to-port="1" />
		<edge from-layer="713" from-port="2" to-layer="714" to-port="0" />
	</edges>
	<rt_info>
		<MO_version value="2023.0.1-11005-fa1c41994f3-releases/2023/0" />
		<Runtime_version value="2023.0.1-11005-fa1c41994f3-releases/2023/0" />
		<conversion_parameters>
			<input value="inputs" />
			<input_model value="DIR/DenoiseModel_1s.pb" />
			<input_shape value="[1,129,18,12,2]" />
			<is_python_api_used value="False" />
			<output value="complex_conv3d_16/add_1" />
			<output_dir value="DIR" />
		</conversion_parameters>
		<legacy_frontend value="False" />
	</rt_info>
</net>
