<?xml version="1.0"?>
<net name="DenoiseModel_128hz_8lead_1s" version="11">
	<layers>
		<layer id="0" name="inputs" type="Parameter" version="opset1">
			<data shape="1,33,9,8,2" element_type="f32" />
			<rt_info>
				<attribute name="old_api_map_order" version="0" value="0, 2, 3, 4, 1" />
			</rt_info>
			<output>
				<port id="0" precision="FP32" names="inputs,inputs:0">
					<dim>1</dim>
					<dim>33</dim>
					<dim>9</dim>
					<dim>8</dim>
					<dim>2</dim>
				</port>
			</output>
		</layer>
		<layer id="1" name="complex_batch_normalization_15/mul_25/TransposeNHWCtoNCHW" type="Const" version="opset1">
			<data element_type="f32" shape="1, 16, 1, 1, 1" offset="0" size="64" />
			<output>
				<port id="0" precision="FP32" names="complex_batch_normalization_15/concat_9:0">
					<dim>1</dim>
					<dim>16</dim>
					<dim>1</dim>
					<dim>1</dim>
					<dim>1</dim>
				</port>
			</output>
		</layer>
		<layer id="2" name="complex_batch_normalization_15/mul_23/TransposeNHWCtoNCHW" type="Const" version="opset1">
			<data element_type="f32" shape="1, 16, 1, 1, 1" offset="64" size="64" />
			<output>
				<port id="0" precision="FP32" names="complex_batch_normalization_15/concat_6:0">
					<dim>1</dim>
					<dim>16</dim>
					<dim>1</dim>
					<dim>1</dim>
					<dim>1</dim>
				</port>
			</output>
		</layer>
		<layer id="3" name="complex_batch_normalization_14/mul_25/TransposeNHWCtoNCHW" type="Const" version="opset1">
			<data element_type="f32" shape="1, 20, 1, 1, 1" offset="128" size="80" />
			<output>
				<port id="0" precision="FP32" names="complex_batch_normalization_14/concat_9:0">
					<dim>1</dim>
					<dim>20</dim>
					<dim>1</dim>
					<dim>1</dim>
					<dim>1</dim>
				</port>
			</output>
		</layer>
		<layer id="4" name="complex_batch_normalization_14/mul_23/TransposeNHWCtoNCHW" type="Const" version="opset1">
			<data element_type="f32" shape="1, 20, 1, 1, 1" offset="208" size="80" />
			<output>
				<port id="0" precision="FP32" names="complex_batch_normalization_14/concat_6:0">
					<dim>1</dim>
					<dim>20</dim>
					<dim>1</dim>
					<dim>1</dim>
					<dim>1</dim>
				</port>
			</output>
		</layer>
		<layer id="5" name="complex_batch_normalization_13/mul_25/TransposeNHWCtoNCHW" type="Const" version="opset1">
			<data element_type="f32" shape="1, 36, 1, 1, 1" offset="288" size="144" />
			<output>
				<port id="0" precision="FP32" names="complex_batch_normalization_13/concat_9:0">
					<dim>1</dim>
					<dim>36</dim>
					<dim>1</dim>
					<dim>1</dim>
					<dim>1</dim>
				</port>
			</output>
		</layer>
		<layer id="6" name="complex_batch_normalization_13/mul_23/TransposeNHWCtoNCHW" type="Const" version="opset1">
			<data element_type="f32" shape="1, 36, 1, 1, 1" offset="432" size="144" />
			<output>
				<port id="0" precision="FP32" names="complex_batch_normalization_13/concat_6:0">
					<dim>1</dim>
					<dim>36</dim>
					<dim>1</dim>
					<dim>1</dim>
					<dim>1</dim>
				</port>
			</output>
		</layer>
		<layer id="7" name="complex_batch_normalization_12/mul_25/TransposeNHWCtoNCHW" type="Const" version="opset1">
			<data element_type="f32" shape="1, 16, 1, 1, 1" offset="576" size="64" />
			<output>
				<port id="0" precision="FP32" names="complex_batch_normalization_12/concat_9:0">
					<dim>1</dim>
					<dim>16</dim>
					<dim>1</dim>
					<dim>1</dim>
					<dim>1</dim>
				</port>
			</output>
		</layer>
		<layer id="8" name="complex_batch_normalization_12/mul_23/TransposeNHWCtoNCHW" type="Const" version="opset1">
			<data element_type="f32" shape="1, 16, 1, 1, 1" offset="640" size="64" />
			<output>
				<port id="0" precision="FP32" names="complex_batch_normalization_12/concat_6:0">
					<dim>1</dim>
					<dim>16</dim>
					<dim>1</dim>
					<dim>1</dim>
					<dim>1</dim>
				</port>
			</output>
		</layer>
		<layer id="9" name="complex_batch_normalization_11/mul_25/TransposeNHWCtoNCHW" type="Const" version="opset1">
			<data element_type="f32" shape="1, 20, 1, 1, 1" offset="704" size="80" />
			<output>
				<port id="0" precision="FP32" names="complex_batch_normalization_11/concat_9:0">
					<dim>1</dim>
					<dim>20</dim>
					<dim>1</dim>
					<dim>1</dim>
					<dim>1</dim>
				</port>
			</output>
		</layer>
		<layer id="10" name="complex_batch_normalization_11/mul_23/TransposeNHWCtoNCHW" type="Const" version="opset1">
			<data element_type="f32" shape="1, 20, 1, 1, 1" offset="784" size="80" />
			<output>
				<port id="0" precision="FP32" names="complex_batch_normalization_11/concat_6:0">
					<dim>1</dim>
					<dim>20</dim>
					<dim>1</dim>
					<dim>1</dim>
					<dim>1</dim>
				</port>
			</output>
		</layer>
		<layer id="11" name="complex_batch_normalization_10/mul_25/TransposeNHWCtoNCHW" type="Const" version="opset1">
			<data element_type="f32" shape="1, 36, 1, 1, 1" offset="864" size="144" />
			<output>
				<port id="0" precision="FP32" names="complex_batch_normalization_10/concat_9:0">
					<dim>1</dim>
					<dim>36</dim>
					<dim>1</dim>
					<dim>1</dim>
					<dim>1</dim>
				</port>
			</output>
		</layer>
		<layer id="12" name="complex_batch_normalization_10/mul_23/TransposeNHWCtoNCHW" type="Const" version="opset1">
			<data element_type="f32" shape="1, 36, 1, 1, 1" offset="1008" size="144" />
			<output>
				<port id="0" precision="FP32" names="complex_batch_normalization_10/concat_6:0">
					<dim>1</dim>
					<dim>36</dim>
					<dim>1</dim>
					<dim>1</dim>
					<dim>1</dim>
				</port>
			</output>
		</layer>
		<layer id="13" name="complex_batch_normalization_9/mul_25/TransposeNHWCtoNCHW" type="Const" version="opset1">
			<data element_type="f32" shape="1, 16, 1, 1, 1" offset="1152" size="64" />
			<output>
				<port id="0" precision="FP32" names="complex_batch_normalization_9/concat_9:0">
					<dim>1</dim>
					<dim>16</dim>
					<dim>1</dim>
					<dim>1</dim>
					<dim>1</dim>
				</port>
			</output>
		</layer>
		<layer id="14" name="complex_batch_normalization_9/mul_23/TransposeNHWCtoNCHW" type="Const" version="opset1">
			<data element_type="f32" shape="1, 16, 1, 1, 1" offset="1216" size="64" />
			<output>
				<port id="0" precision="FP32" names="complex_batch_normalization_9/concat_6:0">
					<dim>1</dim>
					<dim>16</dim>
					<dim>1</dim>
					<dim>1</dim>
					<dim>1</dim>
				</port>
			</output>
		</layer>
		<layer id="15" name="complex_batch_normalization_8/mul_25/TransposeNHWCtoNCHW" type="Const" version="opset1">
			<data element_type="f32" shape="1, 20, 1, 1, 1" offset="1280" size="80" />
			<output>
				<port id="0" precision="FP32" names="complex_batch_normalization_8/concat_9:0">
					<dim>1</dim>
					<dim>20</dim>
					<dim>1</dim>
					<dim>1</dim>
					<dim>1</dim>
				</port>
			</output>
		</layer>
		<layer id="16" name="complex_batch_normalization_8/mul_23/TransposeNHWCtoNCHW" type="Const" version="opset1">
			<data element_type="f32" shape="1, 20, 1, 1, 1" offset="1360" size="80" />
			<output>
				<port id="0" precision="FP32" names="complex_batch_normalization_8/concat_6:0">
					<dim>1</dim>
					<dim>20</dim>
					<dim>1</dim>
					<dim>1</dim>
					<dim>1</dim>
				</port>
			</output>
		</layer>
		<layer id="17" name="complex_batch_normalization_7/mul_25/TransposeNHWCtoNCHW" type="Const" version="opset1">
			<data element_type="f32" shape="1, 36, 1, 1, 1" offset="1440" size="144" />
			<output>
				<port id="0" precision="FP32" names="complex_batch_normalization_7/concat_9:0">
					<dim>1</dim>
					<dim>36</dim>
					<dim>1</dim>
					<dim>1</dim>
					<dim>1</dim>
				</port>
			</output>
		</layer>
		<layer id="18" name="complex_batch_normalization_7/mul_23/TransposeNHWCtoNCHW" type="Const" version="opset1">
			<data element_type="f32" shape="1, 36, 1, 1, 1" offset="1584" size="144" />
			<output>
				<port id="0" precision="FP32" names="complex_batch_normalization_7/concat_6:0">
					<dim>1</dim>
					<dim>36</dim>
					<dim>1</dim>
					<dim>1</dim>
					<dim>1</dim>
				</port>
			</output>
		</layer>
		<layer id="19" name="complex_batch_normalization_6/mul_25/TransposeNHWCtoNCHW" type="Const" version="opset1">
			<data element_type="f32" shape="1, 16, 1, 1, 1" offset="1728" size="64" />
			<output>
				<port id="0" precision="FP32" names="complex_batch_normalization_6/concat_9:0">
					<dim>1</dim>
					<dim>16</dim>
					<dim>1</dim>
					<dim>1</dim>
					<dim>1</dim>
				</port>
			</output>
		</layer>
		<layer id="20" name="complex_batch_normalization_6/mul_23/TransposeNHWCtoNCHW" type="Const" version="opset1">
			<data element_type="f32" shape="1, 16, 1, 1, 1" offset="1792" size="64" />
			<output>
				<port id="0" precision="FP32" names="complex_batch_normalization_6/concat_6:0">
					<dim>1</dim>
					<dim>16</dim>
					<dim>1</dim>
					<dim>1</dim>
					<dim>1</dim>
				</port>
			</output>
		</layer>
		<layer id="21" name="complex_batch_normalization_5/mul_25/TransposeNHWCtoNCHW" type="Const" version="opset1">
			<data element_type="f32" shape="1, 20, 1, 1, 1" offset="1856" size="80" />
			<output>
				<port id="0" precision="FP32" names="complex_batch_normalization_5/concat_9:0">
					<dim>1</dim>
					<dim>20</dim>
					<dim>1</dim>
					<dim>1</dim>
					<dim>1</dim>
				</port>
			</output>
		</layer>
		<layer id="22" name="complex_batch_normalization_5/mul_23/TransposeNHWCtoNCHW" type="Const" version="opset1">
			<data element_type="f32" shape="1, 20, 1, 1, 1" offset="1936" size="80" />
			<output>
				<port id="0" precision="FP32" names="complex_batch_normalization_5/concat_6:0">
					<dim>1</dim>
					<dim>20</dim>
					<dim>1</dim>
					<dim>1</dim>
					<dim>1</dim>
				</port>
			</output>
		</layer>
		<layer id="23" name="complex_batch_normalization_4/mul_25/TransposeNHWCtoNCHW" type="Const" version="opset1">
			<data element_type="f32" shape="1, 36, 1, 1, 1" offset="2016" size="144" />
			<output>
				<port id="0" precision="FP32" names="complex_batch_normalization_4/concat_9:0">
					<dim>1</dim>
					<dim>36</dim>
					<dim>1</dim>
					<dim>1</dim>
					<dim>1</dim>
				</port>
			</output>
		</layer>
		<layer id="24" name="complex_batch_normalization_4/mul_23/TransposeNHWCtoNCHW" type="Const" version="opset1">
			<data element_type="f32" shape="1, 36, 1, 1, 1" offset="2160" size="144" />
			<output>
				<port id="0" precision="FP32" names="complex_batch_normalization_4/concat_6:0">
					<dim>1</dim>
					<dim>36</dim>
					<dim>1</dim>
					<dim>1</dim>
					<dim>1</dim>
				</port>
			</output>
		</layer>
		<layer id="25" name="complex_batch_normalization_3/mul_25/TransposeNHWCtoNCHW" type="Const" version="opset1">
			<data element_type="f32" shape="1, 16, 1, 1, 1" offset="2304" size="64" />
			<output>
				<port id="0" precision="FP32" names="complex_batch_normalization_3/concat_9:0">
					<dim>1</dim>
					<dim>16</dim>
					<dim>1</dim>
					<dim>1</dim>
					<dim>1</dim>
				</port>
			</output>
		</layer>
		<layer id="26" name="complex_batch_normalization_3/mul_23/TransposeNHWCtoNCHW" type="Const" version="opset1">
			<data element_type="f32" shape="1, 16, 1, 1, 1" offset="2368" size="64" />
			<output>
				<port id="0" precision="FP32" names="complex_batch_normalization_3/concat_6:0">
					<dim>1</dim>
					<dim>16</dim>
					<dim>1</dim>
					<dim>1</dim>
					<dim>1</dim>
				</port>
			</output>
		</layer>
		<layer id="27" name="complex_batch_normalization_2/mul_25/TransposeNHWCtoNCHW" type="Const" version="opset1">
			<data element_type="f32" shape="1, 20, 1, 1, 1" offset="2432" size="80" />
			<output>
				<port id="0" precision="FP32" names="complex_batch_normalization_2/concat_9:0">
					<dim>1</dim>
					<dim>20</dim>
					<dim>1</dim>
					<dim>1</dim>
					<dim>1</dim>
				</port>
			</output>
		</layer>
		<layer id="28" name="complex_batch_normalization_2/mul_23/TransposeNHWCtoNCHW" type="Const" version="opset1">
			<data element_type="f32" shape="1, 20, 1, 1, 1" offset="2512" size="80" />
			<output>
				<port id="0" precision="FP32" names="complex_batch_normalization_2/concat_6:0">
					<dim>1</dim>
					<dim>20</dim>
					<dim>1</dim>
					<dim>1</dim>
					<dim>1</dim>
				</port>
			</output>
		</layer>
		<layer id="29" name="complex_batch_normalization_1/mul_25/TransposeNHWCtoNCHW" type="Const" version="opset1">
			<data element_type="f32" shape="1, 36, 1, 1, 1" offset="2592" size="144" />
			<output>
				<port id="0" precision="FP32" names="complex_batch_normalization_1/concat_9:0">
					<dim>1</dim>
					<dim>36</dim>
					<dim>1</dim>
					<dim>1</dim>
					<dim>1</dim>
				</port>
			</output>
		</layer>
		<layer id="30" name="complex_batch_normalization_1/mul_23/TransposeNHWCtoNCHW" type="Const" version="opset1">
			<data element_type="f32" shape="1, 36, 1, 1, 1" offset="2736" size="144" />
			<output>
				<port id="0" precision="FP32" names="complex_batch_normalization_1/concat_6:0">
					<dim>1</dim>
					<dim>36</dim>
					<dim>1</dim>
					<dim>1</dim>
					<dim>1</dim>
				</port>
			</output>
		</layer>
		<layer id="31" name="inputs/Transpose([0 4 1 2 3])/value5333080633" type="Const" version="opset1">
			<data element_type="i64" shape="5" offset="2880" size="40" />
			<output>
				<port id="0" precision="I64">
					<dim>5</dim>
				</port>
			</output>
		</layer>
		<layer id="32" name="inputs/Transpose([0 4 1 2 3])" type="Transpose" version="opset1">
			<input>
				<port id="0" precision="FP32">
					<dim>1</dim>
					<dim>33</dim>
					<dim>9</dim>
					<dim>8</dim>
					<dim>2</dim>
				</port>
				<port id="1" precision="I64">
					<dim>5</dim>
				</port>
			</input>
			<output>
				<port id="2" precision="FP32">
					<dim>1</dim>
					<dim>2</dim>
					<dim>33</dim>
					<dim>9</dim>
					<dim>8</dim>
				</port>
			</output>
		</layer>
		<layer id="33" name="complex_conv3d_1/concat_2" type="Const" version="opset1">
			<data element_type="f32" shape="36, 2, 9, 3, 1" offset="2920" size="7776" />
			<output>
				<port id="0" precision="FP32" names="complex_conv3d_1/concat_2:0">
					<dim>36</dim>
					<dim>2</dim>
					<dim>9</dim>
					<dim>3</dim>
					<dim>1</dim>
				</port>
			</output>
		</layer>
		<layer id="34" name="complex_conv3d_1/convolution" type="Convolution" version="opset1">
			<data strides="1, 1, 1" dilations="1, 1, 1" pads_begin="0, 0, 0" pads_end="0, 0, 0" auto_pad="same_upper" />
			<input>
				<port id="0" precision="FP32">
					<dim>1</dim>
					<dim>2</dim>
					<dim>33</dim>
					<dim>9</dim>
					<dim>8</dim>
				</port>
				<port id="1" precision="FP32">
					<dim>36</dim>
					<dim>2</dim>
					<dim>9</dim>
					<dim>3</dim>
					<dim>1</dim>
				</port>
			</input>
			<output>
				<port id="2" precision="FP32" names="complex_conv3d_1/convolution:0">
					<dim>1</dim>
					<dim>36</dim>
					<dim>33</dim>
					<dim>9</dim>
					<dim>8</dim>
				</port>
			</output>
		</layer>
		<layer id="35" name="data_add_4065782307" type="Const" version="opset1">
			<data element_type="f32" shape="1, 36, 1, 1, 1" offset="10696" size="144" />
			<output>
				<port id="0" precision="FP32">
					<dim>1</dim>
					<dim>36</dim>
					<dim>1</dim>
					<dim>1</dim>
					<dim>1</dim>
				</port>
			</output>
		</layer>
		<layer id="36" name="complex_conv3d_1/add_1/Fused_Add_" type="Add" version="opset1">
			<data auto_broadcast="numpy" />
			<input>
				<port id="0" precision="FP32">
					<dim>1</dim>
					<dim>36</dim>
					<dim>33</dim>
					<dim>9</dim>
					<dim>8</dim>
				</port>
				<port id="1" precision="FP32">
					<dim>1</dim>
					<dim>36</dim>
					<dim>1</dim>
					<dim>1</dim>
					<dim>1</dim>
				</port>
			</input>
			<output>
				<port id="2" precision="FP32" names="complex_batch_normalization_1/sub_2:0">
					<dim>1</dim>
					<dim>36</dim>
					<dim>33</dim>
					<dim>9</dim>
					<dim>8</dim>
				</port>
			</output>
		</layer>
		<layer id="37" name="complex_batch_normalization_1/mul_23" type="Multiply" version="opset1">
			<data auto_broadcast="numpy" />
			<input>
				<port id="0" precision="FP32">
					<dim>1</dim>
					<dim>36</dim>
					<dim>1</dim>
					<dim>1</dim>
					<dim>1</dim>
				</port>
				<port id="1" precision="FP32">
					<dim>1</dim>
					<dim>36</dim>
					<dim>33</dim>
					<dim>9</dim>
					<dim>8</dim>
				</port>
			</input>
			<output>
				<port id="2" precision="FP32" names="complex_batch_normalization_1/mul_23:0">
					<dim>1</dim>
					<dim>36</dim>
					<dim>33</dim>
					<dim>9</dim>
					<dim>8</dim>
				</port>
			</output>
		</layer>
		<layer id="38" name="complex_batch_normalization_1/mul_24/TransposeNHWCtoNCHW" type="Const" version="opset1">
			<data element_type="f32" shape="1, 36, 1, 1, 1" offset="10840" size="144" />
			<output>
				<port id="0" precision="FP32" names="complex_batch_normalization_1/concat_7:0">
					<dim>1</dim>
					<dim>36</dim>
					<dim>1</dim>
					<dim>1</dim>
					<dim>1</dim>
				</port>
			</output>
		</layer>
		<layer id="39" name="5340581845" type="Const" version="opset1">
			<data element_type="i64" shape="" offset="10984" size="8" />
			<output>
				<port id="0" precision="I64" />
			</output>
		</layer>
		<layer id="40" name="3169882112" type="Const" version="opset1">
			<data element_type="i64" shape="2" offset="10992" size="16" />
			<output>
				<port id="0" precision="I64">
					<dim>2</dim>
				</port>
			</output>
		</layer>
		<layer id="41" name="complex_batch_normalization_1/strided_slice_12/Split" type="VariadicSplit" version="opset1">
			<input>
				<port id="0" precision="FP32">
					<dim>1</dim>
					<dim>36</dim>
					<dim>33</dim>
					<dim>9</dim>
					<dim>8</dim>
				</port>
				<port id="1" precision="I64" />
				<port id="2" precision="I64">
					<dim>2</dim>
				</port>
			</input>
			<output>
				<port id="3" precision="FP32" names="complex_batch_normalization_1/strided_slice_12:0">
					<dim>1</dim>
					<dim>18</dim>
					<dim>33</dim>
					<dim>9</dim>
					<dim>8</dim>
				</port>
				<port id="4" precision="FP32" names="complex_batch_normalization_1/strided_slice_13:0">
					<dim>1</dim>
					<dim>18</dim>
					<dim>33</dim>
					<dim>9</dim>
					<dim>8</dim>
				</port>
			</output>
		</layer>
		<layer id="42" name="complex_batch_normalization_1/concat_8" type="Concat" version="opset1">
			<data axis="1" />
			<input>
				<port id="0" precision="FP32">
					<dim>1</dim>
					<dim>18</dim>
					<dim>33</dim>
					<dim>9</dim>
					<dim>8</dim>
				</port>
				<port id="1" precision="FP32">
					<dim>1</dim>
					<dim>18</dim>
					<dim>33</dim>
					<dim>9</dim>
					<dim>8</dim>
				</port>
			</input>
			<output>
				<port id="2" precision="FP32" names="complex_batch_normalization_1/concat_8:0">
					<dim>1</dim>
					<dim>36</dim>
					<dim>33</dim>
					<dim>9</dim>
					<dim>8</dim>
				</port>
			</output>
		</layer>
		<layer id="43" name="complex_batch_normalization_1/mul_24" type="Multiply" version="opset1">
			<data auto_broadcast="numpy" />
			<input>
				<port id="0" precision="FP32">
					<dim>1</dim>
					<dim>36</dim>
					<dim>1</dim>
					<dim>1</dim>
					<dim>1</dim>
				</port>
				<port id="1" precision="FP32">
					<dim>1</dim>
					<dim>36</dim>
					<dim>33</dim>
					<dim>9</dim>
					<dim>8</dim>
				</port>
			</input>
			<output>
				<port id="2" precision="FP32" names="complex_batch_normalization_1/mul_24:0">
					<dim>1</dim>
					<dim>36</dim>
					<dim>33</dim>
					<dim>9</dim>
					<dim>8</dim>
				</port>
			</output>
		</layer>
		<layer id="44" name="complex_batch_normalization_1/add_13" type="Add" version="opset1">
			<data auto_broadcast="numpy" />
			<input>
				<port id="0" precision="FP32">
					<dim>1</dim>
					<dim>36</dim>
					<dim>33</dim>
					<dim>9</dim>
					<dim>8</dim>
				</port>
				<port id="1" precision="FP32">
					<dim>1</dim>
					<dim>36</dim>
					<dim>33</dim>
					<dim>9</dim>
					<dim>8</dim>
				</port>
			</input>
			<output>
				<port id="2" precision="FP32" names="complex_batch_normalization_1/add_13:0">
					<dim>1</dim>
					<dim>36</dim>
					<dim>33</dim>
					<dim>9</dim>
					<dim>8</dim>
				</port>
			</output>
		</layer>
		<layer id="45" name="complex_batch_normalization_1/mul_25" type="Multiply" version="opset1">
			<data auto_broadcast="numpy" />
			<input>
				<port id="0" precision="FP32">
					<dim>1</dim>
					<dim>36</dim>
					<dim>1</dim>
					<dim>1</dim>
					<dim>1</dim>
				</port>
				<port id="1" precision="FP32">
					<dim>1</dim>
					<dim>36</dim>
					<dim>33</dim>
					<dim>9</dim>
					<dim>8</dim>
				</port>
			</input>
			<output>
				<port id="2" precision="FP32" names="complex_batch_normalization_1/mul_25:0">
					<dim>1</dim>
					<dim>36</dim>
					<dim>33</dim>
					<dim>9</dim>
					<dim>8</dim>
				</port>
			</output>
		</layer>
		<layer id="46" name="complex_batch_normalization_1/mul_26/TransposeNHWCtoNCHW" type="Const" version="opset1">
			<data element_type="f32" shape="1, 36, 1, 1, 1" offset="11008" size="144" />
			<output>
				<port id="0" precision="FP32" names="complex_batch_normalization_1/concat_10:0">
					<dim>1</dim>
					<dim>36</dim>
					<dim>1</dim>
					<dim>1</dim>
					<dim>1</dim>
				</port>
			</output>
		</layer>
		<layer id="47" name="5341180024" type="Const" version="opset1">
			<data element_type="i64" shape="" offset="10984" size="8" />
			<output>
				<port id="0" precision="I64" />
			</output>
		</layer>
		<layer id="48" name="3170382187" type="Const" version="opset1">
			<data element_type="i64" shape="2" offset="10992" size="16" />
			<output>
				<port id="0" precision="I64">
					<dim>2</dim>
				</port>
			</output>
		</layer>
		<layer id="49" name="complex_batch_normalization_1/strided_slice_14/Split" type="VariadicSplit" version="opset1">
			<input>
				<port id="0" precision="FP32">
					<dim>1</dim>
					<dim>36</dim>
					<dim>33</dim>
					<dim>9</dim>
					<dim>8</dim>
				</port>
				<port id="1" precision="I64" />
				<port id="2" precision="I64">
					<dim>2</dim>
				</port>
			</input>
			<output>
				<port id="3" precision="FP32" names="complex_batch_normalization_1/strided_slice_14:0">
					<dim>1</dim>
					<dim>18</dim>
					<dim>33</dim>
					<dim>9</dim>
					<dim>8</dim>
				</port>
				<port id="4" precision="FP32" names="complex_batch_normalization_1/strided_slice_15:0">
					<dim>1</dim>
					<dim>18</dim>
					<dim>33</dim>
					<dim>9</dim>
					<dim>8</dim>
				</port>
			</output>
		</layer>
		<layer id="50" name="complex_batch_normalization_1/concat_11" type="Concat" version="opset1">
			<data axis="1" />
			<input>
				<port id="0" precision="FP32">
					<dim>1</dim>
					<dim>18</dim>
					<dim>33</dim>
					<dim>9</dim>
					<dim>8</dim>
				</port>
				<port id="1" precision="FP32">
					<dim>1</dim>
					<dim>18</dim>
					<dim>33</dim>
					<dim>9</dim>
					<dim>8</dim>
				</port>
			</input>
			<output>
				<port id="2" precision="FP32" names="complex_batch_normalization_1/concat_11:0">
					<dim>1</dim>
					<dim>36</dim>
					<dim>33</dim>
					<dim>9</dim>
					<dim>8</dim>
				</port>
			</output>
		</layer>
		<layer id="51" name="complex_batch_normalization_1/mul_26" type="Multiply" version="opset1">
			<data auto_broadcast="numpy" />
			<input>
				<port id="0" precision="FP32">
					<dim>1</dim>
					<dim>36</dim>
					<dim>1</dim>
					<dim>1</dim>
					<dim>1</dim>
				</port>
				<port id="1" precision="FP32">
					<dim>1</dim>
					<dim>36</dim>
					<dim>33</dim>
					<dim>9</dim>
					<dim>8</dim>
				</port>
			</input>
			<output>
				<port id="2" precision="FP32" names="complex_batch_normalization_1/mul_26:0">
					<dim>1</dim>
					<dim>36</dim>
					<dim>33</dim>
					<dim>9</dim>
					<dim>8</dim>
				</port>
			</output>
		</layer>
		<layer id="52" name="complex_batch_normalization_1/add_14" type="Add" version="opset1">
			<data auto_broadcast="numpy" />
			<input>
				<port id="0" precision="FP32">
					<dim>1</dim>
					<dim>36</dim>
					<dim>33</dim>
					<dim>9</dim>
					<dim>8</dim>
				</port>
				<port id="1" precision="FP32">
					<dim>1</dim>
					<dim>36</dim>
					<dim>33</dim>
					<dim>9</dim>
					<dim>8</dim>
				</port>
			</input>
			<output>
				<port id="2" precision="FP32" names="complex_batch_normalization_1/add_14:0">
					<dim>1</dim>
					<dim>36</dim>
					<dim>33</dim>
					<dim>9</dim>
					<dim>8</dim>
				</port>
			</output>
		</layer>
		<layer id="53" name="complex_batch_normalization_1/add_15/TransposeNHWCtoNCHW" type="Const" version="opset1">
			<data element_type="f32" shape="1, 36, 1, 1, 1" offset="11152" size="144" />
			<output>
				<port id="0" precision="FP32" names="complex_batch_normalization_1/Reshape_15:0">
					<dim>1</dim>
					<dim>36</dim>
					<dim>1</dim>
					<dim>1</dim>
					<dim>1</dim>
				</port>
			</output>
		</layer>
		<layer id="54" name="complex_batch_normalization_1/add_15" type="Add" version="opset1">
			<data auto_broadcast="numpy" />
			<input>
				<port id="0" precision="FP32">
					<dim>1</dim>
					<dim>36</dim>
					<dim>33</dim>
					<dim>9</dim>
					<dim>8</dim>
				</port>
				<port id="1" precision="FP32">
					<dim>1</dim>
					<dim>36</dim>
					<dim>1</dim>
					<dim>1</dim>
					<dim>1</dim>
				</port>
			</input>
			<output>
				<port id="2" precision="FP32" names="complex_batch_normalization_1/add_15:0">
					<dim>1</dim>
					<dim>36</dim>
					<dim>33</dim>
					<dim>9</dim>
					<dim>8</dim>
				</port>
			</output>
		</layer>
		<layer id="55" name="activation_1/Relu" type="ReLU" version="opset1">
			<input>
				<port id="0" precision="FP32">
					<dim>1</dim>
					<dim>36</dim>
					<dim>33</dim>
					<dim>9</dim>
					<dim>8</dim>
				</port>
			</input>
			<output>
				<port id="1" precision="FP32" names="activation_1/Relu:0">
					<dim>1</dim>
					<dim>36</dim>
					<dim>33</dim>
					<dim>9</dim>
					<dim>8</dim>
				</port>
			</output>
		</layer>
		<layer id="56" name="complex_conv3d_2/concat_2" type="Const" version="opset1">
			<data element_type="f32" shape="20, 36, 5, 3, 1" offset="11296" size="43200" />
			<output>
				<port id="0" precision="FP32" names="complex_conv3d_2/concat_2:0">
					<dim>20</dim>
					<dim>36</dim>
					<dim>5</dim>
					<dim>3</dim>
					<dim>1</dim>
				</port>
			</output>
		</layer>
		<layer id="57" name="complex_conv3d_2/convolution" type="Convolution" version="opset1">
			<data strides="1, 1, 1" dilations="1, 1, 1" pads_begin="0, 0, 0" pads_end="0, 0, 0" auto_pad="same_upper" />
			<input>
				<port id="0" precision="FP32">
					<dim>1</dim>
					<dim>36</dim>
					<dim>33</dim>
					<dim>9</dim>
					<dim>8</dim>
				</port>
				<port id="1" precision="FP32">
					<dim>20</dim>
					<dim>36</dim>
					<dim>5</dim>
					<dim>3</dim>
					<dim>1</dim>
				</port>
			</input>
			<output>
				<port id="2" precision="FP32" names="complex_conv3d_2/convolution:0">
					<dim>1</dim>
					<dim>20</dim>
					<dim>33</dim>
					<dim>9</dim>
					<dim>8</dim>
				</port>
			</output>
		</layer>
		<layer id="58" name="data_add_406594066181620" type="Const" version="opset1">
			<data element_type="f32" shape="1, 20, 1, 1, 1" offset="54496" size="80" />
			<output>
				<port id="0" precision="FP32">
					<dim>1</dim>
					<dim>20</dim>
					<dim>1</dim>
					<dim>1</dim>
					<dim>1</dim>
				</port>
			</output>
		</layer>
		<layer id="59" name="complex_conv3d_2/add_1/Fused_Add_" type="Add" version="opset1">
			<data auto_broadcast="numpy" />
			<input>
				<port id="0" precision="FP32">
					<dim>1</dim>
					<dim>20</dim>
					<dim>33</dim>
					<dim>9</dim>
					<dim>8</dim>
				</port>
				<port id="1" precision="FP32">
					<dim>1</dim>
					<dim>20</dim>
					<dim>1</dim>
					<dim>1</dim>
					<dim>1</dim>
				</port>
			</input>
			<output>
				<port id="2" precision="FP32" names="complex_batch_normalization_2/sub_2:0">
					<dim>1</dim>
					<dim>20</dim>
					<dim>33</dim>
					<dim>9</dim>
					<dim>8</dim>
				</port>
			</output>
		</layer>
		<layer id="60" name="complex_batch_normalization_2/mul_23" type="Multiply" version="opset1">
			<data auto_broadcast="numpy" />
			<input>
				<port id="0" precision="FP32">
					<dim>1</dim>
					<dim>20</dim>
					<dim>1</dim>
					<dim>1</dim>
					<dim>1</dim>
				</port>
				<port id="1" precision="FP32">
					<dim>1</dim>
					<dim>20</dim>
					<dim>33</dim>
					<dim>9</dim>
					<dim>8</dim>
				</port>
			</input>
			<output>
				<port id="2" precision="FP32" names="complex_batch_normalization_2/mul_23:0">
					<dim>1</dim>
					<dim>20</dim>
					<dim>33</dim>
					<dim>9</dim>
					<dim>8</dim>
				</port>
			</output>
		</layer>
		<layer id="61" name="complex_batch_normalization_2/mul_24/TransposeNHWCtoNCHW" type="Const" version="opset1">
			<data element_type="f32" shape="1, 20, 1, 1, 1" offset="54576" size="80" />
			<output>
				<port id="0" precision="FP32" names="complex_batch_normalization_2/concat_7:0">
					<dim>1</dim>
					<dim>20</dim>
					<dim>1</dim>
					<dim>1</dim>
					<dim>1</dim>
				</port>
			</output>
		</layer>
		<layer id="62" name="5341780534" type="Const" version="opset1">
			<data element_type="i64" shape="" offset="10984" size="8" />
			<output>
				<port id="0" precision="I64" />
			</output>
		</layer>
		<layer id="63" name="3170881683" type="Const" version="opset1">
			<data element_type="i64" shape="2" offset="54656" size="16" />
			<output>
				<port id="0" precision="I64">
					<dim>2</dim>
				</port>
			</output>
		</layer>
		<layer id="64" name="complex_batch_normalization_2/strided_slice_12/Split" type="VariadicSplit" version="opset1">
			<input>
				<port id="0" precision="FP32">
					<dim>1</dim>
					<dim>20</dim>
					<dim>33</dim>
					<dim>9</dim>
					<dim>8</dim>
				</port>
				<port id="1" precision="I64" />
				<port id="2" precision="I64">
					<dim>2</dim>
				</port>
			</input>
			<output>
				<port id="3" precision="FP32" names="complex_batch_normalization_2/strided_slice_12:0">
					<dim>1</dim>
					<dim>10</dim>
					<dim>33</dim>
					<dim>9</dim>
					<dim>8</dim>
				</port>
				<port id="4" precision="FP32" names="complex_batch_normalization_2/strided_slice_13:0">
					<dim>1</dim>
					<dim>10</dim>
					<dim>33</dim>
					<dim>9</dim>
					<dim>8</dim>
				</port>
			</output>
		</layer>
		<layer id="65" name="complex_batch_normalization_2/concat_8" type="Concat" version="opset1">
			<data axis="1" />
			<input>
				<port id="0" precision="FP32">
					<dim>1</dim>
					<dim>10</dim>
					<dim>33</dim>
					<dim>9</dim>
					<dim>8</dim>
				</port>
				<port id="1" precision="FP32">
					<dim>1</dim>
					<dim>10</dim>
					<dim>33</dim>
					<dim>9</dim>
					<dim>8</dim>
				</port>
			</input>
			<output>
				<port id="2" precision="FP32" names="complex_batch_normalization_2/concat_8:0">
					<dim>1</dim>
					<dim>20</dim>
					<dim>33</dim>
					<dim>9</dim>
					<dim>8</dim>
				</port>
			</output>
		</layer>
		<layer id="66" name="complex_batch_normalization_2/mul_24" type="Multiply" version="opset1">
			<data auto_broadcast="numpy" />
			<input>
				<port id="0" precision="FP32">
					<dim>1</dim>
					<dim>20</dim>
					<dim>1</dim>
					<dim>1</dim>
					<dim>1</dim>
				</port>
				<port id="1" precision="FP32">
					<dim>1</dim>
					<dim>20</dim>
					<dim>33</dim>
					<dim>9</dim>
					<dim>8</dim>
				</port>
			</input>
			<output>
				<port id="2" precision="FP32" names="complex_batch_normalization_2/mul_24:0">
					<dim>1</dim>
					<dim>20</dim>
					<dim>33</dim>
					<dim>9</dim>
					<dim>8</dim>
				</port>
			</output>
		</layer>
		<layer id="67" name="complex_batch_normalization_2/add_13" type="Add" version="opset1">
			<data auto_broadcast="numpy" />
			<input>
				<port id="0" precision="FP32">
					<dim>1</dim>
					<dim>20</dim>
					<dim>33</dim>
					<dim>9</dim>
					<dim>8</dim>
				</port>
				<port id="1" precision="FP32">
					<dim>1</dim>
					<dim>20</dim>
					<dim>33</dim>
					<dim>9</dim>
					<dim>8</dim>
				</port>
			</input>
			<output>
				<port id="2" precision="FP32" names="complex_batch_normalization_2/add_13:0">
					<dim>1</dim>
					<dim>20</dim>
					<dim>33</dim>
					<dim>9</dim>
					<dim>8</dim>
				</port>
			</output>
		</layer>
		<layer id="68" name="complex_batch_normalization_2/mul_25" type="Multiply" version="opset1">
			<data auto_broadcast="numpy" />
			<input>
				<port id="0" precision="FP32">
					<dim>1</dim>
					<dim>20</dim>
					<dim>1</dim>
					<dim>1</dim>
					<dim>1</dim>
				</port>
				<port id="1" precision="FP32">
					<dim>1</dim>
					<dim>20</dim>
					<dim>33</dim>
					<dim>9</dim>
					<dim>8</dim>
				</port>
			</input>
			<output>
				<port id="2" precision="FP32" names="complex_batch_normalization_2/mul_25:0">
					<dim>1</dim>
					<dim>20</dim>
					<dim>33</dim>
					<dim>9</dim>
					<dim>8</dim>
				</port>
			</output>
		</layer>
		<layer id="69" name="complex_batch_normalization_2/mul_26/TransposeNHWCtoNCHW" type="Const" version="opset1">
			<data element_type="f32" shape="1, 20, 1, 1, 1" offset="54672" size="80" />
			<output>
				<port id="0" precision="FP32" names="complex_batch_normalization_2/concat_10:0">
					<dim>1</dim>
					<dim>20</dim>
					<dim>1</dim>
					<dim>1</dim>
					<dim>1</dim>
				</port>
			</output>
		</layer>
		<layer id="70" name="5342381665" type="Const" version="opset1">
			<data element_type="i64" shape="" offset="10984" size="8" />
			<output>
				<port id="0" precision="I64" />
			</output>
		</layer>
		<layer id="71" name="3171382103" type="Const" version="opset1">
			<data element_type="i64" shape="2" offset="54656" size="16" />
			<output>
				<port id="0" precision="I64">
					<dim>2</dim>
				</port>
			</output>
		</layer>
		<layer id="72" name="complex_batch_normalization_2/strided_slice_14/Split" type="VariadicSplit" version="opset1">
			<input>
				<port id="0" precision="FP32">
					<dim>1</dim>
					<dim>20</dim>
					<dim>33</dim>
					<dim>9</dim>
					<dim>8</dim>
				</port>
				<port id="1" precision="I64" />
				<port id="2" precision="I64">
					<dim>2</dim>
				</port>
			</input>
			<output>
				<port id="3" precision="FP32" names="complex_batch_normalization_2/strided_slice_14:0">
					<dim>1</dim>
					<dim>10</dim>
					<dim>33</dim>
					<dim>9</dim>
					<dim>8</dim>
				</port>
				<port id="4" precision="FP32" names="complex_batch_normalization_2/strided_slice_15:0">
					<dim>1</dim>
					<dim>10</dim>
					<dim>33</dim>
					<dim>9</dim>
					<dim>8</dim>
				</port>
			</output>
		</layer>
		<layer id="73" name="complex_batch_normalization_2/concat_11" type="Concat" version="opset1">
			<data axis="1" />
			<input>
				<port id="0" precision="FP32">
					<dim>1</dim>
					<dim>10</dim>
					<dim>33</dim>
					<dim>9</dim>
					<dim>8</dim>
				</port>
				<port id="1" precision="FP32">
					<dim>1</dim>
					<dim>10</dim>
					<dim>33</dim>
					<dim>9</dim>
					<dim>8</dim>
				</port>
			</input>
			<output>
				<port id="2" precision="FP32" names="complex_batch_normalization_2/concat_11:0">
					<dim>1</dim>
					<dim>20</dim>
					<dim>33</dim>
					<dim>9</dim>
					<dim>8</dim>
				</port>
			</output>
		</layer>
		<layer id="74" name="complex_batch_normalization_2/mul_26" type="Multiply" version="opset1">
			<data auto_broadcast="numpy" />
			<input>
				<port id="0" precision="FP32">
					<dim>1</dim>
					<dim>20</dim>
					<dim>1</dim>
					<dim>1</dim>
					<dim>1</dim>
				</port>
				<port id="1" precision="FP32">
					<dim>1</dim>
					<dim>20</dim>
					<dim>33</dim>
					<dim>9</dim>
					<dim>8</dim>
				</port>
			</input>
			<output>
				<port id="2" precision="FP32" names="complex_batch_normalization_2/mul_26:0">
					<dim>1</dim>
					<dim>20</dim>
					<dim>33</dim>
					<dim>9</dim>
					<dim>8</dim>
				</port>
			</output>
		</layer>
		<layer id="75" name="complex_batch_normalization_2/add_14" type="Add" version="opset1">
			<data auto_broadcast="numpy" />
			<input>
				<port id="0" precision="FP32">
					<dim>1</dim>
					<dim>20</dim>
					<dim>33</dim>
					<dim>9</dim>
					<dim>8</dim>
				</port>
				<port id="1" precision="FP32">
					<dim>1</dim>
					<dim>20</dim>
					<dim>33</dim>
					<dim>9</dim>
					<dim>8</dim>
				</port>
			</input>
			<output>
				<port id="2" precision="FP32" names="complex_batch_normalization_2/add_14:0">
					<dim>1</dim>
					<dim>20</dim>
					<dim>33</dim>
					<dim>9</dim>
					<dim>8</dim>
				</port>
			</output>
		</layer>
		<layer id="76" name="complex_batch_normalization_2/add_15/TransposeNHWCtoNCHW" type="Const" version="opset1">
			<data element_type="f32" shape="1, 20, 1, 1, 1" offset="54752" size="80" />
			<output>
				<port id="0" precision="FP32" names="complex_batch_normalization_2/Reshape_15:0">
					<dim>1</dim>
					<dim>20</dim>
					<dim>1</dim>
					<dim>1</dim>
					<dim>1</dim>
				</port>
			</output>
		</layer>
		<layer id="77" name="complex_batch_normalization_2/add_15" type="Add" version="opset1">
			<data auto_broadcast="numpy" />
			<input>
				<port id="0" precision="FP32">
					<dim>1</dim>
					<dim>20</dim>
					<dim>33</dim>
					<dim>9</dim>
					<dim>8</dim>
				</port>
				<port id="1" precision="FP32">
					<dim>1</dim>
					<dim>20</dim>
					<dim>1</dim>
					<dim>1</dim>
					<dim>1</dim>
				</port>
			</input>
			<output>
				<port id="2" precision="FP32" names="complex_batch_normalization_2/add_15:0">
					<dim>1</dim>
					<dim>20</dim>
					<dim>33</dim>
					<dim>9</dim>
					<dim>8</dim>
				</port>
			</output>
		</layer>
		<layer id="78" name="activation_2/Relu" type="ReLU" version="opset1">
			<input>
				<port id="0" precision="FP32">
					<dim>1</dim>
					<dim>20</dim>
					<dim>33</dim>
					<dim>9</dim>
					<dim>8</dim>
				</port>
			</input>
			<output>
				<port id="1" precision="FP32" names="activation_2/Relu:0">
					<dim>1</dim>
					<dim>20</dim>
					<dim>33</dim>
					<dim>9</dim>
					<dim>8</dim>
				</port>
			</output>
		</layer>
		<layer id="79" name="complex_conv3d_3/concat_2" type="Const" version="opset1">
			<data element_type="f32" shape="16, 20, 9, 3, 1" offset="54832" size="34560" />
			<output>
				<port id="0" precision="FP32" names="complex_conv3d_3/concat_2:0">
					<dim>16</dim>
					<dim>20</dim>
					<dim>9</dim>
					<dim>3</dim>
					<dim>1</dim>
				</port>
			</output>
		</layer>
		<layer id="80" name="complex_conv3d_3/convolution" type="Convolution" version="opset1">
			<data strides="1, 1, 1" dilations="1, 1, 1" pads_begin="0, 0, 0" pads_end="0, 0, 0" auto_pad="same_upper" />
			<input>
				<port id="0" precision="FP32">
					<dim>1</dim>
					<dim>20</dim>
					<dim>33</dim>
					<dim>9</dim>
					<dim>8</dim>
				</port>
				<port id="1" precision="FP32">
					<dim>16</dim>
					<dim>20</dim>
					<dim>9</dim>
					<dim>3</dim>
					<dim>1</dim>
				</port>
			</input>
			<output>
				<port id="2" precision="FP32" names="complex_conv3d_3/convolution:0">
					<dim>1</dim>
					<dim>16</dim>
					<dim>33</dim>
					<dim>9</dim>
					<dim>8</dim>
				</port>
			</output>
		</layer>
		<layer id="81" name="data_add_406634066581809" type="Const" version="opset1">
			<data element_type="f32" shape="1, 16, 1, 1, 1" offset="89392" size="64" />
			<output>
				<port id="0" precision="FP32">
					<dim>1</dim>
					<dim>16</dim>
					<dim>1</dim>
					<dim>1</dim>
					<dim>1</dim>
				</port>
			</output>
		</layer>
		<layer id="82" name="complex_conv3d_3/add_1/Fused_Add_" type="Add" version="opset1">
			<data auto_broadcast="numpy" />
			<input>
				<port id="0" precision="FP32">
					<dim>1</dim>
					<dim>16</dim>
					<dim>33</dim>
					<dim>9</dim>
					<dim>8</dim>
				</port>
				<port id="1" precision="FP32">
					<dim>1</dim>
					<dim>16</dim>
					<dim>1</dim>
					<dim>1</dim>
					<dim>1</dim>
				</port>
			</input>
			<output>
				<port id="2" precision="FP32" names="complex_batch_normalization_3/sub_2:0">
					<dim>1</dim>
					<dim>16</dim>
					<dim>33</dim>
					<dim>9</dim>
					<dim>8</dim>
				</port>
			</output>
		</layer>
		<layer id="83" name="complex_batch_normalization_3/mul_23" type="Multiply" version="opset1">
			<data auto_broadcast="numpy" />
			<input>
				<port id="0" precision="FP32">
					<dim>1</dim>
					<dim>16</dim>
					<dim>1</dim>
					<dim>1</dim>
					<dim>1</dim>
				</port>
				<port id="1" precision="FP32">
					<dim>1</dim>
					<dim>16</dim>
					<dim>33</dim>
					<dim>9</dim>
					<dim>8</dim>
				</port>
			</input>
			<output>
				<port id="2" precision="FP32" names="complex_batch_normalization_3/mul_23:0">
					<dim>1</dim>
					<dim>16</dim>
					<dim>33</dim>
					<dim>9</dim>
					<dim>8</dim>
				</port>
			</output>
		</layer>
		<layer id="84" name="complex_batch_normalization_3/mul_24/TransposeNHWCtoNCHW" type="Const" version="opset1">
			<data element_type="f32" shape="1, 16, 1, 1, 1" offset="89456" size="64" />
			<output>
				<port id="0" precision="FP32" names="complex_batch_normalization_3/concat_7:0">
					<dim>1</dim>
					<dim>16</dim>
					<dim>1</dim>
					<dim>1</dim>
					<dim>1</dim>
				</port>
			</output>
		</layer>
		<layer id="85" name="5342982460" type="Const" version="opset1">
			<data element_type="i64" shape="" offset="10984" size="8" />
			<output>
				<port id="0" precision="I64" />
			</output>
		</layer>
		<layer id="86" name="3171880942" type="Const" version="opset1">
			<data element_type="i64" shape="2" offset="89520" size="16" />
			<output>
				<port id="0" precision="I64">
					<dim>2</dim>
				</port>
			</output>
		</layer>
		<layer id="87" name="complex_batch_normalization_3/strided_slice_12/Split" type="VariadicSplit" version="opset1">
			<input>
				<port id="0" precision="FP32">
					<dim>1</dim>
					<dim>16</dim>
					<dim>33</dim>
					<dim>9</dim>
					<dim>8</dim>
				</port>
				<port id="1" precision="I64" />
				<port id="2" precision="I64">
					<dim>2</dim>
				</port>
			</input>
			<output>
				<port id="3" precision="FP32" names="complex_batch_normalization_3/strided_slice_12:0">
					<dim>1</dim>
					<dim>8</dim>
					<dim>33</dim>
					<dim>9</dim>
					<dim>8</dim>
				</port>
				<port id="4" precision="FP32" names="complex_batch_normalization_3/strided_slice_13:0">
					<dim>1</dim>
					<dim>8</dim>
					<dim>33</dim>
					<dim>9</dim>
					<dim>8</dim>
				</port>
			</output>
		</layer>
		<layer id="88" name="complex_batch_normalization_3/concat_8" type="Concat" version="opset1">
			<data axis="1" />
			<input>
				<port id="0" precision="FP32">
					<dim>1</dim>
					<dim>8</dim>
					<dim>33</dim>
					<dim>9</dim>
					<dim>8</dim>
				</port>
				<port id="1" precision="FP32">
					<dim>1</dim>
					<dim>8</dim>
					<dim>33</dim>
					<dim>9</dim>
					<dim>8</dim>
				</port>
			</input>
			<output>
				<port id="2" precision="FP32" names="complex_batch_normalization_3/concat_8:0">
					<dim>1</dim>
					<dim>16</dim>
					<dim>33</dim>
					<dim>9</dim>
					<dim>8</dim>
				</port>
			</output>
		</layer>
		<layer id="89" name="complex_batch_normalization_3/mul_24" type="Multiply" version="opset1">
			<data auto_broadcast="numpy" />
			<input>
				<port id="0" precision="FP32">
					<dim>1</dim>
					<dim>16</dim>
					<dim>1</dim>
					<dim>1</dim>
					<dim>1</dim>
				</port>
				<port id="1" precision="FP32">
					<dim>1</dim>
					<dim>16</dim>
					<dim>33</dim>
					<dim>9</dim>
					<dim>8</dim>
				</port>
			</input>
			<output>
				<port id="2" precision="FP32" names="complex_batch_normalization_3/mul_24:0">
					<dim>1</dim>
					<dim>16</dim>
					<dim>33</dim>
					<dim>9</dim>
					<dim>8</dim>
				</port>
			</output>
		</layer>
		<layer id="90" name="complex_batch_normalization_3/add_13" type="Add" version="opset1">
			<data auto_broadcast="numpy" />
			<input>
				<port id="0" precision="FP32">
					<dim>1</dim>
					<dim>16</dim>
					<dim>33</dim>
					<dim>9</dim>
					<dim>8</dim>
				</port>
				<port id="1" precision="FP32">
					<dim>1</dim>
					<dim>16</dim>
					<dim>33</dim>
					<dim>9</dim>
					<dim>8</dim>
				</port>
			</input>
			<output>
				<port id="2" precision="FP32" names="complex_batch_normalization_3/add_13:0">
					<dim>1</dim>
					<dim>16</dim>
					<dim>33</dim>
					<dim>9</dim>
					<dim>8</dim>
				</port>
			</output>
		</layer>
		<layer id="91" name="complex_batch_normalization_3/mul_25" type="Multiply" version="opset1">
			<data auto_broadcast="numpy" />
			<input>
				<port id="0" precision="FP32">
					<dim>1</dim>
					<dim>16</dim>
					<dim>1</dim>
					<dim>1</dim>
					<dim>1</dim>
				</port>
				<port id="1" precision="FP32">
					<dim>1</dim>
					<dim>16</dim>
					<dim>33</dim>
					<dim>9</dim>
					<dim>8</dim>
				</port>
			</input>
			<output>
				<port id="2" precision="FP32" names="complex_batch_normalization_3/mul_25:0">
					<dim>1</dim>
					<dim>16</dim>
					<dim>33</dim>
					<dim>9</dim>
					<dim>8</dim>
				</port>
			</output>
		</layer>
		<layer id="92" name="complex_batch_normalization_3/mul_26/TransposeNHWCtoNCHW" type="Const" version="opset1">
			<data element_type="f32" shape="1, 16, 1, 1, 1" offset="89536" size="64" />
			<output>
				<port id="0" precision="FP32" names="complex_batch_normalization_3/concat_10:0">
					<dim>1</dim>
					<dim>16</dim>
					<dim>1</dim>
					<dim>1</dim>
					<dim>1</dim>
				</port>
			</output>
		</layer>
		<layer id="93" name="5343580735" type="Const" version="opset1">
			<data element_type="i64" shape="" offset="10984" size="8" />
			<output>
				<port id="0" precision="I64" />
			</output>
		</layer>
		<layer id="94" name="3172381155" type="Const" version="opset1">
			<data element_type="i64" shape="2" offset="89520" size="16" />
			<output>
				<port id="0" precision="I64">
					<dim>2</dim>
				</port>
			</output>
		</layer>
		<layer id="95" name="complex_batch_normalization_3/strided_slice_14/Split" type="VariadicSplit" version="opset1">
			<input>
				<port id="0" precision="FP32">
					<dim>1</dim>
					<dim>16</dim>
					<dim>33</dim>
					<dim>9</dim>
					<dim>8</dim>
				</port>
				<port id="1" precision="I64" />
				<port id="2" precision="I64">
					<dim>2</dim>
				</port>
			</input>
			<output>
				<port id="3" precision="FP32" names="complex_batch_normalization_3/strided_slice_14:0">
					<dim>1</dim>
					<dim>8</dim>
					<dim>33</dim>
					<dim>9</dim>
					<dim>8</dim>
				</port>
				<port id="4" precision="FP32" names="complex_batch_normalization_3/strided_slice_15:0">
					<dim>1</dim>
					<dim>8</dim>
					<dim>33</dim>
					<dim>9</dim>
					<dim>8</dim>
				</port>
			</output>
		</layer>
		<layer id="96" name="complex_batch_normalization_3/concat_11" type="Concat" version="opset1">
			<data axis="1" />
			<input>
				<port id="0" precision="FP32">
					<dim>1</dim>
					<dim>8</dim>
					<dim>33</dim>
					<dim>9</dim>
					<dim>8</dim>
				</port>
				<port id="1" precision="FP32">
					<dim>1</dim>
					<dim>8</dim>
					<dim>33</dim>
					<dim>9</dim>
					<dim>8</dim>
				</port>
			</input>
			<output>
				<port id="2" precision="FP32" names="complex_batch_normalization_3/concat_11:0">
					<dim>1</dim>
					<dim>16</dim>
					<dim>33</dim>
					<dim>9</dim>
					<dim>8</dim>
				</port>
			</output>
		</layer>
		<layer id="97" name="complex_batch_normalization_3/mul_26" type="Multiply" version="opset1">
			<data auto_broadcast="numpy" />
			<input>
				<port id="0" precision="FP32">
					<dim>1</dim>
					<dim>16</dim>
					<dim>1</dim>
					<dim>1</dim>
					<dim>1</dim>
				</port>
				<port id="1" precision="FP32">
					<dim>1</dim>
					<dim>16</dim>
					<dim>33</dim>
					<dim>9</dim>
					<dim>8</dim>
				</port>
			</input>
			<output>
				<port id="2" precision="FP32" names="complex_batch_normalization_3/mul_26:0">
					<dim>1</dim>
					<dim>16</dim>
					<dim>33</dim>
					<dim>9</dim>
					<dim>8</dim>
				</port>
			</output>
		</layer>
		<layer id="98" name="complex_batch_normalization_3/add_14" type="Add" version="opset1">
			<data auto_broadcast="numpy" />
			<input>
				<port id="0" precision="FP32">
					<dim>1</dim>
					<dim>16</dim>
					<dim>33</dim>
					<dim>9</dim>
					<dim>8</dim>
				</port>
				<port id="1" precision="FP32">
					<dim>1</dim>
					<dim>16</dim>
					<dim>33</dim>
					<dim>9</dim>
					<dim>8</dim>
				</port>
			</input>
			<output>
				<port id="2" precision="FP32" names="complex_batch_normalization_3/add_14:0">
					<dim>1</dim>
					<dim>16</dim>
					<dim>33</dim>
					<dim>9</dim>
					<dim>8</dim>
				</port>
			</output>
		</layer>
		<layer id="99" name="complex_batch_normalization_3/add_15/TransposeNHWCtoNCHW" type="Const" version="opset1">
			<data element_type="f32" shape="1, 16, 1, 1, 1" offset="89600" size="64" />
			<output>
				<port id="0" precision="FP32" names="complex_batch_normalization_3/Reshape_15:0">
					<dim>1</dim>
					<dim>16</dim>
					<dim>1</dim>
					<dim>1</dim>
					<dim>1</dim>
				</port>
			</output>
		</layer>
		<layer id="100" name="complex_batch_normalization_3/add_15" type="Add" version="opset1">
			<data auto_broadcast="numpy" />
			<input>
				<port id="0" precision="FP32">
					<dim>1</dim>
					<dim>16</dim>
					<dim>33</dim>
					<dim>9</dim>
					<dim>8</dim>
				</port>
				<port id="1" precision="FP32">
					<dim>1</dim>
					<dim>16</dim>
					<dim>1</dim>
					<dim>1</dim>
					<dim>1</dim>
				</port>
			</input>
			<output>
				<port id="2" precision="FP32" names="complex_batch_normalization_3/add_15:0">
					<dim>1</dim>
					<dim>16</dim>
					<dim>33</dim>
					<dim>9</dim>
					<dim>8</dim>
				</port>
			</output>
		</layer>
		<layer id="101" name="activation_3/Relu" type="ReLU" version="opset1">
			<input>
				<port id="0" precision="FP32">
					<dim>1</dim>
					<dim>16</dim>
					<dim>33</dim>
					<dim>9</dim>
					<dim>8</dim>
				</port>
			</input>
			<output>
				<port id="1" precision="FP32" names="activation_3/Relu:0">
					<dim>1</dim>
					<dim>16</dim>
					<dim>33</dim>
					<dim>9</dim>
					<dim>8</dim>
				</port>
			</output>
		</layer>
		<layer id="102" name="complex_conv3d_4/concat_2" type="Const" version="opset1">
			<data element_type="f32" shape="36, 16, 9, 3, 1" offset="89664" size="62208" />
			<output>
				<port id="0" precision="FP32" names="complex_conv3d_4/concat_2:0">
					<dim>36</dim>
					<dim>16</dim>
					<dim>9</dim>
					<dim>3</dim>
					<dim>1</dim>
				</port>
			</output>
		</layer>
		<layer id="103" name="complex_conv3d_4/convolution" type="Convolution" version="opset1">
			<data strides="1, 1, 1" dilations="1, 1, 1" pads_begin="0, 0, 0" pads_end="0, 0, 0" auto_pad="same_upper" />
			<input>
				<port id="0" precision="FP32">
					<dim>1</dim>
					<dim>16</dim>
					<dim>33</dim>
					<dim>9</dim>
					<dim>8</dim>
				</port>
				<port id="1" precision="FP32">
					<dim>36</dim>
					<dim>16</dim>
					<dim>9</dim>
					<dim>3</dim>
					<dim>1</dim>
				</port>
			</input>
			<output>
				<port id="2" precision="FP32" names="complex_conv3d_4/convolution:0">
					<dim>1</dim>
					<dim>36</dim>
					<dim>33</dim>
					<dim>9</dim>
					<dim>8</dim>
				</port>
			</output>
		</layer>
		<layer id="104" name="data_add_406674066981011" type="Const" version="opset1">
			<data element_type="f32" shape="1, 36, 1, 1, 1" offset="151872" size="144" />
			<output>
				<port id="0" precision="FP32">
					<dim>1</dim>
					<dim>36</dim>
					<dim>1</dim>
					<dim>1</dim>
					<dim>1</dim>
				</port>
			</output>
		</layer>
		<layer id="105" name="complex_conv3d_4/add_1/Fused_Add_" type="Add" version="opset1">
			<data auto_broadcast="numpy" />
			<input>
				<port id="0" precision="FP32">
					<dim>1</dim>
					<dim>36</dim>
					<dim>33</dim>
					<dim>9</dim>
					<dim>8</dim>
				</port>
				<port id="1" precision="FP32">
					<dim>1</dim>
					<dim>36</dim>
					<dim>1</dim>
					<dim>1</dim>
					<dim>1</dim>
				</port>
			</input>
			<output>
				<port id="2" precision="FP32" names="complex_batch_normalization_4/sub_2:0">
					<dim>1</dim>
					<dim>36</dim>
					<dim>33</dim>
					<dim>9</dim>
					<dim>8</dim>
				</port>
			</output>
		</layer>
		<layer id="106" name="complex_batch_normalization_4/mul_23" type="Multiply" version="opset1">
			<data auto_broadcast="numpy" />
			<input>
				<port id="0" precision="FP32">
					<dim>1</dim>
					<dim>36</dim>
					<dim>1</dim>
					<dim>1</dim>
					<dim>1</dim>
				</port>
				<port id="1" precision="FP32">
					<dim>1</dim>
					<dim>36</dim>
					<dim>33</dim>
					<dim>9</dim>
					<dim>8</dim>
				</port>
			</input>
			<output>
				<port id="2" precision="FP32" names="complex_batch_normalization_4/mul_23:0">
					<dim>1</dim>
					<dim>36</dim>
					<dim>33</dim>
					<dim>9</dim>
					<dim>8</dim>
				</port>
			</output>
		</layer>
		<layer id="107" name="complex_batch_normalization_4/mul_24/TransposeNHWCtoNCHW" type="Const" version="opset1">
			<data element_type="f32" shape="1, 36, 1, 1, 1" offset="152016" size="144" />
			<output>
				<port id="0" precision="FP32" names="complex_batch_normalization_4/concat_7:0">
					<dim>1</dim>
					<dim>36</dim>
					<dim>1</dim>
					<dim>1</dim>
					<dim>1</dim>
				</port>
			</output>
		</layer>
		<layer id="108" name="5344182685" type="Const" version="opset1">
			<data element_type="i64" shape="" offset="10984" size="8" />
			<output>
				<port id="0" precision="I64" />
			</output>
		</layer>
		<layer id="109" name="3172882682" type="Const" version="opset1">
			<data element_type="i64" shape="2" offset="10992" size="16" />
			<output>
				<port id="0" precision="I64">
					<dim>2</dim>
				</port>
			</output>
		</layer>
		<layer id="110" name="complex_batch_normalization_4/strided_slice_12/Split" type="VariadicSplit" version="opset1">
			<input>
				<port id="0" precision="FP32">
					<dim>1</dim>
					<dim>36</dim>
					<dim>33</dim>
					<dim>9</dim>
					<dim>8</dim>
				</port>
				<port id="1" precision="I64" />
				<port id="2" precision="I64">
					<dim>2</dim>
				</port>
			</input>
			<output>
				<port id="3" precision="FP32" names="complex_batch_normalization_4/strided_slice_12:0">
					<dim>1</dim>
					<dim>18</dim>
					<dim>33</dim>
					<dim>9</dim>
					<dim>8</dim>
				</port>
				<port id="4" precision="FP32" names="complex_batch_normalization_4/strided_slice_13:0">
					<dim>1</dim>
					<dim>18</dim>
					<dim>33</dim>
					<dim>9</dim>
					<dim>8</dim>
				</port>
			</output>
		</layer>
		<layer id="111" name="complex_batch_normalization_4/concat_8" type="Concat" version="opset1">
			<data axis="1" />
			<input>
				<port id="0" precision="FP32">
					<dim>1</dim>
					<dim>18</dim>
					<dim>33</dim>
					<dim>9</dim>
					<dim>8</dim>
				</port>
				<port id="1" precision="FP32">
					<dim>1</dim>
					<dim>18</dim>
					<dim>33</dim>
					<dim>9</dim>
					<dim>8</dim>
				</port>
			</input>
			<output>
				<port id="2" precision="FP32" names="complex_batch_normalization_4/concat_8:0">
					<dim>1</dim>
					<dim>36</dim>
					<dim>33</dim>
					<dim>9</dim>
					<dim>8</dim>
				</port>
			</output>
		</layer>
		<layer id="112" name="complex_batch_normalization_4/mul_24" type="Multiply" version="opset1">
			<data auto_broadcast="numpy" />
			<input>
				<port id="0" precision="FP32">
					<dim>1</dim>
					<dim>36</dim>
					<dim>1</dim>
					<dim>1</dim>
					<dim>1</dim>
				</port>
				<port id="1" precision="FP32">
					<dim>1</dim>
					<dim>36</dim>
					<dim>33</dim>
					<dim>9</dim>
					<dim>8</dim>
				</port>
			</input>
			<output>
				<port id="2" precision="FP32" names="complex_batch_normalization_4/mul_24:0">
					<dim>1</dim>
					<dim>36</dim>
					<dim>33</dim>
					<dim>9</dim>
					<dim>8</dim>
				</port>
			</output>
		</layer>
		<layer id="113" name="complex_batch_normalization_4/add_13" type="Add" version="opset1">
			<data auto_broadcast="numpy" />
			<input>
				<port id="0" precision="FP32">
					<dim>1</dim>
					<dim>36</dim>
					<dim>33</dim>
					<dim>9</dim>
					<dim>8</dim>
				</port>
				<port id="1" precision="FP32">
					<dim>1</dim>
					<dim>36</dim>
					<dim>33</dim>
					<dim>9</dim>
					<dim>8</dim>
				</port>
			</input>
			<output>
				<port id="2" precision="FP32" names="complex_batch_normalization_4/add_13:0">
					<dim>1</dim>
					<dim>36</dim>
					<dim>33</dim>
					<dim>9</dim>
					<dim>8</dim>
				</port>
			</output>
		</layer>
		<layer id="114" name="complex_batch_normalization_4/mul_25" type="Multiply" version="opset1">
			<data auto_broadcast="numpy" />
			<input>
				<port id="0" precision="FP32">
					<dim>1</dim>
					<dim>36</dim>
					<dim>1</dim>
					<dim>1</dim>
					<dim>1</dim>
				</port>
				<port id="1" precision="FP32">
					<dim>1</dim>
					<dim>36</dim>
					<dim>33</dim>
					<dim>9</dim>
					<dim>8</dim>
				</port>
			</input>
			<output>
				<port id="2" precision="FP32" names="complex_batch_normalization_4/mul_25:0">
					<dim>1</dim>
					<dim>36</dim>
					<dim>33</dim>
					<dim>9</dim>
					<dim>8</dim>
				</port>
			</output>
		</layer>
		<layer id="115" name="complex_batch_normalization_4/mul_26/TransposeNHWCtoNCHW" type="Const" version="opset1">
			<data element_type="f32" shape="1, 36, 1, 1, 1" offset="152160" size="144" />
			<output>
				<port id="0" precision="FP32" names="complex_batch_normalization_4/concat_10:0">
					<dim>1</dim>
					<dim>36</dim>
					<dim>1</dim>
					<dim>1</dim>
					<dim>1</dim>
				</port>
			</output>
		</layer>
		<layer id="116" name="5344781542" type="Const" version="opset1">
			<data element_type="i64" shape="" offset="10984" size="8" />
			<output>
				<port id="0" precision="I64" />
			</output>
		</layer>
		<layer id="117" name="3173380354" type="Const" version="opset1">
			<data element_type="i64" shape="2" offset="10992" size="16" />
			<output>
				<port id="0" precision="I64">
					<dim>2</dim>
				</port>
			</output>
		</layer>
		<layer id="118" name="complex_batch_normalization_4/strided_slice_14/Split" type="VariadicSplit" version="opset1">
			<input>
				<port id="0" precision="FP32">
					<dim>1</dim>
					<dim>36</dim>
					<dim>33</dim>
					<dim>9</dim>
					<dim>8</dim>
				</port>
				<port id="1" precision="I64" />
				<port id="2" precision="I64">
					<dim>2</dim>
				</port>
			</input>
			<output>
				<port id="3" precision="FP32" names="complex_batch_normalization_4/strided_slice_14:0">
					<dim>1</dim>
					<dim>18</dim>
					<dim>33</dim>
					<dim>9</dim>
					<dim>8</dim>
				</port>
				<port id="4" precision="FP32" names="complex_batch_normalization_4/strided_slice_15:0">
					<dim>1</dim>
					<dim>18</dim>
					<dim>33</dim>
					<dim>9</dim>
					<dim>8</dim>
				</port>
			</output>
		</layer>
		<layer id="119" name="complex_batch_normalization_4/concat_11" type="Concat" version="opset1">
			<data axis="1" />
			<input>
				<port id="0" precision="FP32">
					<dim>1</dim>
					<dim>18</dim>
					<dim>33</dim>
					<dim>9</dim>
					<dim>8</dim>
				</port>
				<port id="1" precision="FP32">
					<dim>1</dim>
					<dim>18</dim>
					<dim>33</dim>
					<dim>9</dim>
					<dim>8</dim>
				</port>
			</input>
			<output>
				<port id="2" precision="FP32" names="complex_batch_normalization_4/concat_11:0">
					<dim>1</dim>
					<dim>36</dim>
					<dim>33</dim>
					<dim>9</dim>
					<dim>8</dim>
				</port>
			</output>
		</layer>
		<layer id="120" name="complex_batch_normalization_4/mul_26" type="Multiply" version="opset1">
			<data auto_broadcast="numpy" />
			<input>
				<port id="0" precision="FP32">
					<dim>1</dim>
					<dim>36</dim>
					<dim>1</dim>
					<dim>1</dim>
					<dim>1</dim>
				</port>
				<port id="1" precision="FP32">
					<dim>1</dim>
					<dim>36</dim>
					<dim>33</dim>
					<dim>9</dim>
					<dim>8</dim>
				</port>
			</input>
			<output>
				<port id="2" precision="FP32" names="complex_batch_normalization_4/mul_26:0">
					<dim>1</dim>
					<dim>36</dim>
					<dim>33</dim>
					<dim>9</dim>
					<dim>8</dim>
				</port>
			</output>
		</layer>
		<layer id="121" name="complex_batch_normalization_4/add_14" type="Add" version="opset1">
			<data auto_broadcast="numpy" />
			<input>
				<port id="0" precision="FP32">
					<dim>1</dim>
					<dim>36</dim>
					<dim>33</dim>
					<dim>9</dim>
					<dim>8</dim>
				</port>
				<port id="1" precision="FP32">
					<dim>1</dim>
					<dim>36</dim>
					<dim>33</dim>
					<dim>9</dim>
					<dim>8</dim>
				</port>
			</input>
			<output>
				<port id="2" precision="FP32" names="complex_batch_normalization_4/add_14:0">
					<dim>1</dim>
					<dim>36</dim>
					<dim>33</dim>
					<dim>9</dim>
					<dim>8</dim>
				</port>
			</output>
		</layer>
		<layer id="122" name="complex_batch_normalization_4/add_15/TransposeNHWCtoNCHW" type="Const" version="opset1">
			<data element_type="f32" shape="1, 36, 1, 1, 1" offset="152304" size="144" />
			<output>
				<port id="0" precision="FP32" names="complex_batch_normalization_4/Reshape_15:0">
					<dim>1</dim>
					<dim>36</dim>
					<dim>1</dim>
					<dim>1</dim>
					<dim>1</dim>
				</port>
			</output>
		</layer>
		<layer id="123" name="complex_batch_normalization_4/add_15" type="Add" version="opset1">
			<data auto_broadcast="numpy" />
			<input>
				<port id="0" precision="FP32">
					<dim>1</dim>
					<dim>36</dim>
					<dim>33</dim>
					<dim>9</dim>
					<dim>8</dim>
				</port>
				<port id="1" precision="FP32">
					<dim>1</dim>
					<dim>36</dim>
					<dim>1</dim>
					<dim>1</dim>
					<dim>1</dim>
				</port>
			</input>
			<output>
				<port id="2" precision="FP32" names="complex_batch_normalization_4/add_15:0">
					<dim>1</dim>
					<dim>36</dim>
					<dim>33</dim>
					<dim>9</dim>
					<dim>8</dim>
				</port>
			</output>
		</layer>
		<layer id="124" name="activation_4/Relu" type="ReLU" version="opset1">
			<input>
				<port id="0" precision="FP32">
					<dim>1</dim>
					<dim>36</dim>
					<dim>33</dim>
					<dim>9</dim>
					<dim>8</dim>
				</port>
			</input>
			<output>
				<port id="1" precision="FP32" names="activation_4/Relu:0">
					<dim>1</dim>
					<dim>36</dim>
					<dim>33</dim>
					<dim>9</dim>
					<dim>8</dim>
				</port>
			</output>
		</layer>
		<layer id="125" name="complex_conv3d_5/concat_2" type="Const" version="opset1">
			<data element_type="f32" shape="20, 36, 5, 3, 1" offset="152448" size="43200" />
			<output>
				<port id="0" precision="FP32" names="complex_conv3d_5/concat_2:0">
					<dim>20</dim>
					<dim>36</dim>
					<dim>5</dim>
					<dim>3</dim>
					<dim>1</dim>
				</port>
			</output>
		</layer>
		<layer id="126" name="complex_conv3d_5/convolution" type="Convolution" version="opset1">
			<data strides="1, 1, 1" dilations="1, 1, 1" pads_begin="0, 0, 0" pads_end="0, 0, 0" auto_pad="same_upper" />
			<input>
				<port id="0" precision="FP32">
					<dim>1</dim>
					<dim>36</dim>
					<dim>33</dim>
					<dim>9</dim>
					<dim>8</dim>
				</port>
				<port id="1" precision="FP32">
					<dim>20</dim>
					<dim>36</dim>
					<dim>5</dim>
					<dim>3</dim>
					<dim>1</dim>
				</port>
			</input>
			<output>
				<port id="2" precision="FP32" names="complex_conv3d_5/convolution:0">
					<dim>1</dim>
					<dim>20</dim>
					<dim>33</dim>
					<dim>9</dim>
					<dim>8</dim>
				</port>
			</output>
		</layer>
		<layer id="127" name="data_add_406714067381275" type="Const" version="opset1">
			<data element_type="f32" shape="1, 20, 1, 1, 1" offset="195648" size="80" />
			<output>
				<port id="0" precision="FP32">
					<dim>1</dim>
					<dim>20</dim>
					<dim>1</dim>
					<dim>1</dim>
					<dim>1</dim>
				</port>
			</output>
		</layer>
		<layer id="128" name="complex_conv3d_5/add_1/Fused_Add_" type="Add" version="opset1">
			<data auto_broadcast="numpy" />
			<input>
				<port id="0" precision="FP32">
					<dim>1</dim>
					<dim>20</dim>
					<dim>33</dim>
					<dim>9</dim>
					<dim>8</dim>
				</port>
				<port id="1" precision="FP32">
					<dim>1</dim>
					<dim>20</dim>
					<dim>1</dim>
					<dim>1</dim>
					<dim>1</dim>
				</port>
			</input>
			<output>
				<port id="2" precision="FP32" names="complex_batch_normalization_5/sub_2:0">
					<dim>1</dim>
					<dim>20</dim>
					<dim>33</dim>
					<dim>9</dim>
					<dim>8</dim>
				</port>
			</output>
		</layer>
		<layer id="129" name="complex_batch_normalization_5/mul_23" type="Multiply" version="opset1">
			<data auto_broadcast="numpy" />
			<input>
				<port id="0" precision="FP32">
					<dim>1</dim>
					<dim>20</dim>
					<dim>1</dim>
					<dim>1</dim>
					<dim>1</dim>
				</port>
				<port id="1" precision="FP32">
					<dim>1</dim>
					<dim>20</dim>
					<dim>33</dim>
					<dim>9</dim>
					<dim>8</dim>
				</port>
			</input>
			<output>
				<port id="2" precision="FP32" names="complex_batch_normalization_5/mul_23:0">
					<dim>1</dim>
					<dim>20</dim>
					<dim>33</dim>
					<dim>9</dim>
					<dim>8</dim>
				</port>
			</output>
		</layer>
		<layer id="130" name="complex_batch_normalization_5/mul_24/TransposeNHWCtoNCHW" type="Const" version="opset1">
			<data element_type="f32" shape="1, 20, 1, 1, 1" offset="195728" size="80" />
			<output>
				<port id="0" precision="FP32" names="complex_batch_normalization_5/concat_7:0">
					<dim>1</dim>
					<dim>20</dim>
					<dim>1</dim>
					<dim>1</dim>
					<dim>1</dim>
				</port>
			</output>
		</layer>
		<layer id="131" name="5345381656" type="Const" version="opset1">
			<data element_type="i64" shape="" offset="10984" size="8" />
			<output>
				<port id="0" precision="I64" />
			</output>
		</layer>
		<layer id="132" name="3173882049" type="Const" version="opset1">
			<data element_type="i64" shape="2" offset="54656" size="16" />
			<output>
				<port id="0" precision="I64">
					<dim>2</dim>
				</port>
			</output>
		</layer>
		<layer id="133" name="complex_batch_normalization_5/strided_slice_12/Split" type="VariadicSplit" version="opset1">
			<input>
				<port id="0" precision="FP32">
					<dim>1</dim>
					<dim>20</dim>
					<dim>33</dim>
					<dim>9</dim>
					<dim>8</dim>
				</port>
				<port id="1" precision="I64" />
				<port id="2" precision="I64">
					<dim>2</dim>
				</port>
			</input>
			<output>
				<port id="3" precision="FP32" names="complex_batch_normalization_5/strided_slice_12:0">
					<dim>1</dim>
					<dim>10</dim>
					<dim>33</dim>
					<dim>9</dim>
					<dim>8</dim>
				</port>
				<port id="4" precision="FP32" names="complex_batch_normalization_5/strided_slice_13:0">
					<dim>1</dim>
					<dim>10</dim>
					<dim>33</dim>
					<dim>9</dim>
					<dim>8</dim>
				</port>
			</output>
		</layer>
		<layer id="134" name="complex_batch_normalization_5/concat_8" type="Concat" version="opset1">
			<data axis="1" />
			<input>
				<port id="0" precision="FP32">
					<dim>1</dim>
					<dim>10</dim>
					<dim>33</dim>
					<dim>9</dim>
					<dim>8</dim>
				</port>
				<port id="1" precision="FP32">
					<dim>1</dim>
					<dim>10</dim>
					<dim>33</dim>
					<dim>9</dim>
					<dim>8</dim>
				</port>
			</input>
			<output>
				<port id="2" precision="FP32" names="complex_batch_normalization_5/concat_8:0">
					<dim>1</dim>
					<dim>20</dim>
					<dim>33</dim>
					<dim>9</dim>
					<dim>8</dim>
				</port>
			</output>
		</layer>
		<layer id="135" name="complex_batch_normalization_5/mul_24" type="Multiply" version="opset1">
			<data auto_broadcast="numpy" />
			<input>
				<port id="0" precision="FP32">
					<dim>1</dim>
					<dim>20</dim>
					<dim>1</dim>
					<dim>1</dim>
					<dim>1</dim>
				</port>
				<port id="1" precision="FP32">
					<dim>1</dim>
					<dim>20</dim>
					<dim>33</dim>
					<dim>9</dim>
					<dim>8</dim>
				</port>
			</input>
			<output>
				<port id="2" precision="FP32" names="complex_batch_normalization_5/mul_24:0">
					<dim>1</dim>
					<dim>20</dim>
					<dim>33</dim>
					<dim>9</dim>
					<dim>8</dim>
				</port>
			</output>
		</layer>
		<layer id="136" name="complex_batch_normalization_5/add_13" type="Add" version="opset1">
			<data auto_broadcast="numpy" />
			<input>
				<port id="0" precision="FP32">
					<dim>1</dim>
					<dim>20</dim>
					<dim>33</dim>
					<dim>9</dim>
					<dim>8</dim>
				</port>
				<port id="1" precision="FP32">
					<dim>1</dim>
					<dim>20</dim>
					<dim>33</dim>
					<dim>9</dim>
					<dim>8</dim>
				</port>
			</input>
			<output>
				<port id="2" precision="FP32" names="complex_batch_normalization_5/add_13:0">
					<dim>1</dim>
					<dim>20</dim>
					<dim>33</dim>
					<dim>9</dim>
					<dim>8</dim>
				</port>
			</output>
		</layer>
		<layer id="137" name="complex_batch_normalization_5/mul_25" type="Multiply" version="opset1">
			<data auto_broadcast="numpy" />
			<input>
				<port id="0" precision="FP32">
					<dim>1</dim>
					<dim>20</dim>
					<dim>1</dim>
					<dim>1</dim>
					<dim>1</dim>
				</port>
				<port id="1" precision="FP32">
					<dim>1</dim>
					<dim>20</dim>
					<dim>33</dim>
					<dim>9</dim>
					<dim>8</dim>
				</port>
			</input>
			<output>
				<port id="2" precision="FP32" names="complex_batch_normalization_5/mul_25:0">
					<dim>1</dim>
					<dim>20</dim>
					<dim>33</dim>
					<dim>9</dim>
					<dim>8</dim>
				</port>
			</output>
		</layer>
		<layer id="138" name="complex_batch_normalization_5/mul_26/TransposeNHWCtoNCHW" type="Const" version="opset1">
			<data element_type="f32" shape="1, 20, 1, 1, 1" offset="195808" size="80" />
			<output>
				<port id="0" precision="FP32" names="complex_batch_normalization_5/concat_10:0">
					<dim>1</dim>
					<dim>20</dim>
					<dim>1</dim>
					<dim>1</dim>
					<dim>1</dim>
				</port>
			</output>
		</layer>
		<layer id="139" name="5345980501" type="Const" version="opset1">
			<data element_type="i64" shape="" offset="10984" size="8" />
			<output>
				<port id="0" precision="I64" />
			</output>
		</layer>
		<layer id="140" name="3174380618" type="Const" version="opset1">
			<data element_type="i64" shape="2" offset="54656" size="16" />
			<output>
				<port id="0" precision="I64">
					<dim>2</dim>
				</port>
			</output>
		</layer>
		<layer id="141" name="complex_batch_normalization_5/strided_slice_14/Split" type="VariadicSplit" version="opset1">
			<input>
				<port id="0" precision="FP32">
					<dim>1</dim>
					<dim>20</dim>
					<dim>33</dim>
					<dim>9</dim>
					<dim>8</dim>
				</port>
				<port id="1" precision="I64" />
				<port id="2" precision="I64">
					<dim>2</dim>
				</port>
			</input>
			<output>
				<port id="3" precision="FP32" names="complex_batch_normalization_5/strided_slice_14:0">
					<dim>1</dim>
					<dim>10</dim>
					<dim>33</dim>
					<dim>9</dim>
					<dim>8</dim>
				</port>
				<port id="4" precision="FP32" names="complex_batch_normalization_5/strided_slice_15:0">
					<dim>1</dim>
					<dim>10</dim>
					<dim>33</dim>
					<dim>9</dim>
					<dim>8</dim>
				</port>
			</output>
		</layer>
		<layer id="142" name="complex_batch_normalization_5/concat_11" type="Concat" version="opset1">
			<data axis="1" />
			<input>
				<port id="0" precision="FP32">
					<dim>1</dim>
					<dim>10</dim>
					<dim>33</dim>
					<dim>9</dim>
					<dim>8</dim>
				</port>
				<port id="1" precision="FP32">
					<dim>1</dim>
					<dim>10</dim>
					<dim>33</dim>
					<dim>9</dim>
					<dim>8</dim>
				</port>
			</input>
			<output>
				<port id="2" precision="FP32" names="complex_batch_normalization_5/concat_11:0">
					<dim>1</dim>
					<dim>20</dim>
					<dim>33</dim>
					<dim>9</dim>
					<dim>8</dim>
				</port>
			</output>
		</layer>
		<layer id="143" name="complex_batch_normalization_5/mul_26" type="Multiply" version="opset1">
			<data auto_broadcast="numpy" />
			<input>
				<port id="0" precision="FP32">
					<dim>1</dim>
					<dim>20</dim>
					<dim>1</dim>
					<dim>1</dim>
					<dim>1</dim>
				</port>
				<port id="1" precision="FP32">
					<dim>1</dim>
					<dim>20</dim>
					<dim>33</dim>
					<dim>9</dim>
					<dim>8</dim>
				</port>
			</input>
			<output>
				<port id="2" precision="FP32" names="complex_batch_normalization_5/mul_26:0">
					<dim>1</dim>
					<dim>20</dim>
					<dim>33</dim>
					<dim>9</dim>
					<dim>8</dim>
				</port>
			</output>
		</layer>
		<layer id="144" name="complex_batch_normalization_5/add_14" type="Add" version="opset1">
			<data auto_broadcast="numpy" />
			<input>
				<port id="0" precision="FP32">
					<dim>1</dim>
					<dim>20</dim>
					<dim>33</dim>
					<dim>9</dim>
					<dim>8</dim>
				</port>
				<port id="1" precision="FP32">
					<dim>1</dim>
					<dim>20</dim>
					<dim>33</dim>
					<dim>9</dim>
					<dim>8</dim>
				</port>
			</input>
			<output>
				<port id="2" precision="FP32" names="complex_batch_normalization_5/add_14:0">
					<dim>1</dim>
					<dim>20</dim>
					<dim>33</dim>
					<dim>9</dim>
					<dim>8</dim>
				</port>
			</output>
		</layer>
		<layer id="145" name="complex_batch_normalization_5/add_15/TransposeNHWCtoNCHW" type="Const" version="opset1">
			<data element_type="f32" shape="1, 20, 1, 1, 1" offset="195888" size="80" />
			<output>
				<port id="0" precision="FP32" names="complex_batch_normalization_5/Reshape_15:0">
					<dim>1</dim>
					<dim>20</dim>
					<dim>1</dim>
					<dim>1</dim>
					<dim>1</dim>
				</port>
			</output>
		</layer>
		<layer id="146" name="complex_batch_normalization_5/add_15" type="Add" version="opset1">
			<data auto_broadcast="numpy" />
			<input>
				<port id="0" precision="FP32">
					<dim>1</dim>
					<dim>20</dim>
					<dim>33</dim>
					<dim>9</dim>
					<dim>8</dim>
				</port>
				<port id="1" precision="FP32">
					<dim>1</dim>
					<dim>20</dim>
					<dim>1</dim>
					<dim>1</dim>
					<dim>1</dim>
				</port>
			</input>
			<output>
				<port id="2" precision="FP32" names="complex_batch_normalization_5/add_15:0">
					<dim>1</dim>
					<dim>20</dim>
					<dim>33</dim>
					<dim>9</dim>
					<dim>8</dim>
				</port>
			</output>
		</layer>
		<layer id="147" name="activation_5/Relu" type="ReLU" version="opset1">
			<input>
				<port id="0" precision="FP32">
					<dim>1</dim>
					<dim>20</dim>
					<dim>33</dim>
					<dim>9</dim>
					<dim>8</dim>
				</port>
			</input>
			<output>
				<port id="1" precision="FP32" names="activation_5/Relu:0">
					<dim>1</dim>
					<dim>20</dim>
					<dim>33</dim>
					<dim>9</dim>
					<dim>8</dim>
				</port>
			</output>
		</layer>
		<layer id="148" name="complex_conv3d_6/concat_2" type="Const" version="opset1">
			<data element_type="f32" shape="16, 20, 9, 3, 1" offset="195968" size="34560" />
			<output>
				<port id="0" precision="FP32" names="complex_conv3d_6/concat_2:0">
					<dim>16</dim>
					<dim>20</dim>
					<dim>9</dim>
					<dim>3</dim>
					<dim>1</dim>
				</port>
			</output>
		</layer>
		<layer id="149" name="complex_conv3d_6/convolution" type="Convolution" version="opset1">
			<data strides="1, 1, 1" dilations="1, 1, 1" pads_begin="0, 0, 0" pads_end="0, 0, 0" auto_pad="same_upper" />
			<input>
				<port id="0" precision="FP32">
					<dim>1</dim>
					<dim>20</dim>
					<dim>33</dim>
					<dim>9</dim>
					<dim>8</dim>
				</port>
				<port id="1" precision="FP32">
					<dim>16</dim>
					<dim>20</dim>
					<dim>9</dim>
					<dim>3</dim>
					<dim>1</dim>
				</port>
			</input>
			<output>
				<port id="2" precision="FP32" names="complex_conv3d_6/convolution:0">
					<dim>1</dim>
					<dim>16</dim>
					<dim>33</dim>
					<dim>9</dim>
					<dim>8</dim>
				</port>
			</output>
		</layer>
		<layer id="150" name="data_add_406754067780210" type="Const" version="opset1">
			<data element_type="f32" shape="1, 16, 1, 1, 1" offset="230528" size="64" />
			<output>
				<port id="0" precision="FP32">
					<dim>1</dim>
					<dim>16</dim>
					<dim>1</dim>
					<dim>1</dim>
					<dim>1</dim>
				</port>
			</output>
		</layer>
		<layer id="151" name="complex_conv3d_6/add_1/Fused_Add_" type="Add" version="opset1">
			<data auto_broadcast="numpy" />
			<input>
				<port id="0" precision="FP32">
					<dim>1</dim>
					<dim>16</dim>
					<dim>33</dim>
					<dim>9</dim>
					<dim>8</dim>
				</port>
				<port id="1" precision="FP32">
					<dim>1</dim>
					<dim>16</dim>
					<dim>1</dim>
					<dim>1</dim>
					<dim>1</dim>
				</port>
			</input>
			<output>
				<port id="2" precision="FP32" names="complex_batch_normalization_6/sub_2:0">
					<dim>1</dim>
					<dim>16</dim>
					<dim>33</dim>
					<dim>9</dim>
					<dim>8</dim>
				</port>
			</output>
		</layer>
		<layer id="152" name="complex_batch_normalization_6/mul_23" type="Multiply" version="opset1">
			<data auto_broadcast="numpy" />
			<input>
				<port id="0" precision="FP32">
					<dim>1</dim>
					<dim>16</dim>
					<dim>1</dim>
					<dim>1</dim>
					<dim>1</dim>
				</port>
				<port id="1" precision="FP32">
					<dim>1</dim>
					<dim>16</dim>
					<dim>33</dim>
					<dim>9</dim>
					<dim>8</dim>
				</port>
			</input>
			<output>
				<port id="2" precision="FP32" names="complex_batch_normalization_6/mul_23:0">
					<dim>1</dim>
					<dim>16</dim>
					<dim>33</dim>
					<dim>9</dim>
					<dim>8</dim>
				</port>
			</output>
		</layer>
		<layer id="153" name="complex_batch_normalization_6/mul_24/TransposeNHWCtoNCHW" type="Const" version="opset1">
			<data element_type="f32" shape="1, 16, 1, 1, 1" offset="230592" size="64" />
			<output>
				<port id="0" precision="FP32" names="complex_batch_normalization_6/concat_7:0">
					<dim>1</dim>
					<dim>16</dim>
					<dim>1</dim>
					<dim>1</dim>
					<dim>1</dim>
				</port>
			</output>
		</layer>
		<layer id="154" name="5346581923" type="Const" version="opset1">
			<data element_type="i64" shape="" offset="10984" size="8" />
			<output>
				<port id="0" precision="I64" />
			</output>
		</layer>
		<layer id="155" name="3174880675" type="Const" version="opset1">
			<data element_type="i64" shape="2" offset="89520" size="16" />
			<output>
				<port id="0" precision="I64">
					<dim>2</dim>
				</port>
			</output>
		</layer>
		<layer id="156" name="complex_batch_normalization_6/strided_slice_12/Split" type="VariadicSplit" version="opset1">
			<input>
				<port id="0" precision="FP32">
					<dim>1</dim>
					<dim>16</dim>
					<dim>33</dim>
					<dim>9</dim>
					<dim>8</dim>
				</port>
				<port id="1" precision="I64" />
				<port id="2" precision="I64">
					<dim>2</dim>
				</port>
			</input>
			<output>
				<port id="3" precision="FP32" names="complex_batch_normalization_6/strided_slice_12:0">
					<dim>1</dim>
					<dim>8</dim>
					<dim>33</dim>
					<dim>9</dim>
					<dim>8</dim>
				</port>
				<port id="4" precision="FP32" names="complex_batch_normalization_6/strided_slice_13:0">
					<dim>1</dim>
					<dim>8</dim>
					<dim>33</dim>
					<dim>9</dim>
					<dim>8</dim>
				</port>
			</output>
		</layer>
		<layer id="157" name="complex_batch_normalization_6/concat_8" type="Concat" version="opset1">
			<data axis="1" />
			<input>
				<port id="0" precision="FP32">
					<dim>1</dim>
					<dim>8</dim>
					<dim>33</dim>
					<dim>9</dim>
					<dim>8</dim>
				</port>
				<port id="1" precision="FP32">
					<dim>1</dim>
					<dim>8</dim>
					<dim>33</dim>
					<dim>9</dim>
					<dim>8</dim>
				</port>
			</input>
			<output>
				<port id="2" precision="FP32" names="complex_batch_normalization_6/concat_8:0">
					<dim>1</dim>
					<dim>16</dim>
					<dim>33</dim>
					<dim>9</dim>
					<dim>8</dim>
				</port>
			</output>
		</layer>
		<layer id="158" name="complex_batch_normalization_6/mul_24" type="Multiply" version="opset1">
			<data auto_broadcast="numpy" />
			<input>
				<port id="0" precision="FP32">
					<dim>1</dim>
					<dim>16</dim>
					<dim>1</dim>
					<dim>1</dim>
					<dim>1</dim>
				</port>
				<port id="1" precision="FP32">
					<dim>1</dim>
					<dim>16</dim>
					<dim>33</dim>
					<dim>9</dim>
					<dim>8</dim>
				</port>
			</input>
			<output>
				<port id="2" precision="FP32" names="complex_batch_normalization_6/mul_24:0">
					<dim>1</dim>
					<dim>16</dim>
					<dim>33</dim>
					<dim>9</dim>
					<dim>8</dim>
				</port>
			</output>
		</layer>
		<layer id="159" name="complex_batch_normalization_6/add_13" type="Add" version="opset1">
			<data auto_broadcast="numpy" />
			<input>
				<port id="0" precision="FP32">
					<dim>1</dim>
					<dim>16</dim>
					<dim>33</dim>
					<dim>9</dim>
					<dim>8</dim>
				</port>
				<port id="1" precision="FP32">
					<dim>1</dim>
					<dim>16</dim>
					<dim>33</dim>
					<dim>9</dim>
					<dim>8</dim>
				</port>
			</input>
			<output>
				<port id="2" precision="FP32" names="complex_batch_normalization_6/add_13:0">
					<dim>1</dim>
					<dim>16</dim>
					<dim>33</dim>
					<dim>9</dim>
					<dim>8</dim>
				</port>
			</output>
		</layer>
		<layer id="160" name="complex_batch_normalization_6/mul_25" type="Multiply" version="opset1">
			<data auto_broadcast="numpy" />
			<input>
				<port id="0" precision="FP32">
					<dim>1</dim>
					<dim>16</dim>
					<dim>1</dim>
					<dim>1</dim>
					<dim>1</dim>
				</port>
				<port id="1" precision="FP32">
					<dim>1</dim>
					<dim>16</dim>
					<dim>33</dim>
					<dim>9</dim>
					<dim>8</dim>
				</port>
			</input>
			<output>
				<port id="2" precision="FP32" names="complex_batch_normalization_6/mul_25:0">
					<dim>1</dim>
					<dim>16</dim>
					<dim>33</dim>
					<dim>9</dim>
					<dim>8</dim>
				</port>
			</output>
		</layer>
		<layer id="161" name="complex_batch_normalization_6/mul_26/TransposeNHWCtoNCHW" type="Const" version="opset1">
			<data element_type="f32" shape="1, 16, 1, 1, 1" offset="230656" size="64" />
			<output>
				<port id="0" precision="FP32" names="complex_batch_normalization_6/concat_10:0">
					<dim>1</dim>
					<dim>16</dim>
					<dim>1</dim>
					<dim>1</dim>
					<dim>1</dim>
				</port>
			</output>
		</layer>
		<layer id="162" name="5347182784" type="Const" version="opset1">
			<data element_type="i64" shape="" offset="10984" size="8" />
			<output>
				<port id="0" precision="I64" />
			</output>
		</layer>
		<layer id="163" name="3175380558" type="Const" version="opset1">
			<data element_type="i64" shape="2" offset="89520" size="16" />
			<output>
				<port id="0" precision="I64">
					<dim>2</dim>
				</port>
			</output>
		</layer>
		<layer id="164" name="complex_batch_normalization_6/strided_slice_14/Split" type="VariadicSplit" version="opset1">
			<input>
				<port id="0" precision="FP32">
					<dim>1</dim>
					<dim>16</dim>
					<dim>33</dim>
					<dim>9</dim>
					<dim>8</dim>
				</port>
				<port id="1" precision="I64" />
				<port id="2" precision="I64">
					<dim>2</dim>
				</port>
			</input>
			<output>
				<port id="3" precision="FP32" names="complex_batch_normalization_6/strided_slice_14:0">
					<dim>1</dim>
					<dim>8</dim>
					<dim>33</dim>
					<dim>9</dim>
					<dim>8</dim>
				</port>
				<port id="4" precision="FP32" names="complex_batch_normalization_6/strided_slice_15:0">
					<dim>1</dim>
					<dim>8</dim>
					<dim>33</dim>
					<dim>9</dim>
					<dim>8</dim>
				</port>
			</output>
		</layer>
		<layer id="165" name="complex_batch_normalization_6/concat_11" type="Concat" version="opset1">
			<data axis="1" />
			<input>
				<port id="0" precision="FP32">
					<dim>1</dim>
					<dim>8</dim>
					<dim>33</dim>
					<dim>9</dim>
					<dim>8</dim>
				</port>
				<port id="1" precision="FP32">
					<dim>1</dim>
					<dim>8</dim>
					<dim>33</dim>
					<dim>9</dim>
					<dim>8</dim>
				</port>
			</input>
			<output>
				<port id="2" precision="FP32" names="complex_batch_normalization_6/concat_11:0">
					<dim>1</dim>
					<dim>16</dim>
					<dim>33</dim>
					<dim>9</dim>
					<dim>8</dim>
				</port>
			</output>
		</layer>
		<layer id="166" name="complex_batch_normalization_6/mul_26" type="Multiply" version="opset1">
			<data auto_broadcast="numpy" />
			<input>
				<port id="0" precision="FP32">
					<dim>1</dim>
					<dim>16</dim>
					<dim>1</dim>
					<dim>1</dim>
					<dim>1</dim>
				</port>
				<port id="1" precision="FP32">
					<dim>1</dim>
					<dim>16</dim>
					<dim>33</dim>
					<dim>9</dim>
					<dim>8</dim>
				</port>
			</input>
			<output>
				<port id="2" precision="FP32" names="complex_batch_normalization_6/mul_26:0">
					<dim>1</dim>
					<dim>16</dim>
					<dim>33</dim>
					<dim>9</dim>
					<dim>8</dim>
				</port>
			</output>
		</layer>
		<layer id="167" name="complex_batch_normalization_6/add_14" type="Add" version="opset1">
			<data auto_broadcast="numpy" />
			<input>
				<port id="0" precision="FP32">
					<dim>1</dim>
					<dim>16</dim>
					<dim>33</dim>
					<dim>9</dim>
					<dim>8</dim>
				</port>
				<port id="1" precision="FP32">
					<dim>1</dim>
					<dim>16</dim>
					<dim>33</dim>
					<dim>9</dim>
					<dim>8</dim>
				</port>
			</input>
			<output>
				<port id="2" precision="FP32" names="complex_batch_normalization_6/add_14:0">
					<dim>1</dim>
					<dim>16</dim>
					<dim>33</dim>
					<dim>9</dim>
					<dim>8</dim>
				</port>
			</output>
		</layer>
		<layer id="168" name="complex_batch_normalization_6/add_15/TransposeNHWCtoNCHW" type="Const" version="opset1">
			<data element_type="f32" shape="1, 16, 1, 1, 1" offset="230720" size="64" />
			<output>
				<port id="0" precision="FP32" names="complex_batch_normalization_6/Reshape_15:0">
					<dim>1</dim>
					<dim>16</dim>
					<dim>1</dim>
					<dim>1</dim>
					<dim>1</dim>
				</port>
			</output>
		</layer>
		<layer id="169" name="complex_batch_normalization_6/add_15" type="Add" version="opset1">
			<data auto_broadcast="numpy" />
			<input>
				<port id="0" precision="FP32">
					<dim>1</dim>
					<dim>16</dim>
					<dim>33</dim>
					<dim>9</dim>
					<dim>8</dim>
				</port>
				<port id="1" precision="FP32">
					<dim>1</dim>
					<dim>16</dim>
					<dim>1</dim>
					<dim>1</dim>
					<dim>1</dim>
				</port>
			</input>
			<output>
				<port id="2" precision="FP32" names="complex_batch_normalization_6/add_15:0">
					<dim>1</dim>
					<dim>16</dim>
					<dim>33</dim>
					<dim>9</dim>
					<dim>8</dim>
				</port>
			</output>
		</layer>
		<layer id="170" name="activation_6/Relu" type="ReLU" version="opset1">
			<input>
				<port id="0" precision="FP32">
					<dim>1</dim>
					<dim>16</dim>
					<dim>33</dim>
					<dim>9</dim>
					<dim>8</dim>
				</port>
			</input>
			<output>
				<port id="1" precision="FP32" names="activation_6/Relu:0">
					<dim>1</dim>
					<dim>16</dim>
					<dim>33</dim>
					<dim>9</dim>
					<dim>8</dim>
				</port>
			</output>
		</layer>
		<layer id="171" name="complex_conv3d_7/concat_2" type="Const" version="opset1">
			<data element_type="f32" shape="36, 16, 9, 3, 1" offset="230784" size="62208" />
			<output>
				<port id="0" precision="FP32" names="complex_conv3d_7/concat_2:0">
					<dim>36</dim>
					<dim>16</dim>
					<dim>9</dim>
					<dim>3</dim>
					<dim>1</dim>
				</port>
			</output>
		</layer>
		<layer id="172" name="complex_conv3d_7/convolution" type="Convolution" version="opset1">
			<data strides="1, 1, 1" dilations="1, 1, 1" pads_begin="0, 0, 0" pads_end="0, 0, 0" auto_pad="same_upper" />
			<input>
				<port id="0" precision="FP32">
					<dim>1</dim>
					<dim>16</dim>
					<dim>33</dim>
					<dim>9</dim>
					<dim>8</dim>
				</port>
				<port id="1" precision="FP32">
					<dim>36</dim>
					<dim>16</dim>
					<dim>9</dim>
					<dim>3</dim>
					<dim>1</dim>
				</port>
			</input>
			<output>
				<port id="2" precision="FP32" names="complex_conv3d_7/convolution:0">
					<dim>1</dim>
					<dim>36</dim>
					<dim>33</dim>
					<dim>9</dim>
					<dim>8</dim>
				</port>
			</output>
		</layer>
		<layer id="173" name="data_add_406794068181797" type="Const" version="opset1">
			<data element_type="f32" shape="1, 36, 1, 1, 1" offset="292992" size="144" />
			<output>
				<port id="0" precision="FP32">
					<dim>1</dim>
					<dim>36</dim>
					<dim>1</dim>
					<dim>1</dim>
					<dim>1</dim>
				</port>
			</output>
		</layer>
		<layer id="174" name="complex_conv3d_7/add_1/Fused_Add_" type="Add" version="opset1">
			<data auto_broadcast="numpy" />
			<input>
				<port id="0" precision="FP32">
					<dim>1</dim>
					<dim>36</dim>
					<dim>33</dim>
					<dim>9</dim>
					<dim>8</dim>
				</port>
				<port id="1" precision="FP32">
					<dim>1</dim>
					<dim>36</dim>
					<dim>1</dim>
					<dim>1</dim>
					<dim>1</dim>
				</port>
			</input>
			<output>
				<port id="2" precision="FP32" names="complex_batch_normalization_7/sub_2:0">
					<dim>1</dim>
					<dim>36</dim>
					<dim>33</dim>
					<dim>9</dim>
					<dim>8</dim>
				</port>
			</output>
		</layer>
		<layer id="175" name="complex_batch_normalization_7/mul_23" type="Multiply" version="opset1">
			<data auto_broadcast="numpy" />
			<input>
				<port id="0" precision="FP32">
					<dim>1</dim>
					<dim>36</dim>
					<dim>1</dim>
					<dim>1</dim>
					<dim>1</dim>
				</port>
				<port id="1" precision="FP32">
					<dim>1</dim>
					<dim>36</dim>
					<dim>33</dim>
					<dim>9</dim>
					<dim>8</dim>
				</port>
			</input>
			<output>
				<port id="2" precision="FP32" names="complex_batch_normalization_7/mul_23:0">
					<dim>1</dim>
					<dim>36</dim>
					<dim>33</dim>
					<dim>9</dim>
					<dim>8</dim>
				</port>
			</output>
		</layer>
		<layer id="176" name="complex_batch_normalization_7/mul_24/TransposeNHWCtoNCHW" type="Const" version="opset1">
			<data element_type="f32" shape="1, 36, 1, 1, 1" offset="293136" size="144" />
			<output>
				<port id="0" precision="FP32" names="complex_batch_normalization_7/concat_7:0">
					<dim>1</dim>
					<dim>36</dim>
					<dim>1</dim>
					<dim>1</dim>
					<dim>1</dim>
				</port>
			</output>
		</layer>
		<layer id="177" name="5347781206" type="Const" version="opset1">
			<data element_type="i64" shape="" offset="10984" size="8" />
			<output>
				<port id="0" precision="I64" />
			</output>
		</layer>
		<layer id="178" name="3175882409" type="Const" version="opset1">
			<data element_type="i64" shape="2" offset="10992" size="16" />
			<output>
				<port id="0" precision="I64">
					<dim>2</dim>
				</port>
			</output>
		</layer>
		<layer id="179" name="complex_batch_normalization_7/strided_slice_12/Split" type="VariadicSplit" version="opset1">
			<input>
				<port id="0" precision="FP32">
					<dim>1</dim>
					<dim>36</dim>
					<dim>33</dim>
					<dim>9</dim>
					<dim>8</dim>
				</port>
				<port id="1" precision="I64" />
				<port id="2" precision="I64">
					<dim>2</dim>
				</port>
			</input>
			<output>
				<port id="3" precision="FP32" names="complex_batch_normalization_7/strided_slice_12:0">
					<dim>1</dim>
					<dim>18</dim>
					<dim>33</dim>
					<dim>9</dim>
					<dim>8</dim>
				</port>
				<port id="4" precision="FP32" names="complex_batch_normalization_7/strided_slice_13:0">
					<dim>1</dim>
					<dim>18</dim>
					<dim>33</dim>
					<dim>9</dim>
					<dim>8</dim>
				</port>
			</output>
		</layer>
		<layer id="180" name="complex_batch_normalization_7/concat_8" type="Concat" version="opset1">
			<data axis="1" />
			<input>
				<port id="0" precision="FP32">
					<dim>1</dim>
					<dim>18</dim>
					<dim>33</dim>
					<dim>9</dim>
					<dim>8</dim>
				</port>
				<port id="1" precision="FP32">
					<dim>1</dim>
					<dim>18</dim>
					<dim>33</dim>
					<dim>9</dim>
					<dim>8</dim>
				</port>
			</input>
			<output>
				<port id="2" precision="FP32" names="complex_batch_normalization_7/concat_8:0">
					<dim>1</dim>
					<dim>36</dim>
					<dim>33</dim>
					<dim>9</dim>
					<dim>8</dim>
				</port>
			</output>
		</layer>
		<layer id="181" name="complex_batch_normalization_7/mul_24" type="Multiply" version="opset1">
			<data auto_broadcast="numpy" />
			<input>
				<port id="0" precision="FP32">
					<dim>1</dim>
					<dim>36</dim>
					<dim>1</dim>
					<dim>1</dim>
					<dim>1</dim>
				</port>
				<port id="1" precision="FP32">
					<dim>1</dim>
					<dim>36</dim>
					<dim>33</dim>
					<dim>9</dim>
					<dim>8</dim>
				</port>
			</input>
			<output>
				<port id="2" precision="FP32" names="complex_batch_normalization_7/mul_24:0">
					<dim>1</dim>
					<dim>36</dim>
					<dim>33</dim>
					<dim>9</dim>
					<dim>8</dim>
				</port>
			</output>
		</layer>
		<layer id="182" name="complex_batch_normalization_7/add_13" type="Add" version="opset1">
			<data auto_broadcast="numpy" />
			<input>
				<port id="0" precision="FP32">
					<dim>1</dim>
					<dim>36</dim>
					<dim>33</dim>
					<dim>9</dim>
					<dim>8</dim>
				</port>
				<port id="1" precision="FP32">
					<dim>1</dim>
					<dim>36</dim>
					<dim>33</dim>
					<dim>9</dim>
					<dim>8</dim>
				</port>
			</input>
			<output>
				<port id="2" precision="FP32" names="complex_batch_normalization_7/add_13:0">
					<dim>1</dim>
					<dim>36</dim>
					<dim>33</dim>
					<dim>9</dim>
					<dim>8</dim>
				</port>
			</output>
		</layer>
		<layer id="183" name="complex_batch_normalization_7/mul_25" type="Multiply" version="opset1">
			<data auto_broadcast="numpy" />
			<input>
				<port id="0" precision="FP32">
					<dim>1</dim>
					<dim>36</dim>
					<dim>1</dim>
					<dim>1</dim>
					<dim>1</dim>
				</port>
				<port id="1" precision="FP32">
					<dim>1</dim>
					<dim>36</dim>
					<dim>33</dim>
					<dim>9</dim>
					<dim>8</dim>
				</port>
			</input>
			<output>
				<port id="2" precision="FP32" names="complex_batch_normalization_7/mul_25:0">
					<dim>1</dim>
					<dim>36</dim>
					<dim>33</dim>
					<dim>9</dim>
					<dim>8</dim>
				</port>
			</output>
		</layer>
		<layer id="184" name="complex_batch_normalization_7/mul_26/TransposeNHWCtoNCHW" type="Const" version="opset1">
			<data element_type="f32" shape="1, 36, 1, 1, 1" offset="293280" size="144" />
			<output>
				<port id="0" precision="FP32" names="complex_batch_normalization_7/concat_10:0">
					<dim>1</dim>
					<dim>36</dim>
					<dim>1</dim>
					<dim>1</dim>
					<dim>1</dim>
				</port>
			</output>
		</layer>
		<layer id="185" name="5348381116" type="Const" version="opset1">
			<data element_type="i64" shape="" offset="10984" size="8" />
			<output>
				<port id="0" precision="I64" />
			</output>
		</layer>
		<layer id="186" name="3176380288" type="Const" version="opset1">
			<data element_type="i64" shape="2" offset="10992" size="16" />
			<output>
				<port id="0" precision="I64">
					<dim>2</dim>
				</port>
			</output>
		</layer>
		<layer id="187" name="complex_batch_normalization_7/strided_slice_14/Split" type="VariadicSplit" version="opset1">
			<input>
				<port id="0" precision="FP32">
					<dim>1</dim>
					<dim>36</dim>
					<dim>33</dim>
					<dim>9</dim>
					<dim>8</dim>
				</port>
				<port id="1" precision="I64" />
				<port id="2" precision="I64">
					<dim>2</dim>
				</port>
			</input>
			<output>
				<port id="3" precision="FP32" names="complex_batch_normalization_7/strided_slice_14:0">
					<dim>1</dim>
					<dim>18</dim>
					<dim>33</dim>
					<dim>9</dim>
					<dim>8</dim>
				</port>
				<port id="4" precision="FP32" names="complex_batch_normalization_7/strided_slice_15:0">
					<dim>1</dim>
					<dim>18</dim>
					<dim>33</dim>
					<dim>9</dim>
					<dim>8</dim>
				</port>
			</output>
		</layer>
		<layer id="188" name="complex_batch_normalization_7/concat_11" type="Concat" version="opset1">
			<data axis="1" />
			<input>
				<port id="0" precision="FP32">
					<dim>1</dim>
					<dim>18</dim>
					<dim>33</dim>
					<dim>9</dim>
					<dim>8</dim>
				</port>
				<port id="1" precision="FP32">
					<dim>1</dim>
					<dim>18</dim>
					<dim>33</dim>
					<dim>9</dim>
					<dim>8</dim>
				</port>
			</input>
			<output>
				<port id="2" precision="FP32" names="complex_batch_normalization_7/concat_11:0">
					<dim>1</dim>
					<dim>36</dim>
					<dim>33</dim>
					<dim>9</dim>
					<dim>8</dim>
				</port>
			</output>
		</layer>
		<layer id="189" name="complex_batch_normalization_7/mul_26" type="Multiply" version="opset1">
			<data auto_broadcast="numpy" />
			<input>
				<port id="0" precision="FP32">
					<dim>1</dim>
					<dim>36</dim>
					<dim>1</dim>
					<dim>1</dim>
					<dim>1</dim>
				</port>
				<port id="1" precision="FP32">
					<dim>1</dim>
					<dim>36</dim>
					<dim>33</dim>
					<dim>9</dim>
					<dim>8</dim>
				</port>
			</input>
			<output>
				<port id="2" precision="FP32" names="complex_batch_normalization_7/mul_26:0">
					<dim>1</dim>
					<dim>36</dim>
					<dim>33</dim>
					<dim>9</dim>
					<dim>8</dim>
				</port>
			</output>
		</layer>
		<layer id="190" name="complex_batch_normalization_7/add_14" type="Add" version="opset1">
			<data auto_broadcast="numpy" />
			<input>
				<port id="0" precision="FP32">
					<dim>1</dim>
					<dim>36</dim>
					<dim>33</dim>
					<dim>9</dim>
					<dim>8</dim>
				</port>
				<port id="1" precision="FP32">
					<dim>1</dim>
					<dim>36</dim>
					<dim>33</dim>
					<dim>9</dim>
					<dim>8</dim>
				</port>
			</input>
			<output>
				<port id="2" precision="FP32" names="complex_batch_normalization_7/add_14:0">
					<dim>1</dim>
					<dim>36</dim>
					<dim>33</dim>
					<dim>9</dim>
					<dim>8</dim>
				</port>
			</output>
		</layer>
		<layer id="191" name="complex_batch_normalization_7/add_15/TransposeNHWCtoNCHW" type="Const" version="opset1">
			<data element_type="f32" shape="1, 36, 1, 1, 1" offset="293424" size="144" />
			<output>
				<port id="0" precision="FP32" names="complex_batch_normalization_7/Reshape_15:0">
					<dim>1</dim>
					<dim>36</dim>
					<dim>1</dim>
					<dim>1</dim>
					<dim>1</dim>
				</port>
			</output>
		</layer>
		<layer id="192" name="complex_batch_normalization_7/add_15" type="Add" version="opset1">
			<data auto_broadcast="numpy" />
			<input>
				<port id="0" precision="FP32">
					<dim>1</dim>
					<dim>36</dim>
					<dim>33</dim>
					<dim>9</dim>
					<dim>8</dim>
				</port>
				<port id="1" precision="FP32">
					<dim>1</dim>
					<dim>36</dim>
					<dim>1</dim>
					<dim>1</dim>
					<dim>1</dim>
				</port>
			</input>
			<output>
				<port id="2" precision="FP32" names="complex_batch_normalization_7/add_15:0">
					<dim>1</dim>
					<dim>36</dim>
					<dim>33</dim>
					<dim>9</dim>
					<dim>8</dim>
				</port>
			</output>
		</layer>
		<layer id="193" name="activation_7/Relu" type="ReLU" version="opset1">
			<input>
				<port id="0" precision="FP32">
					<dim>1</dim>
					<dim>36</dim>
					<dim>33</dim>
					<dim>9</dim>
					<dim>8</dim>
				</port>
			</input>
			<output>
				<port id="1" precision="FP32" names="activation_7/Relu:0">
					<dim>1</dim>
					<dim>36</dim>
					<dim>33</dim>
					<dim>9</dim>
					<dim>8</dim>
				</port>
			</output>
		</layer>
		<layer id="194" name="complex_conv3d_8/concat_2" type="Const" version="opset1">
			<data element_type="f32" shape="20, 36, 5, 3, 1" offset="293568" size="43200" />
			<output>
				<port id="0" precision="FP32" names="complex_conv3d_8/concat_2:0">
					<dim>20</dim>
					<dim>36</dim>
					<dim>5</dim>
					<dim>3</dim>
					<dim>1</dim>
				</port>
			</output>
		</layer>
		<layer id="195" name="complex_conv3d_8/convolution" type="Convolution" version="opset1">
			<data strides="1, 1, 1" dilations="1, 1, 1" pads_begin="0, 0, 0" pads_end="0, 0, 0" auto_pad="same_upper" />
			<input>
				<port id="0" precision="FP32">
					<dim>1</dim>
					<dim>36</dim>
					<dim>33</dim>
					<dim>9</dim>
					<dim>8</dim>
				</port>
				<port id="1" precision="FP32">
					<dim>20</dim>
					<dim>36</dim>
					<dim>5</dim>
					<dim>3</dim>
					<dim>1</dim>
				</port>
			</input>
			<output>
				<port id="2" precision="FP32" names="complex_conv3d_8/convolution:0">
					<dim>1</dim>
					<dim>20</dim>
					<dim>33</dim>
					<dim>9</dim>
					<dim>8</dim>
				</port>
			</output>
		</layer>
		<layer id="196" name="data_add_406834068580423" type="Const" version="opset1">
			<data element_type="f32" shape="1, 20, 1, 1, 1" offset="336768" size="80" />
			<output>
				<port id="0" precision="FP32">
					<dim>1</dim>
					<dim>20</dim>
					<dim>1</dim>
					<dim>1</dim>
					<dim>1</dim>
				</port>
			</output>
		</layer>
		<layer id="197" name="complex_conv3d_8/add_1/Fused_Add_" type="Add" version="opset1">
			<data auto_broadcast="numpy" />
			<input>
				<port id="0" precision="FP32">
					<dim>1</dim>
					<dim>20</dim>
					<dim>33</dim>
					<dim>9</dim>
					<dim>8</dim>
				</port>
				<port id="1" precision="FP32">
					<dim>1</dim>
					<dim>20</dim>
					<dim>1</dim>
					<dim>1</dim>
					<dim>1</dim>
				</port>
			</input>
			<output>
				<port id="2" precision="FP32" names="complex_batch_normalization_8/sub_2:0">
					<dim>1</dim>
					<dim>20</dim>
					<dim>33</dim>
					<dim>9</dim>
					<dim>8</dim>
				</port>
			</output>
		</layer>
		<layer id="198" name="complex_batch_normalization_8/mul_23" type="Multiply" version="opset1">
			<data auto_broadcast="numpy" />
			<input>
				<port id="0" precision="FP32">
					<dim>1</dim>
					<dim>20</dim>
					<dim>1</dim>
					<dim>1</dim>
					<dim>1</dim>
				</port>
				<port id="1" precision="FP32">
					<dim>1</dim>
					<dim>20</dim>
					<dim>33</dim>
					<dim>9</dim>
					<dim>8</dim>
				</port>
			</input>
			<output>
				<port id="2" precision="FP32" names="complex_batch_normalization_8/mul_23:0">
					<dim>1</dim>
					<dim>20</dim>
					<dim>33</dim>
					<dim>9</dim>
					<dim>8</dim>
				</port>
			</output>
		</layer>
		<layer id="199" name="complex_batch_normalization_8/mul_24/TransposeNHWCtoNCHW" type="Const" version="opset1">
			<data element_type="f32" shape="1, 20, 1, 1, 1" offset="336848" size="80" />
			<output>
				<port id="0" precision="FP32" names="complex_batch_normalization_8/concat_7:0">
					<dim>1</dim>
					<dim>20</dim>
					<dim>1</dim>
					<dim>1</dim>
					<dim>1</dim>
				</port>
			</output>
		</layer>
		<layer id="200" name="5348982286" type="Const" version="opset1">
			<data element_type="i64" shape="" offset="10984" size="8" />
			<output>
				<port id="0" precision="I64" />
			</output>
		</layer>
		<layer id="201" name="3176882766" type="Const" version="opset1">
			<data element_type="i64" shape="2" offset="54656" size="16" />
			<output>
				<port id="0" precision="I64">
					<dim>2</dim>
				</port>
			</output>
		</layer>
		<layer id="202" name="complex_batch_normalization_8/strided_slice_12/Split" type="VariadicSplit" version="opset1">
			<input>
				<port id="0" precision="FP32">
					<dim>1</dim>
					<dim>20</dim>
					<dim>33</dim>
					<dim>9</dim>
					<dim>8</dim>
				</port>
				<port id="1" precision="I64" />
				<port id="2" precision="I64">
					<dim>2</dim>
				</port>
			</input>
			<output>
				<port id="3" precision="FP32" names="complex_batch_normalization_8/strided_slice_12:0">
					<dim>1</dim>
					<dim>10</dim>
					<dim>33</dim>
					<dim>9</dim>
					<dim>8</dim>
				</port>
				<port id="4" precision="FP32" names="complex_batch_normalization_8/strided_slice_13:0">
					<dim>1</dim>
					<dim>10</dim>
					<dim>33</dim>
					<dim>9</dim>
					<dim>8</dim>
				</port>
			</output>
		</layer>
		<layer id="203" name="complex_batch_normalization_8/concat_8" type="Concat" version="opset1">
			<data axis="1" />
			<input>
				<port id="0" precision="FP32">
					<dim>1</dim>
					<dim>10</dim>
					<dim>33</dim>
					<dim>9</dim>
					<dim>8</dim>
				</port>
				<port id="1" precision="FP32">
					<dim>1</dim>
					<dim>10</dim>
					<dim>33</dim>
					<dim>9</dim>
					<dim>8</dim>
				</port>
			</input>
			<output>
				<port id="2" precision="FP32" names="complex_batch_normalization_8/concat_8:0">
					<dim>1</dim>
					<dim>20</dim>
					<dim>33</dim>
					<dim>9</dim>
					<dim>8</dim>
				</port>
			</output>
		</layer>
		<layer id="204" name="complex_batch_normalization_8/mul_24" type="Multiply" version="opset1">
			<data auto_broadcast="numpy" />
			<input>
				<port id="0" precision="FP32">
					<dim>1</dim>
					<dim>20</dim>
					<dim>1</dim>
					<dim>1</dim>
					<dim>1</dim>
				</port>
				<port id="1" precision="FP32">
					<dim>1</dim>
					<dim>20</dim>
					<dim>33</dim>
					<dim>9</dim>
					<dim>8</dim>
				</port>
			</input>
			<output>
				<port id="2" precision="FP32" names="complex_batch_normalization_8/mul_24:0">
					<dim>1</dim>
					<dim>20</dim>
					<dim>33</dim>
					<dim>9</dim>
					<dim>8</dim>
				</port>
			</output>
		</layer>
		<layer id="205" name="complex_batch_normalization_8/add_13" type="Add" version="opset1">
			<data auto_broadcast="numpy" />
			<input>
				<port id="0" precision="FP32">
					<dim>1</dim>
					<dim>20</dim>
					<dim>33</dim>
					<dim>9</dim>
					<dim>8</dim>
				</port>
				<port id="1" precision="FP32">
					<dim>1</dim>
					<dim>20</dim>
					<dim>33</dim>
					<dim>9</dim>
					<dim>8</dim>
				</port>
			</input>
			<output>
				<port id="2" precision="FP32" names="complex_batch_normalization_8/add_13:0">
					<dim>1</dim>
					<dim>20</dim>
					<dim>33</dim>
					<dim>9</dim>
					<dim>8</dim>
				</port>
			</output>
		</layer>
		<layer id="206" name="complex_batch_normalization_8/mul_25" type="Multiply" version="opset1">
			<data auto_broadcast="numpy" />
			<input>
				<port id="0" precision="FP32">
					<dim>1</dim>
					<dim>20</dim>
					<dim>1</dim>
					<dim>1</dim>
					<dim>1</dim>
				</port>
				<port id="1" precision="FP32">
					<dim>1</dim>
					<dim>20</dim>
					<dim>33</dim>
					<dim>9</dim>
					<dim>8</dim>
				</port>
			</input>
			<output>
				<port id="2" precision="FP32" names="complex_batch_normalization_8/mul_25:0">
					<dim>1</dim>
					<dim>20</dim>
					<dim>33</dim>
					<dim>9</dim>
					<dim>8</dim>
				</port>
			</output>
		</layer>
		<layer id="207" name="complex_batch_normalization_8/mul_26/TransposeNHWCtoNCHW" type="Const" version="opset1">
			<data element_type="f32" shape="1, 20, 1, 1, 1" offset="336928" size="80" />
			<output>
				<port id="0" precision="FP32" names="complex_batch_normalization_8/concat_10:0">
					<dim>1</dim>
					<dim>20</dim>
					<dim>1</dim>
					<dim>1</dim>
					<dim>1</dim>
				</port>
			</output>
		</layer>
		<layer id="208" name="5349582232" type="Const" version="opset1">
			<data element_type="i64" shape="" offset="10984" size="8" />
			<output>
				<port id="0" precision="I64" />
			</output>
		</layer>
		<layer id="209" name="3177381800" type="Const" version="opset1">
			<data element_type="i64" shape="2" offset="54656" size="16" />
			<output>
				<port id="0" precision="I64">
					<dim>2</dim>
				</port>
			</output>
		</layer>
		<layer id="210" name="complex_batch_normalization_8/strided_slice_14/Split" type="VariadicSplit" version="opset1">
			<input>
				<port id="0" precision="FP32">
					<dim>1</dim>
					<dim>20</dim>
					<dim>33</dim>
					<dim>9</dim>
					<dim>8</dim>
				</port>
				<port id="1" precision="I64" />
				<port id="2" precision="I64">
					<dim>2</dim>
				</port>
			</input>
			<output>
				<port id="3" precision="FP32" names="complex_batch_normalization_8/strided_slice_14:0">
					<dim>1</dim>
					<dim>10</dim>
					<dim>33</dim>
					<dim>9</dim>
					<dim>8</dim>
				</port>
				<port id="4" precision="FP32" names="complex_batch_normalization_8/strided_slice_15:0">
					<dim>1</dim>
					<dim>10</dim>
					<dim>33</dim>
					<dim>9</dim>
					<dim>8</dim>
				</port>
			</output>
		</layer>
		<layer id="211" name="complex_batch_normalization_8/concat_11" type="Concat" version="opset1">
			<data axis="1" />
			<input>
				<port id="0" precision="FP32">
					<dim>1</dim>
					<dim>10</dim>
					<dim>33</dim>
					<dim>9</dim>
					<dim>8</dim>
				</port>
				<port id="1" precision="FP32">
					<dim>1</dim>
					<dim>10</dim>
					<dim>33</dim>
					<dim>9</dim>
					<dim>8</dim>
				</port>
			</input>
			<output>
				<port id="2" precision="FP32" names="complex_batch_normalization_8/concat_11:0">
					<dim>1</dim>
					<dim>20</dim>
					<dim>33</dim>
					<dim>9</dim>
					<dim>8</dim>
				</port>
			</output>
		</layer>
		<layer id="212" name="complex_batch_normalization_8/mul_26" type="Multiply" version="opset1">
			<data auto_broadcast="numpy" />
			<input>
				<port id="0" precision="FP32">
					<dim>1</dim>
					<dim>20</dim>
					<dim>1</dim>
					<dim>1</dim>
					<dim>1</dim>
				</port>
				<port id="1" precision="FP32">
					<dim>1</dim>
					<dim>20</dim>
					<dim>33</dim>
					<dim>9</dim>
					<dim>8</dim>
				</port>
			</input>
			<output>
				<port id="2" precision="FP32" names="complex_batch_normalization_8/mul_26:0">
					<dim>1</dim>
					<dim>20</dim>
					<dim>33</dim>
					<dim>9</dim>
					<dim>8</dim>
				</port>
			</output>
		</layer>
		<layer id="213" name="complex_batch_normalization_8/add_14" type="Add" version="opset1">
			<data auto_broadcast="numpy" />
			<input>
				<port id="0" precision="FP32">
					<dim>1</dim>
					<dim>20</dim>
					<dim>33</dim>
					<dim>9</dim>
					<dim>8</dim>
				</port>
				<port id="1" precision="FP32">
					<dim>1</dim>
					<dim>20</dim>
					<dim>33</dim>
					<dim>9</dim>
					<dim>8</dim>
				</port>
			</input>
			<output>
				<port id="2" precision="FP32" names="complex_batch_normalization_8/add_14:0">
					<dim>1</dim>
					<dim>20</dim>
					<dim>33</dim>
					<dim>9</dim>
					<dim>8</dim>
				</port>
			</output>
		</layer>
		<layer id="214" name="complex_batch_normalization_8/add_15/TransposeNHWCtoNCHW" type="Const" version="opset1">
			<data element_type="f32" shape="1, 20, 1, 1, 1" offset="337008" size="80" />
			<output>
				<port id="0" precision="FP32" names="complex_batch_normalization_8/Reshape_15:0">
					<dim>1</dim>
					<dim>20</dim>
					<dim>1</dim>
					<dim>1</dim>
					<dim>1</dim>
				</port>
			</output>
		</layer>
		<layer id="215" name="complex_batch_normalization_8/add_15" type="Add" version="opset1">
			<data auto_broadcast="numpy" />
			<input>
				<port id="0" precision="FP32">
					<dim>1</dim>
					<dim>20</dim>
					<dim>33</dim>
					<dim>9</dim>
					<dim>8</dim>
				</port>
				<port id="1" precision="FP32">
					<dim>1</dim>
					<dim>20</dim>
					<dim>1</dim>
					<dim>1</dim>
					<dim>1</dim>
				</port>
			</input>
			<output>
				<port id="2" precision="FP32" names="complex_batch_normalization_8/add_15:0">
					<dim>1</dim>
					<dim>20</dim>
					<dim>33</dim>
					<dim>9</dim>
					<dim>8</dim>
				</port>
			</output>
		</layer>
		<layer id="216" name="activation_8/Relu" type="ReLU" version="opset1">
			<input>
				<port id="0" precision="FP32">
					<dim>1</dim>
					<dim>20</dim>
					<dim>33</dim>
					<dim>9</dim>
					<dim>8</dim>
				</port>
			</input>
			<output>
				<port id="1" precision="FP32" names="activation_8/Relu:0">
					<dim>1</dim>
					<dim>20</dim>
					<dim>33</dim>
					<dim>9</dim>
					<dim>8</dim>
				</port>
			</output>
		</layer>
		<layer id="217" name="complex_conv3d_9/concat_2" type="Const" version="opset1">
			<data element_type="f32" shape="16, 20, 9, 3, 1" offset="337088" size="34560" />
			<output>
				<port id="0" precision="FP32" names="complex_conv3d_9/concat_2:0">
					<dim>16</dim>
					<dim>20</dim>
					<dim>9</dim>
					<dim>3</dim>
					<dim>1</dim>
				</port>
			</output>
		</layer>
		<layer id="218" name="complex_conv3d_9/convolution" type="Convolution" version="opset1">
			<data strides="1, 1, 1" dilations="1, 1, 1" pads_begin="0, 0, 0" pads_end="0, 0, 0" auto_pad="same_upper" />
			<input>
				<port id="0" precision="FP32">
					<dim>1</dim>
					<dim>20</dim>
					<dim>33</dim>
					<dim>9</dim>
					<dim>8</dim>
				</port>
				<port id="1" precision="FP32">
					<dim>16</dim>
					<dim>20</dim>
					<dim>9</dim>
					<dim>3</dim>
					<dim>1</dim>
				</port>
			</input>
			<output>
				<port id="2" precision="FP32" names="complex_conv3d_9/convolution:0">
					<dim>1</dim>
					<dim>16</dim>
					<dim>33</dim>
					<dim>9</dim>
					<dim>8</dim>
				</port>
			</output>
		</layer>
		<layer id="219" name="data_add_406874068980663" type="Const" version="opset1">
			<data element_type="f32" shape="1, 16, 1, 1, 1" offset="371648" size="64" />
			<output>
				<port id="0" precision="FP32">
					<dim>1</dim>
					<dim>16</dim>
					<dim>1</dim>
					<dim>1</dim>
					<dim>1</dim>
				</port>
			</output>
		</layer>
		<layer id="220" name="complex_conv3d_9/add_1/Fused_Add_" type="Add" version="opset1">
			<data auto_broadcast="numpy" />
			<input>
				<port id="0" precision="FP32">
					<dim>1</dim>
					<dim>16</dim>
					<dim>33</dim>
					<dim>9</dim>
					<dim>8</dim>
				</port>
				<port id="1" precision="FP32">
					<dim>1</dim>
					<dim>16</dim>
					<dim>1</dim>
					<dim>1</dim>
					<dim>1</dim>
				</port>
			</input>
			<output>
				<port id="2" precision="FP32" names="complex_batch_normalization_9/sub_2:0">
					<dim>1</dim>
					<dim>16</dim>
					<dim>33</dim>
					<dim>9</dim>
					<dim>8</dim>
				</port>
			</output>
		</layer>
		<layer id="221" name="complex_batch_normalization_9/mul_23" type="Multiply" version="opset1">
			<data auto_broadcast="numpy" />
			<input>
				<port id="0" precision="FP32">
					<dim>1</dim>
					<dim>16</dim>
					<dim>1</dim>
					<dim>1</dim>
					<dim>1</dim>
				</port>
				<port id="1" precision="FP32">
					<dim>1</dim>
					<dim>16</dim>
					<dim>33</dim>
					<dim>9</dim>
					<dim>8</dim>
				</port>
			</input>
			<output>
				<port id="2" precision="FP32" names="complex_batch_normalization_9/mul_23:0">
					<dim>1</dim>
					<dim>16</dim>
					<dim>33</dim>
					<dim>9</dim>
					<dim>8</dim>
				</port>
			</output>
		</layer>
		<layer id="222" name="complex_batch_normalization_9/mul_24/TransposeNHWCtoNCHW" type="Const" version="opset1">
			<data element_type="f32" shape="1, 16, 1, 1, 1" offset="371712" size="64" />
			<output>
				<port id="0" precision="FP32" names="complex_batch_normalization_9/concat_7:0">
					<dim>1</dim>
					<dim>16</dim>
					<dim>1</dim>
					<dim>1</dim>
					<dim>1</dim>
				</port>
			</output>
		</layer>
		<layer id="223" name="5350181071" type="Const" version="opset1">
			<data element_type="i64" shape="" offset="10984" size="8" />
			<output>
				<port id="0" precision="I64" />
			</output>
		</layer>
		<layer id="224" name="3177882220" type="Const" version="opset1">
			<data element_type="i64" shape="2" offset="89520" size="16" />
			<output>
				<port id="0" precision="I64">
					<dim>2</dim>
				</port>
			</output>
		</layer>
		<layer id="225" name="complex_batch_normalization_9/strided_slice_12/Split" type="VariadicSplit" version="opset1">
			<input>
				<port id="0" precision="FP32">
					<dim>1</dim>
					<dim>16</dim>
					<dim>33</dim>
					<dim>9</dim>
					<dim>8</dim>
				</port>
				<port id="1" precision="I64" />
				<port id="2" precision="I64">
					<dim>2</dim>
				</port>
			</input>
			<output>
				<port id="3" precision="FP32" names="complex_batch_normalization_9/strided_slice_12:0">
					<dim>1</dim>
					<dim>8</dim>
					<dim>33</dim>
					<dim>9</dim>
					<dim>8</dim>
				</port>
				<port id="4" precision="FP32" names="complex_batch_normalization_9/strided_slice_13:0">
					<dim>1</dim>
					<dim>8</dim>
					<dim>33</dim>
					<dim>9</dim>
					<dim>8</dim>
				</port>
			</output>
		</layer>
		<layer id="226" name="complex_batch_normalization_9/concat_8" type="Concat" version="opset1">
			<data axis="1" />
			<input>
				<port id="0" precision="FP32">
					<dim>1</dim>
					<dim>8</dim>
					<dim>33</dim>
					<dim>9</dim>
					<dim>8</dim>
				</port>
				<port id="1" precision="FP32">
					<dim>1</dim>
					<dim>8</dim>
					<dim>33</dim>
					<dim>9</dim>
					<dim>8</dim>
				</port>
			</input>
			<output>
				<port id="2" precision="FP32" names="complex_batch_normalization_9/concat_8:0">
					<dim>1</dim>
					<dim>16</dim>
					<dim>33</dim>
					<dim>9</dim>
					<dim>8</dim>
				</port>
			</output>
		</layer>
		<layer id="227" name="complex_batch_normalization_9/mul_24" type="Multiply" version="opset1">
			<data auto_broadcast="numpy" />
			<input>
				<port id="0" precision="FP32">
					<dim>1</dim>
					<dim>16</dim>
					<dim>1</dim>
					<dim>1</dim>
					<dim>1</dim>
				</port>
				<port id="1" precision="FP32">
					<dim>1</dim>
					<dim>16</dim>
					<dim>33</dim>
					<dim>9</dim>
					<dim>8</dim>
				</port>
			</input>
			<output>
				<port id="2" precision="FP32" names="complex_batch_normalization_9/mul_24:0">
					<dim>1</dim>
					<dim>16</dim>
					<dim>33</dim>
					<dim>9</dim>
					<dim>8</dim>
				</port>
			</output>
		</layer>
		<layer id="228" name="complex_batch_normalization_9/add_13" type="Add" version="opset1">
			<data auto_broadcast="numpy" />
			<input>
				<port id="0" precision="FP32">
					<dim>1</dim>
					<dim>16</dim>
					<dim>33</dim>
					<dim>9</dim>
					<dim>8</dim>
				</port>
				<port id="1" precision="FP32">
					<dim>1</dim>
					<dim>16</dim>
					<dim>33</dim>
					<dim>9</dim>
					<dim>8</dim>
				</port>
			</input>
			<output>
				<port id="2" precision="FP32" names="complex_batch_normalization_9/add_13:0">
					<dim>1</dim>
					<dim>16</dim>
					<dim>33</dim>
					<dim>9</dim>
					<dim>8</dim>
				</port>
			</output>
		</layer>
		<layer id="229" name="complex_batch_normalization_9/mul_25" type="Multiply" version="opset1">
			<data auto_broadcast="numpy" />
			<input>
				<port id="0" precision="FP32">
					<dim>1</dim>
					<dim>16</dim>
					<dim>1</dim>
					<dim>1</dim>
					<dim>1</dim>
				</port>
				<port id="1" precision="FP32">
					<dim>1</dim>
					<dim>16</dim>
					<dim>33</dim>
					<dim>9</dim>
					<dim>8</dim>
				</port>
			</input>
			<output>
				<port id="2" precision="FP32" names="complex_batch_normalization_9/mul_25:0">
					<dim>1</dim>
					<dim>16</dim>
					<dim>33</dim>
					<dim>9</dim>
					<dim>8</dim>
				</port>
			</output>
		</layer>
		<layer id="230" name="complex_batch_normalization_9/mul_26/TransposeNHWCtoNCHW" type="Const" version="opset1">
			<data element_type="f32" shape="1, 16, 1, 1, 1" offset="371776" size="64" />
			<output>
				<port id="0" precision="FP32" names="complex_batch_normalization_9/concat_10:0">
					<dim>1</dim>
					<dim>16</dim>
					<dim>1</dim>
					<dim>1</dim>
					<dim>1</dim>
				</port>
			</output>
		</layer>
		<layer id="231" name="5350780306" type="Const" version="opset1">
			<data element_type="i64" shape="" offset="10984" size="8" />
			<output>
				<port id="0" precision="I64" />
			</output>
		</layer>
		<layer id="232" name="3178381296" type="Const" version="opset1">
			<data element_type="i64" shape="2" offset="89520" size="16" />
			<output>
				<port id="0" precision="I64">
					<dim>2</dim>
				</port>
			</output>
		</layer>
		<layer id="233" name="complex_batch_normalization_9/strided_slice_14/Split" type="VariadicSplit" version="opset1">
			<input>
				<port id="0" precision="FP32">
					<dim>1</dim>
					<dim>16</dim>
					<dim>33</dim>
					<dim>9</dim>
					<dim>8</dim>
				</port>
				<port id="1" precision="I64" />
				<port id="2" precision="I64">
					<dim>2</dim>
				</port>
			</input>
			<output>
				<port id="3" precision="FP32" names="complex_batch_normalization_9/strided_slice_14:0">
					<dim>1</dim>
					<dim>8</dim>
					<dim>33</dim>
					<dim>9</dim>
					<dim>8</dim>
				</port>
				<port id="4" precision="FP32" names="complex_batch_normalization_9/strided_slice_15:0">
					<dim>1</dim>
					<dim>8</dim>
					<dim>33</dim>
					<dim>9</dim>
					<dim>8</dim>
				</port>
			</output>
		</layer>
		<layer id="234" name="complex_batch_normalization_9/concat_11" type="Concat" version="opset1">
			<data axis="1" />
			<input>
				<port id="0" precision="FP32">
					<dim>1</dim>
					<dim>8</dim>
					<dim>33</dim>
					<dim>9</dim>
					<dim>8</dim>
				</port>
				<port id="1" precision="FP32">
					<dim>1</dim>
					<dim>8</dim>
					<dim>33</dim>
					<dim>9</dim>
					<dim>8</dim>
				</port>
			</input>
			<output>
				<port id="2" precision="FP32" names="complex_batch_normalization_9/concat_11:0">
					<dim>1</dim>
					<dim>16</dim>
					<dim>33</dim>
					<dim>9</dim>
					<dim>8</dim>
				</port>
			</output>
		</layer>
		<layer id="235" name="complex_batch_normalization_9/mul_26" type="Multiply" version="opset1">
			<data auto_broadcast="numpy" />
			<input>
				<port id="0" precision="FP32">
					<dim>1</dim>
					<dim>16</dim>
					<dim>1</dim>
					<dim>1</dim>
					<dim>1</dim>
				</port>
				<port id="1" precision="FP32">
					<dim>1</dim>
					<dim>16</dim>
					<dim>33</dim>
					<dim>9</dim>
					<dim>8</dim>
				</port>
			</input>
			<output>
				<port id="2" precision="FP32" names="complex_batch_normalization_9/mul_26:0">
					<dim>1</dim>
					<dim>16</dim>
					<dim>33</dim>
					<dim>9</dim>
					<dim>8</dim>
				</port>
			</output>
		</layer>
		<layer id="236" name="complex_batch_normalization_9/add_14" type="Add" version="opset1">
			<data auto_broadcast="numpy" />
			<input>
				<port id="0" precision="FP32">
					<dim>1</dim>
					<dim>16</dim>
					<dim>33</dim>
					<dim>9</dim>
					<dim>8</dim>
				</port>
				<port id="1" precision="FP32">
					<dim>1</dim>
					<dim>16</dim>
					<dim>33</dim>
					<dim>9</dim>
					<dim>8</dim>
				</port>
			</input>
			<output>
				<port id="2" precision="FP32" names="complex_batch_normalization_9/add_14:0">
					<dim>1</dim>
					<dim>16</dim>
					<dim>33</dim>
					<dim>9</dim>
					<dim>8</dim>
				</port>
			</output>
		</layer>
		<layer id="237" name="complex_batch_normalization_9/add_15/TransposeNHWCtoNCHW" type="Const" version="opset1">
			<data element_type="f32" shape="1, 16, 1, 1, 1" offset="371840" size="64" />
			<output>
				<port id="0" precision="FP32" names="complex_batch_normalization_9/Reshape_15:0">
					<dim>1</dim>
					<dim>16</dim>
					<dim>1</dim>
					<dim>1</dim>
					<dim>1</dim>
				</port>
			</output>
		</layer>
		<layer id="238" name="complex_batch_normalization_9/add_15" type="Add" version="opset1">
			<data auto_broadcast="numpy" />
			<input>
				<port id="0" precision="FP32">
					<dim>1</dim>
					<dim>16</dim>
					<dim>33</dim>
					<dim>9</dim>
					<dim>8</dim>
				</port>
				<port id="1" precision="FP32">
					<dim>1</dim>
					<dim>16</dim>
					<dim>1</dim>
					<dim>1</dim>
					<dim>1</dim>
				</port>
			</input>
			<output>
				<port id="2" precision="FP32" names="complex_batch_normalization_9/add_15:0">
					<dim>1</dim>
					<dim>16</dim>
					<dim>33</dim>
					<dim>9</dim>
					<dim>8</dim>
				</port>
			</output>
		</layer>
		<layer id="239" name="activation_9/Relu" type="ReLU" version="opset1">
			<input>
				<port id="0" precision="FP32">
					<dim>1</dim>
					<dim>16</dim>
					<dim>33</dim>
					<dim>9</dim>
					<dim>8</dim>
				</port>
			</input>
			<output>
				<port id="1" precision="FP32" names="activation_9/Relu:0">
					<dim>1</dim>
					<dim>16</dim>
					<dim>33</dim>
					<dim>9</dim>
					<dim>8</dim>
				</port>
			</output>
		</layer>
		<layer id="240" name="complex_conv3d_10/concat_2" type="Const" version="opset1">
			<data element_type="f32" shape="36, 16, 9, 3, 1" offset="371904" size="62208" />
			<output>
				<port id="0" precision="FP32" names="complex_conv3d_10/concat_2:0">
					<dim>36</dim>
					<dim>16</dim>
					<dim>9</dim>
					<dim>3</dim>
					<dim>1</dim>
				</port>
			</output>
		</layer>
		<layer id="241" name="complex_conv3d_10/convolution" type="Convolution" version="opset1">
			<data strides="1, 1, 1" dilations="1, 1, 1" pads_begin="0, 0, 0" pads_end="0, 0, 0" auto_pad="same_upper" />
			<input>
				<port id="0" precision="FP32">
					<dim>1</dim>
					<dim>16</dim>
					<dim>33</dim>
					<dim>9</dim>
					<dim>8</dim>
				</port>
				<port id="1" precision="FP32">
					<dim>36</dim>
					<dim>16</dim>
					<dim>9</dim>
					<dim>3</dim>
					<dim>1</dim>
				</port>
			</input>
			<output>
				<port id="2" precision="FP32" names="complex_conv3d_10/convolution:0">
					<dim>1</dim>
					<dim>36</dim>
					<dim>33</dim>
					<dim>9</dim>
					<dim>8</dim>
				</port>
			</output>
		</layer>
		<layer id="242" name="data_add_406914069380750" type="Const" version="opset1">
			<data element_type="f32" shape="1, 36, 1, 1, 1" offset="434112" size="144" />
			<output>
				<port id="0" precision="FP32">
					<dim>1</dim>
					<dim>36</dim>
					<dim>1</dim>
					<dim>1</dim>
					<dim>1</dim>
				</port>
			</output>
		</layer>
		<layer id="243" name="complex_conv3d_10/add_1/Fused_Add_" type="Add" version="opset1">
			<data auto_broadcast="numpy" />
			<input>
				<port id="0" precision="FP32">
					<dim>1</dim>
					<dim>36</dim>
					<dim>33</dim>
					<dim>9</dim>
					<dim>8</dim>
				</port>
				<port id="1" precision="FP32">
					<dim>1</dim>
					<dim>36</dim>
					<dim>1</dim>
					<dim>1</dim>
					<dim>1</dim>
				</port>
			</input>
			<output>
				<port id="2" precision="FP32" names="complex_batch_normalization_10/sub_2:0">
					<dim>1</dim>
					<dim>36</dim>
					<dim>33</dim>
					<dim>9</dim>
					<dim>8</dim>
				</port>
			</output>
		</layer>
		<layer id="244" name="complex_batch_normalization_10/mul_23" type="Multiply" version="opset1">
			<data auto_broadcast="numpy" />
			<input>
				<port id="0" precision="FP32">
					<dim>1</dim>
					<dim>36</dim>
					<dim>1</dim>
					<dim>1</dim>
					<dim>1</dim>
				</port>
				<port id="1" precision="FP32">
					<dim>1</dim>
					<dim>36</dim>
					<dim>33</dim>
					<dim>9</dim>
					<dim>8</dim>
				</port>
			</input>
			<output>
				<port id="2" precision="FP32" names="complex_batch_normalization_10/mul_23:0">
					<dim>1</dim>
					<dim>36</dim>
					<dim>33</dim>
					<dim>9</dim>
					<dim>8</dim>
				</port>
			</output>
		</layer>
		<layer id="245" name="complex_batch_normalization_10/mul_24/TransposeNHWCtoNCHW" type="Const" version="opset1">
			<data element_type="f32" shape="1, 36, 1, 1, 1" offset="434256" size="144" />
			<output>
				<port id="0" precision="FP32" names="complex_batch_normalization_10/concat_7:0">
					<dim>1</dim>
					<dim>36</dim>
					<dim>1</dim>
					<dim>1</dim>
					<dim>1</dim>
				</port>
			</output>
		</layer>
		<layer id="246" name="5351380120" type="Const" version="opset1">
			<data element_type="i64" shape="" offset="10984" size="8" />
			<output>
				<port id="0" precision="I64" />
			</output>
		</layer>
		<layer id="247" name="3178881146" type="Const" version="opset1">
			<data element_type="i64" shape="2" offset="10992" size="16" />
			<output>
				<port id="0" precision="I64">
					<dim>2</dim>
				</port>
			</output>
		</layer>
		<layer id="248" name="complex_batch_normalization_10/strided_slice_12/Split" type="VariadicSplit" version="opset1">
			<input>
				<port id="0" precision="FP32">
					<dim>1</dim>
					<dim>36</dim>
					<dim>33</dim>
					<dim>9</dim>
					<dim>8</dim>
				</port>
				<port id="1" precision="I64" />
				<port id="2" precision="I64">
					<dim>2</dim>
				</port>
			</input>
			<output>
				<port id="3" precision="FP32" names="complex_batch_normalization_10/strided_slice_12:0">
					<dim>1</dim>
					<dim>18</dim>
					<dim>33</dim>
					<dim>9</dim>
					<dim>8</dim>
				</port>
				<port id="4" precision="FP32" names="complex_batch_normalization_10/strided_slice_13:0">
					<dim>1</dim>
					<dim>18</dim>
					<dim>33</dim>
					<dim>9</dim>
					<dim>8</dim>
				</port>
			</output>
		</layer>
		<layer id="249" name="complex_batch_normalization_10/concat_8" type="Concat" version="opset1">
			<data axis="1" />
			<input>
				<port id="0" precision="FP32">
					<dim>1</dim>
					<dim>18</dim>
					<dim>33</dim>
					<dim>9</dim>
					<dim>8</dim>
				</port>
				<port id="1" precision="FP32">
					<dim>1</dim>
					<dim>18</dim>
					<dim>33</dim>
					<dim>9</dim>
					<dim>8</dim>
				</port>
			</input>
			<output>
				<port id="2" precision="FP32" names="complex_batch_normalization_10/concat_8:0">
					<dim>1</dim>
					<dim>36</dim>
					<dim>33</dim>
					<dim>9</dim>
					<dim>8</dim>
				</port>
			</output>
		</layer>
		<layer id="250" name="complex_batch_normalization_10/mul_24" type="Multiply" version="opset1">
			<data auto_broadcast="numpy" />
			<input>
				<port id="0" precision="FP32">
					<dim>1</dim>
					<dim>36</dim>
					<dim>1</dim>
					<dim>1</dim>
					<dim>1</dim>
				</port>
				<port id="1" precision="FP32">
					<dim>1</dim>
					<dim>36</dim>
					<dim>33</dim>
					<dim>9</dim>
					<dim>8</dim>
				</port>
			</input>
			<output>
				<port id="2" precision="FP32" names="complex_batch_normalization_10/mul_24:0">
					<dim>1</dim>
					<dim>36</dim>
					<dim>33</dim>
					<dim>9</dim>
					<dim>8</dim>
				</port>
			</output>
		</layer>
		<layer id="251" name="complex_batch_normalization_10/add_13" type="Add" version="opset1">
			<data auto_broadcast="numpy" />
			<input>
				<port id="0" precision="FP32">
					<dim>1</dim>
					<dim>36</dim>
					<dim>33</dim>
					<dim>9</dim>
					<dim>8</dim>
				</port>
				<port id="1" precision="FP32">
					<dim>1</dim>
					<dim>36</dim>
					<dim>33</dim>
					<dim>9</dim>
					<dim>8</dim>
				</port>
			</input>
			<output>
				<port id="2" precision="FP32" names="complex_batch_normalization_10/add_13:0">
					<dim>1</dim>
					<dim>36</dim>
					<dim>33</dim>
					<dim>9</dim>
					<dim>8</dim>
				</port>
			</output>
		</layer>
		<layer id="252" name="complex_batch_normalization_10/mul_25" type="Multiply" version="opset1">
			<data auto_broadcast="numpy" />
			<input>
				<port id="0" precision="FP32">
					<dim>1</dim>
					<dim>36</dim>
					<dim>1</dim>
					<dim>1</dim>
					<dim>1</dim>
				</port>
				<port id="1" precision="FP32">
					<dim>1</dim>
					<dim>36</dim>
					<dim>33</dim>
					<dim>9</dim>
					<dim>8</dim>
				</port>
			</input>
			<output>
				<port id="2" precision="FP32" names="complex_batch_normalization_10/mul_25:0">
					<dim>1</dim>
					<dim>36</dim>
					<dim>33</dim>
					<dim>9</dim>
					<dim>8</dim>
				</port>
			</output>
		</layer>
		<layer id="253" name="complex_batch_normalization_10/mul_26/TransposeNHWCtoNCHW" type="Const" version="opset1">
			<data element_type="f32" shape="1, 36, 1, 1, 1" offset="434400" size="144" />
			<output>
				<port id="0" precision="FP32" names="complex_batch_normalization_10/concat_10:0">
					<dim>1</dim>
					<dim>36</dim>
					<dim>1</dim>
					<dim>1</dim>
					<dim>1</dim>
				</port>
			</output>
		</layer>
		<layer id="254" name="5351980291" type="Const" version="opset1">
			<data element_type="i64" shape="" offset="10984" size="8" />
			<output>
				<port id="0" precision="I64" />
			</output>
		</layer>
		<layer id="255" name="3179380801" type="Const" version="opset1">
			<data element_type="i64" shape="2" offset="10992" size="16" />
			<output>
				<port id="0" precision="I64">
					<dim>2</dim>
				</port>
			</output>
		</layer>
		<layer id="256" name="complex_batch_normalization_10/strided_slice_14/Split" type="VariadicSplit" version="opset1">
			<input>
				<port id="0" precision="FP32">
					<dim>1</dim>
					<dim>36</dim>
					<dim>33</dim>
					<dim>9</dim>
					<dim>8</dim>
				</port>
				<port id="1" precision="I64" />
				<port id="2" precision="I64">
					<dim>2</dim>
				</port>
			</input>
			<output>
				<port id="3" precision="FP32" names="complex_batch_normalization_10/strided_slice_14:0">
					<dim>1</dim>
					<dim>18</dim>
					<dim>33</dim>
					<dim>9</dim>
					<dim>8</dim>
				</port>
				<port id="4" precision="FP32" names="complex_batch_normalization_10/strided_slice_15:0">
					<dim>1</dim>
					<dim>18</dim>
					<dim>33</dim>
					<dim>9</dim>
					<dim>8</dim>
				</port>
			</output>
		</layer>
		<layer id="257" name="complex_batch_normalization_10/concat_11" type="Concat" version="opset1">
			<data axis="1" />
			<input>
				<port id="0" precision="FP32">
					<dim>1</dim>
					<dim>18</dim>
					<dim>33</dim>
					<dim>9</dim>
					<dim>8</dim>
				</port>
				<port id="1" precision="FP32">
					<dim>1</dim>
					<dim>18</dim>
					<dim>33</dim>
					<dim>9</dim>
					<dim>8</dim>
				</port>
			</input>
			<output>
				<port id="2" precision="FP32" names="complex_batch_normalization_10/concat_11:0">
					<dim>1</dim>
					<dim>36</dim>
					<dim>33</dim>
					<dim>9</dim>
					<dim>8</dim>
				</port>
			</output>
		</layer>
		<layer id="258" name="complex_batch_normalization_10/mul_26" type="Multiply" version="opset1">
			<data auto_broadcast="numpy" />
			<input>
				<port id="0" precision="FP32">
					<dim>1</dim>
					<dim>36</dim>
					<dim>1</dim>
					<dim>1</dim>
					<dim>1</dim>
				</port>
				<port id="1" precision="FP32">
					<dim>1</dim>
					<dim>36</dim>
					<dim>33</dim>
					<dim>9</dim>
					<dim>8</dim>
				</port>
			</input>
			<output>
				<port id="2" precision="FP32" names="complex_batch_normalization_10/mul_26:0">
					<dim>1</dim>
					<dim>36</dim>
					<dim>33</dim>
					<dim>9</dim>
					<dim>8</dim>
				</port>
			</output>
		</layer>
		<layer id="259" name="complex_batch_normalization_10/add_14" type="Add" version="opset1">
			<data auto_broadcast="numpy" />
			<input>
				<port id="0" precision="FP32">
					<dim>1</dim>
					<dim>36</dim>
					<dim>33</dim>
					<dim>9</dim>
					<dim>8</dim>
				</port>
				<port id="1" precision="FP32">
					<dim>1</dim>
					<dim>36</dim>
					<dim>33</dim>
					<dim>9</dim>
					<dim>8</dim>
				</port>
			</input>
			<output>
				<port id="2" precision="FP32" names="complex_batch_normalization_10/add_14:0">
					<dim>1</dim>
					<dim>36</dim>
					<dim>33</dim>
					<dim>9</dim>
					<dim>8</dim>
				</port>
			</output>
		</layer>
		<layer id="260" name="complex_batch_normalization_10/add_15/TransposeNHWCtoNCHW" type="Const" version="opset1">
			<data element_type="f32" shape="1, 36, 1, 1, 1" offset="434544" size="144" />
			<output>
				<port id="0" precision="FP32" names="complex_batch_normalization_10/Reshape_15:0">
					<dim>1</dim>
					<dim>36</dim>
					<dim>1</dim>
					<dim>1</dim>
					<dim>1</dim>
				</port>
			</output>
		</layer>
		<layer id="261" name="complex_batch_normalization_10/add_15" type="Add" version="opset1">
			<data auto_broadcast="numpy" />
			<input>
				<port id="0" precision="FP32">
					<dim>1</dim>
					<dim>36</dim>
					<dim>33</dim>
					<dim>9</dim>
					<dim>8</dim>
				</port>
				<port id="1" precision="FP32">
					<dim>1</dim>
					<dim>36</dim>
					<dim>1</dim>
					<dim>1</dim>
					<dim>1</dim>
				</port>
			</input>
			<output>
				<port id="2" precision="FP32" names="complex_batch_normalization_10/add_15:0">
					<dim>1</dim>
					<dim>36</dim>
					<dim>33</dim>
					<dim>9</dim>
					<dim>8</dim>
				</port>
			</output>
		</layer>
		<layer id="262" name="activation_10/Relu" type="ReLU" version="opset1">
			<input>
				<port id="0" precision="FP32">
					<dim>1</dim>
					<dim>36</dim>
					<dim>33</dim>
					<dim>9</dim>
					<dim>8</dim>
				</port>
			</input>
			<output>
				<port id="1" precision="FP32" names="activation_10/Relu:0">
					<dim>1</dim>
					<dim>36</dim>
					<dim>33</dim>
					<dim>9</dim>
					<dim>8</dim>
				</port>
			</output>
		</layer>
		<layer id="263" name="complex_conv3d_11/concat_2" type="Const" version="opset1">
			<data element_type="f32" shape="20, 36, 5, 3, 1" offset="434688" size="43200" />
			<output>
				<port id="0" precision="FP32" names="complex_conv3d_11/concat_2:0">
					<dim>20</dim>
					<dim>36</dim>
					<dim>5</dim>
					<dim>3</dim>
					<dim>1</dim>
				</port>
			</output>
		</layer>
		<layer id="264" name="complex_conv3d_11/convolution" type="Convolution" version="opset1">
			<data strides="1, 1, 1" dilations="1, 1, 1" pads_begin="0, 0, 0" pads_end="0, 0, 0" auto_pad="same_upper" />
			<input>
				<port id="0" precision="FP32">
					<dim>1</dim>
					<dim>36</dim>
					<dim>33</dim>
					<dim>9</dim>
					<dim>8</dim>
				</port>
				<port id="1" precision="FP32">
					<dim>20</dim>
					<dim>36</dim>
					<dim>5</dim>
					<dim>3</dim>
					<dim>1</dim>
				</port>
			</input>
			<output>
				<port id="2" precision="FP32" names="complex_conv3d_11/convolution:0">
					<dim>1</dim>
					<dim>20</dim>
					<dim>33</dim>
					<dim>9</dim>
					<dim>8</dim>
				</port>
			</output>
		</layer>
		<layer id="265" name="data_add_406954069781881" type="Const" version="opset1">
			<data element_type="f32" shape="1, 20, 1, 1, 1" offset="477888" size="80" />
			<output>
				<port id="0" precision="FP32">
					<dim>1</dim>
					<dim>20</dim>
					<dim>1</dim>
					<dim>1</dim>
					<dim>1</dim>
				</port>
			</output>
		</layer>
		<layer id="266" name="complex_conv3d_11/add_1/Fused_Add_" type="Add" version="opset1">
			<data auto_broadcast="numpy" />
			<input>
				<port id="0" precision="FP32">
					<dim>1</dim>
					<dim>20</dim>
					<dim>33</dim>
					<dim>9</dim>
					<dim>8</dim>
				</port>
				<port id="1" precision="FP32">
					<dim>1</dim>
					<dim>20</dim>
					<dim>1</dim>
					<dim>1</dim>
					<dim>1</dim>
				</port>
			</input>
			<output>
				<port id="2" precision="FP32" names="complex_batch_normalization_11/sub_2:0">
					<dim>1</dim>
					<dim>20</dim>
					<dim>33</dim>
					<dim>9</dim>
					<dim>8</dim>
				</port>
			</output>
		</layer>
		<layer id="267" name="complex_batch_normalization_11/mul_23" type="Multiply" version="opset1">
			<data auto_broadcast="numpy" />
			<input>
				<port id="0" precision="FP32">
					<dim>1</dim>
					<dim>20</dim>
					<dim>1</dim>
					<dim>1</dim>
					<dim>1</dim>
				</port>
				<port id="1" precision="FP32">
					<dim>1</dim>
					<dim>20</dim>
					<dim>33</dim>
					<dim>9</dim>
					<dim>8</dim>
				</port>
			</input>
			<output>
				<port id="2" precision="FP32" names="complex_batch_normalization_11/mul_23:0">
					<dim>1</dim>
					<dim>20</dim>
					<dim>33</dim>
					<dim>9</dim>
					<dim>8</dim>
				</port>
			</output>
		</layer>
		<layer id="268" name="complex_batch_normalization_11/mul_24/TransposeNHWCtoNCHW" type="Const" version="opset1">
			<data element_type="f32" shape="1, 20, 1, 1, 1" offset="477968" size="80" />
			<output>
				<port id="0" precision="FP32" names="complex_batch_normalization_11/concat_7:0">
					<dim>1</dim>
					<dim>20</dim>
					<dim>1</dim>
					<dim>1</dim>
					<dim>1</dim>
				</port>
			</output>
		</layer>
		<layer id="269" name="5352581197" type="Const" version="opset1">
			<data element_type="i64" shape="" offset="10984" size="8" />
			<output>
				<port id="0" precision="I64" />
			</output>
		</layer>
		<layer id="270" name="3179882577" type="Const" version="opset1">
			<data element_type="i64" shape="2" offset="54656" size="16" />
			<output>
				<port id="0" precision="I64">
					<dim>2</dim>
				</port>
			</output>
		</layer>
		<layer id="271" name="complex_batch_normalization_11/strided_slice_12/Split" type="VariadicSplit" version="opset1">
			<input>
				<port id="0" precision="FP32">
					<dim>1</dim>
					<dim>20</dim>
					<dim>33</dim>
					<dim>9</dim>
					<dim>8</dim>
				</port>
				<port id="1" precision="I64" />
				<port id="2" precision="I64">
					<dim>2</dim>
				</port>
			</input>
			<output>
				<port id="3" precision="FP32" names="complex_batch_normalization_11/strided_slice_12:0">
					<dim>1</dim>
					<dim>10</dim>
					<dim>33</dim>
					<dim>9</dim>
					<dim>8</dim>
				</port>
				<port id="4" precision="FP32" names="complex_batch_normalization_11/strided_slice_13:0">
					<dim>1</dim>
					<dim>10</dim>
					<dim>33</dim>
					<dim>9</dim>
					<dim>8</dim>
				</port>
			</output>
		</layer>
		<layer id="272" name="complex_batch_normalization_11/concat_8" type="Concat" version="opset1">
			<data axis="1" />
			<input>
				<port id="0" precision="FP32">
					<dim>1</dim>
					<dim>10</dim>
					<dim>33</dim>
					<dim>9</dim>
					<dim>8</dim>
				</port>
				<port id="1" precision="FP32">
					<dim>1</dim>
					<dim>10</dim>
					<dim>33</dim>
					<dim>9</dim>
					<dim>8</dim>
				</port>
			</input>
			<output>
				<port id="2" precision="FP32" names="complex_batch_normalization_11/concat_8:0">
					<dim>1</dim>
					<dim>20</dim>
					<dim>33</dim>
					<dim>9</dim>
					<dim>8</dim>
				</port>
			</output>
		</layer>
		<layer id="273" name="complex_batch_normalization_11/mul_24" type="Multiply" version="opset1">
			<data auto_broadcast="numpy" />
			<input>
				<port id="0" precision="FP32">
					<dim>1</dim>
					<dim>20</dim>
					<dim>1</dim>
					<dim>1</dim>
					<dim>1</dim>
				</port>
				<port id="1" precision="FP32">
					<dim>1</dim>
					<dim>20</dim>
					<dim>33</dim>
					<dim>9</dim>
					<dim>8</dim>
				</port>
			</input>
			<output>
				<port id="2" precision="FP32" names="complex_batch_normalization_11/mul_24:0">
					<dim>1</dim>
					<dim>20</dim>
					<dim>33</dim>
					<dim>9</dim>
					<dim>8</dim>
				</port>
			</output>
		</layer>
		<layer id="274" name="complex_batch_normalization_11/add_13" type="Add" version="opset1">
			<data auto_broadcast="numpy" />
			<input>
				<port id="0" precision="FP32">
					<dim>1</dim>
					<dim>20</dim>
					<dim>33</dim>
					<dim>9</dim>
					<dim>8</dim>
				</port>
				<port id="1" precision="FP32">
					<dim>1</dim>
					<dim>20</dim>
					<dim>33</dim>
					<dim>9</dim>
					<dim>8</dim>
				</port>
			</input>
			<output>
				<port id="2" precision="FP32" names="complex_batch_normalization_11/add_13:0">
					<dim>1</dim>
					<dim>20</dim>
					<dim>33</dim>
					<dim>9</dim>
					<dim>8</dim>
				</port>
			</output>
		</layer>
		<layer id="275" name="complex_batch_normalization_11/mul_25" type="Multiply" version="opset1">
			<data auto_broadcast="numpy" />
			<input>
				<port id="0" precision="FP32">
					<dim>1</dim>
					<dim>20</dim>
					<dim>1</dim>
					<dim>1</dim>
					<dim>1</dim>
				</port>
				<port id="1" precision="FP32">
					<dim>1</dim>
					<dim>20</dim>
					<dim>33</dim>
					<dim>9</dim>
					<dim>8</dim>
				</port>
			</input>
			<output>
				<port id="2" precision="FP32" names="complex_batch_normalization_11/mul_25:0">
					<dim>1</dim>
					<dim>20</dim>
					<dim>33</dim>
					<dim>9</dim>
					<dim>8</dim>
				</port>
			</output>
		</layer>
		<layer id="276" name="complex_batch_normalization_11/mul_26/TransposeNHWCtoNCHW" type="Const" version="opset1">
			<data element_type="f32" shape="1, 20, 1, 1, 1" offset="478048" size="80" />
			<output>
				<port id="0" precision="FP32" names="complex_batch_normalization_11/concat_10:0">
					<dim>1</dim>
					<dim>20</dim>
					<dim>1</dim>
					<dim>1</dim>
					<dim>1</dim>
				</port>
			</output>
		</layer>
		<layer id="277" name="5353180996" type="Const" version="opset1">
			<data element_type="i64" shape="" offset="10984" size="8" />
			<output>
				<port id="0" precision="I64" />
			</output>
		</layer>
		<layer id="278" name="3180381164" type="Const" version="opset1">
			<data element_type="i64" shape="2" offset="54656" size="16" />
			<output>
				<port id="0" precision="I64">
					<dim>2</dim>
				</port>
			</output>
		</layer>
		<layer id="279" name="complex_batch_normalization_11/strided_slice_14/Split" type="VariadicSplit" version="opset1">
			<input>
				<port id="0" precision="FP32">
					<dim>1</dim>
					<dim>20</dim>
					<dim>33</dim>
					<dim>9</dim>
					<dim>8</dim>
				</port>
				<port id="1" precision="I64" />
				<port id="2" precision="I64">
					<dim>2</dim>
				</port>
			</input>
			<output>
				<port id="3" precision="FP32" names="complex_batch_normalization_11/strided_slice_14:0">
					<dim>1</dim>
					<dim>10</dim>
					<dim>33</dim>
					<dim>9</dim>
					<dim>8</dim>
				</port>
				<port id="4" precision="FP32" names="complex_batch_normalization_11/strided_slice_15:0">
					<dim>1</dim>
					<dim>10</dim>
					<dim>33</dim>
					<dim>9</dim>
					<dim>8</dim>
				</port>
			</output>
		</layer>
		<layer id="280" name="complex_batch_normalization_11/concat_11" type="Concat" version="opset1">
			<data axis="1" />
			<input>
				<port id="0" precision="FP32">
					<dim>1</dim>
					<dim>10</dim>
					<dim>33</dim>
					<dim>9</dim>
					<dim>8</dim>
				</port>
				<port id="1" precision="FP32">
					<dim>1</dim>
					<dim>10</dim>
					<dim>33</dim>
					<dim>9</dim>
					<dim>8</dim>
				</port>
			</input>
			<output>
				<port id="2" precision="FP32" names="complex_batch_normalization_11/concat_11:0">
					<dim>1</dim>
					<dim>20</dim>
					<dim>33</dim>
					<dim>9</dim>
					<dim>8</dim>
				</port>
			</output>
		</layer>
		<layer id="281" name="complex_batch_normalization_11/mul_26" type="Multiply" version="opset1">
			<data auto_broadcast="numpy" />
			<input>
				<port id="0" precision="FP32">
					<dim>1</dim>
					<dim>20</dim>
					<dim>1</dim>
					<dim>1</dim>
					<dim>1</dim>
				</port>
				<port id="1" precision="FP32">
					<dim>1</dim>
					<dim>20</dim>
					<dim>33</dim>
					<dim>9</dim>
					<dim>8</dim>
				</port>
			</input>
			<output>
				<port id="2" precision="FP32" names="complex_batch_normalization_11/mul_26:0">
					<dim>1</dim>
					<dim>20</dim>
					<dim>33</dim>
					<dim>9</dim>
					<dim>8</dim>
				</port>
			</output>
		</layer>
		<layer id="282" name="complex_batch_normalization_11/add_14" type="Add" version="opset1">
			<data auto_broadcast="numpy" />
			<input>
				<port id="0" precision="FP32">
					<dim>1</dim>
					<dim>20</dim>
					<dim>33</dim>
					<dim>9</dim>
					<dim>8</dim>
				</port>
				<port id="1" precision="FP32">
					<dim>1</dim>
					<dim>20</dim>
					<dim>33</dim>
					<dim>9</dim>
					<dim>8</dim>
				</port>
			</input>
			<output>
				<port id="2" precision="FP32" names="complex_batch_normalization_11/add_14:0">
					<dim>1</dim>
					<dim>20</dim>
					<dim>33</dim>
					<dim>9</dim>
					<dim>8</dim>
				</port>
			</output>
		</layer>
		<layer id="283" name="complex_batch_normalization_11/add_15/TransposeNHWCtoNCHW" type="Const" version="opset1">
			<data element_type="f32" shape="1, 20, 1, 1, 1" offset="478128" size="80" />
			<output>
				<port id="0" precision="FP32" names="complex_batch_normalization_11/Reshape_15:0">
					<dim>1</dim>
					<dim>20</dim>
					<dim>1</dim>
					<dim>1</dim>
					<dim>1</dim>
				</port>
			</output>
		</layer>
		<layer id="284" name="complex_batch_normalization_11/add_15" type="Add" version="opset1">
			<data auto_broadcast="numpy" />
			<input>
				<port id="0" precision="FP32">
					<dim>1</dim>
					<dim>20</dim>
					<dim>33</dim>
					<dim>9</dim>
					<dim>8</dim>
				</port>
				<port id="1" precision="FP32">
					<dim>1</dim>
					<dim>20</dim>
					<dim>1</dim>
					<dim>1</dim>
					<dim>1</dim>
				</port>
			</input>
			<output>
				<port id="2" precision="FP32" names="complex_batch_normalization_11/add_15:0">
					<dim>1</dim>
					<dim>20</dim>
					<dim>33</dim>
					<dim>9</dim>
					<dim>8</dim>
				</port>
			</output>
		</layer>
		<layer id="285" name="activation_11/Relu" type="ReLU" version="opset1">
			<input>
				<port id="0" precision="FP32">
					<dim>1</dim>
					<dim>20</dim>
					<dim>33</dim>
					<dim>9</dim>
					<dim>8</dim>
				</port>
			</input>
			<output>
				<port id="1" precision="FP32" names="activation_11/Relu:0">
					<dim>1</dim>
					<dim>20</dim>
					<dim>33</dim>
					<dim>9</dim>
					<dim>8</dim>
				</port>
			</output>
		</layer>
		<layer id="286" name="complex_conv3d_12/concat_2" type="Const" version="opset1">
			<data element_type="f32" shape="16, 20, 9, 3, 1" offset="478208" size="34560" />
			<output>
				<port id="0" precision="FP32" names="complex_conv3d_12/concat_2:0">
					<dim>16</dim>
					<dim>20</dim>
					<dim>9</dim>
					<dim>3</dim>
					<dim>1</dim>
				</port>
			</output>
		</layer>
		<layer id="287" name="complex_conv3d_12/convolution" type="Convolution" version="opset1">
			<data strides="1, 1, 1" dilations="1, 1, 1" pads_begin="0, 0, 0" pads_end="0, 0, 0" auto_pad="same_upper" />
			<input>
				<port id="0" precision="FP32">
					<dim>1</dim>
					<dim>20</dim>
					<dim>33</dim>
					<dim>9</dim>
					<dim>8</dim>
				</port>
				<port id="1" precision="FP32">
					<dim>16</dim>
					<dim>20</dim>
					<dim>9</dim>
					<dim>3</dim>
					<dim>1</dim>
				</port>
			</input>
			<output>
				<port id="2" precision="FP32" names="complex_conv3d_12/convolution:0">
					<dim>1</dim>
					<dim>16</dim>
					<dim>33</dim>
					<dim>9</dim>
					<dim>8</dim>
				</port>
			</output>
		</layer>
		<layer id="288" name="data_add_406994070181248" type="Const" version="opset1">
			<data element_type="f32" shape="1, 16, 1, 1, 1" offset="512768" size="64" />
			<output>
				<port id="0" precision="FP32">
					<dim>1</dim>
					<dim>16</dim>
					<dim>1</dim>
					<dim>1</dim>
					<dim>1</dim>
				</port>
			</output>
		</layer>
		<layer id="289" name="complex_conv3d_12/add_1/Fused_Add_" type="Add" version="opset1">
			<data auto_broadcast="numpy" />
			<input>
				<port id="0" precision="FP32">
					<dim>1</dim>
					<dim>16</dim>
					<dim>33</dim>
					<dim>9</dim>
					<dim>8</dim>
				</port>
				<port id="1" precision="FP32">
					<dim>1</dim>
					<dim>16</dim>
					<dim>1</dim>
					<dim>1</dim>
					<dim>1</dim>
				</port>
			</input>
			<output>
				<port id="2" precision="FP32" names="complex_batch_normalization_12/sub_2:0">
					<dim>1</dim>
					<dim>16</dim>
					<dim>33</dim>
					<dim>9</dim>
					<dim>8</dim>
				</port>
			</output>
		</layer>
		<layer id="290" name="complex_batch_normalization_12/mul_23" type="Multiply" version="opset1">
			<data auto_broadcast="numpy" />
			<input>
				<port id="0" precision="FP32">
					<dim>1</dim>
					<dim>16</dim>
					<dim>1</dim>
					<dim>1</dim>
					<dim>1</dim>
				</port>
				<port id="1" precision="FP32">
					<dim>1</dim>
					<dim>16</dim>
					<dim>33</dim>
					<dim>9</dim>
					<dim>8</dim>
				</port>
			</input>
			<output>
				<port id="2" precision="FP32" names="complex_batch_normalization_12/mul_23:0">
					<dim>1</dim>
					<dim>16</dim>
					<dim>33</dim>
					<dim>9</dim>
					<dim>8</dim>
				</port>
			</output>
		</layer>
		<layer id="291" name="complex_batch_normalization_12/mul_24/TransposeNHWCtoNCHW" type="Const" version="opset1">
			<data element_type="f32" shape="1, 16, 1, 1, 1" offset="512832" size="64" />
			<output>
				<port id="0" precision="FP32" names="complex_batch_normalization_12/concat_7:0">
					<dim>1</dim>
					<dim>16</dim>
					<dim>1</dim>
					<dim>1</dim>
					<dim>1</dim>
				</port>
			</output>
		</layer>
		<layer id="292" name="5353782031" type="Const" version="opset1">
			<data element_type="i64" shape="" offset="10984" size="8" />
			<output>
				<port id="0" precision="I64" />
			</output>
…
				<port id="4" precision="FP32" names="complex_batch_normalization_14/strided_slice_15:0">
					<dim>1</dim>
					<dim>10</dim>
					<dim>33</dim>
					<dim>9</dim>
					<dim>8</dim>
				</port>
			</output>
		</layer>
		<layer id="349" name="complex_batch_normalization_14/concat_11" type="Concat" version="opset1">
			<data axis="1" />
			<input>
				<port id="0" precision="FP32">
					<dim>1</dim>
					<dim>10</dim>
					<dim>33</dim>
					<dim>9</dim>
					<dim>8</dim>
				</port>
				<port id="1" precision="FP32">
					<dim>1</dim>
					<dim>10</dim>
					<dim>33</dim>
					<dim>9</dim>
					<dim>8</dim>
				</port>
			</input>
			<output>
				<port id="2" precision="FP32" names="complex_batch_normalization_14/concat_11:0">
					<dim>1</dim>
					<dim>20</dim>
					<dim>33</dim>
					<dim>9</dim>
					<dim>8</dim>
				</port>
			</output>
		</layer>
		<layer id="350" name="complex_batch_normalization_14/mul_26" type="Multiply" version="opset1">
			<data auto_broadcast="numpy" />
			<input>
				<port id="0" precision="FP32">
					<dim>1</dim>
					<dim>20</dim>
					<dim>1</dim>
					<dim>1</dim>
					<dim>1</dim>
				</port>
				<port id="1" precision="FP32">
					<dim>1</dim>
					<dim>20</dim>
					<dim>33</dim>
					<dim>9</dim>
					<dim>8</dim>
				</port>
			</input>
			<output>
				<port id="2" precision="FP32" names="complex_batch_normalization_14/mul_26:0">
					<dim>1</dim>
					<dim>20</dim>
					<dim>33</dim>
					<dim>9</dim>
					<dim>8</dim>
				</port>
			</output>
		</layer>
		<layer id="351" name="complex_batch_normalization_14/add_14" type="Add" version="opset1">
			<data auto_broadcast="numpy" />
			<input>
				<port id="0" precision="FP32">
					<dim>1</dim>
					<dim>20</dim>
					<dim>33</dim>
					<dim>9</dim>
					<dim>8</dim>
				</port>
				<port id="1" precision="FP32">
					<dim>1</dim>
					<dim>20</dim>
					<dim>33</dim>
					<dim>9</dim>
					<dim>8</dim>
				</port>
			</input>
			<output>
				<port id="2" precision="FP32" names="complex_batch_normalization_14/add_14:0">
					<dim>1</dim>
					<dim>20</dim>
					<dim>33</dim>
					<dim>9</dim>
					<dim>8</dim>
				</port>
			</output>
		</layer>
		<layer id="352" name="complex_batch_normalization_14/add_15/TransposeNHWCtoNCHW" type="Const" version="opset1">
			<data element_type="f32" shape="1, 20, 1, 1, 1" offset="619248" size="80" />
			<output>
				<port id="0" precision="FP32" names="complex_batch_normalization_14/Reshape_15:0">
					<dim>1</dim>
					<dim>20</dim>
					<dim>1</dim>
					<dim>1</dim>
					<dim>1</dim>
				</port>
			</output>
		</layer>
		<layer id="353" name="complex_batch_normalization_14/add_15" type="Add" version="opset1">
			<data auto_broadcast="numpy" />
			<input>
				<port id="0" precision="FP32">
					<dim>1</dim>
					<dim>20</dim>
					<dim>33</dim>
					<dim>9</dim>
					<dim>8</dim>
				</port>
				<port id="1" precision="FP32">
					<dim>1</dim>
					<dim>20</dim>
					<dim>1</dim>
					<dim>1</dim>
					<dim>1</dim>
				</port>
			</input>
			<output>
				<port id="2" precision="FP32" names="complex_batch_normalization_14/add_15:0">
					<dim>1</dim>
					<dim>20</dim>
					<dim>33</dim>
					<dim>9</dim>
					<dim>8</dim>
				</port>
			</output>
		</layer>
		<layer id="354" name="activation_14/Relu" type="ReLU" version="opset1">
			<input>
				<port id="0" precision="FP32">
					<dim>1</dim>
					<dim>20</dim>
					<dim>33</dim>
					<dim>9</dim>
					<dim>8</dim>
				</port>
			</input>
			<output>
				<port id="1" precision="FP32" names="activation_14/Relu:0">
					<dim>1</dim>
					<dim>20</dim>
					<dim>33</dim>
					<dim>9</dim>
					<dim>8</dim>
				</port>
			</output>
		</layer>
		<layer id="355" name="complex_conv3d_15/concat_2" type="Const" version="opset1">
			<data element_type="f32" shape="16, 20, 9, 3, 1" offset="619328" size="34560" />
			<output>
				<port id="0" precision="FP32" names="complex_conv3d_15/concat_2:0">
					<dim>16</dim>
					<dim>20</dim>
					<dim>9</dim>
					<dim>3</dim>
					<dim>1</dim>
				</port>
			</output>
		</layer>
		<layer id="356" name="complex_conv3d_15/convolution" type="Convolution" version="opset1">
			<data strides="1, 1, 1" dilations="1, 1, 1" pads_begin="0, 0, 0" pads_end="0, 0, 0" auto_pad="same_upper" />
			<input>
				<port id="0" precision="FP32">
					<dim>1</dim>
					<dim>20</dim>
					<dim>33</dim>
					<dim>9</dim>
					<dim>8</dim>
				</port>
				<port id="1" precision="FP32">
					<dim>16</dim>
					<dim>20</dim>
					<dim>9</dim>
					<dim>3</dim>
					<dim>1</dim>
				</port>
			</input>
			<output>
				<port id="2" precision="FP32" names="complex_conv3d_15/convolution:0">
					<dim>1</dim>
					<dim>16</dim>
					<dim>33</dim>
					<dim>9</dim>
					<dim>8</dim>
				</port>
			</output>
		</layer>
		<layer id="357" name="data_add_407114071380855" type="Const" version="opset1">
			<data element_type="f32" shape="1, 16, 1, 1, 1" offset="653888" size="64" />
			<output>
				<port id="0" precision="FP32">
					<dim>1</dim>
					<dim>16</dim>
					<dim>1</dim>
					<dim>1</dim>
					<dim>1</dim>
				</port>
			</output>
		</layer>
		<layer id="358" name="complex_conv3d_15/add_1/Fused_Add_" type="Add" version="opset1">
			<data auto_broadcast="numpy" />
			<input>
				<port id="0" precision="FP32">
					<dim>1</dim>
					<dim>16</dim>
					<dim>33</dim>
					<dim>9</dim>
					<dim>8</dim>
				</port>
				<port id="1" precision="FP32">
					<dim>1</dim>
					<dim>16</dim>
					<dim>1</dim>
					<dim>1</dim>
					<dim>1</dim>
				</port>
			</input>
			<output>
				<port id="2" precision="FP32" names="complex_batch_normalization_15/sub_2:0">
					<dim>1</dim>
					<dim>16</dim>
					<dim>33</dim>
					<dim>9</dim>
					<dim>8</dim>
				</port>
			</output>
		</layer>
		<layer id="359" name="complex_batch_normalization_15/mul_23" type="Multiply" version="opset1">
			<data auto_broadcast="numpy" />
			<input>
				<port id="0" precision="FP32">
					<dim>1</dim>
					<dim>16</dim>
					<dim>1</dim>
					<dim>1</dim>
					<dim>1</dim>
				</port>
				<port id="1" precision="FP32">
					<dim>1</dim>
					<dim>16</dim>
					<dim>33</dim>
					<dim>9</dim>
					<dim>8</dim>
				</port>
			</input>
			<output>
				<port id="2" precision="FP32" names="complex_batch_normalization_15/mul_23:0">
					<dim>1</dim>
					<dim>16</dim>
					<dim>33</dim>
					<dim>9</dim>
					<dim>8</dim>
				</port>
			</output>
		</layer>
		<layer id="360" name="complex_batch_normalization_15/mul_24/TransposeNHWCtoNCHW" type="Const" version="opset1">
			<data element_type="f32" shape="1, 16, 1, 1, 1" offset="653952" size="64" />
			<output>
				<port id="0" precision="FP32" names="complex_batch_normalization_15/concat_7:0">
					<dim>1</dim>
					<dim>16</dim>
					<dim>1</dim>
					<dim>1</dim>
					<dim>1</dim>
				</port>
			</output>
		</layer>
		<layer id="361" name="5357381350" type="Const" version="opset1">
			<data element_type="i64" shape="" offset="10984" size="8" />
			<output>
				<port id="0" precision="I64" />
			</output>
		</layer>
		<layer id="362" name="3183881971" type="Const" version="opset1">
			<data element_type="i64" shape="2" offset="89520" size="16" />
			<output>
				<port id="0" precision="I64">
					<dim>2</dim>
				</port>
			</output>
		</layer>
		<layer id="363" name="complex_batch_normalization_15/strided_slice_12/Split" type="VariadicSplit" version="opset1">
			<input>
				<port id="0" precision="FP32">
					<dim>1</dim>
					<dim>16</dim>
					<dim>33</dim>
					<dim>9</dim>
					<dim>8</dim>
				</port>
				<port id="1" precision="I64" />
				<port id="2" precision="I64">
					<dim>2</dim>
				</port>
			</input>
			<output>
				<port id="3" precision="FP32" names="complex_batch_normalization_15/strided_slice_12:0">
					<dim>1</dim>
					<dim>8</dim>
					<dim>33</dim>
					<dim>9</dim>
					<dim>8</dim>
				</port>
				<port id="4" precision="FP32" names="complex_batch_normalization_15/strided_slice_13:0">
					<dim>1</dim>
					<dim>8</dim>
					<dim>33</dim>
					<dim>9</dim>
					<dim>8</dim>
				</port>
			</output>
		</layer>
		<layer id="364" name="complex_batch_normalization_15/concat_8" type="Concat" version="opset1">
			<data axis="1" />
			<input>
				<port id="0" precision="FP32">
					<dim>1</dim>
					<dim>8</dim>
					<dim>33</dim>
					<dim>9</dim>
					<dim>8</dim>
				</port>
				<port id="1" precision="FP32">
					<dim>1</dim>
					<dim>8</dim>
					<dim>33</dim>
					<dim>9</dim>
					<dim>8</dim>
				</port>
			</input>
			<output>
				<port id="2" precision="FP32" names="complex_batch_normalization_15/concat_8:0">
					<dim>1</dim>
					<dim>16</dim>
					<dim>33</dim>
					<dim>9</dim>
					<dim>8</dim>
				</port>
			</output>
		</layer>
		<layer id="365" name="complex_batch_normalization_15/mul_24" type="Multiply" version="opset1">
			<data auto_broadcast="numpy" />
			<input>
				<port id="0" precision="FP32">
					<dim>1</dim>
					<dim>16</dim>
					<dim>1</dim>
					<dim>1</dim>
					<dim>1</dim>
				</port>
				<port id="1" precision="FP32">
					<dim>1</dim>
					<dim>16</dim>
					<dim>33</dim>
					<dim>9</dim>
					<dim>8</dim>
				</port>
			</input>
			<output>
				<port id="2" precision="FP32" names="complex_batch_normalization_15/mul_24:0">
					<dim>1</dim>
					<dim>16</dim>
					<dim>33</dim>
					<dim>9</dim>
					<dim>8</dim>
				</port>
			</output>
		</layer>
		<layer id="366" name="complex_batch_normalization_15/add_13" type="Add" version="opset1">
			<data auto_broadcast="numpy" />
			<input>
				<port id="0" precision="FP32">
					<dim>1</dim>
					<dim>16</dim>
					<dim>33</dim>
					<dim>9</dim>
					<dim>8</dim>
				</port>
				<port id="1" precision="FP32">
					<dim>1</dim>
					<dim>16</dim>
					<dim>33</dim>
					<dim>9</dim>
					<dim>8</dim>
				</port>
			</input>
			<output>
				<port id="2" precision="FP32" names="complex_batch_normalization_15/add_13:0">
					<dim>1</dim>
					<dim>16</dim>
					<dim>33</dim>
					<dim>9</dim>
					<dim>8</dim>
				</port>
			</output>
		</layer>
		<layer id="367" name="complex_batch_normalization_15/mul_25" type="Multiply" version="opset1">
			<data auto_broadcast="numpy" />
			<input>
				<port id="0" precision="FP32">
					<dim>1</dim>
					<dim>16</dim>
					<dim>1</dim>
					<dim>1</dim>
					<dim>1</dim>
				</port>
				<port id="1" precision="FP32">
					<dim>1</dim>
					<dim>16</dim>
					<dim>33</dim>
					<dim>9</dim>
					<dim>8</dim>
				</port>
			</input>
			<output>
				<port id="2" precision="FP32" names="complex_batch_normalization_15/mul_25:0">
					<dim>1</dim>
					<dim>16</dim>
					<dim>33</dim>
					<dim>9</dim>
					<dim>8</dim>
				</port>
			</output>
		</layer>
		<layer id="368" name="complex_batch_normalization_15/mul_26/TransposeNHWCtoNCHW" type="Const" version="opset1">
			<data element_type="f32" shape="1, 16, 1, 1, 1" offset="654016" size="64" />
			<output>
				<port id="0" precision="FP32" names="complex_batch_normalization_15/concat_10:0">
					<dim>1</dim>
					<dim>16</dim>
					<dim>1</dim>
					<dim>1</dim>
					<dim>1</dim>
				</port>
			</output>
		</layer>
		<layer id="369" name="5357980090" type="Const" version="opset1">
			<data element_type="i64" shape="" offset="10984" size="8" />
			<output>
				<port id="0" precision="I64" />
			</output>
		</layer>
		<layer id="370" name="3184380111" type="Const" version="opset1">
			<data element_type="i64" shape="2" offset="89520" size="16" />
			<output>
				<port id="0" precision="I64">
					<dim>2</dim>
				</port>
			</output>
		</layer>
		<layer id="371" name="complex_batch_normalization_15/strided_slice_14/Split" type="VariadicSplit" version="opset1">
			<input>
				<port id="0" precision="FP32">
					<dim>1</dim>
					<dim>16</dim>
					<dim>33</dim>
					<dim>9</dim>
					<dim>8</dim>
				</port>
				<port id="1" precision="I64" />
				<port id="2" precision="I64">
					<dim>2</dim>
				</port>
			</input>
			<output>
				<port id="3" precision="FP32" names="complex_batch_normalization_15/strided_slice_14:0">
					<dim>1</dim>
					<dim>8</dim>
					<dim>33</dim>
					<dim>9</dim>
					<dim>8</dim>
				</port>
				<port id="4" precision="FP32" names="complex_batch_normalization_15/strided_slice_15:0">
					<dim>1</dim>
					<dim>8</dim>
					<dim>33</dim>
					<dim>9</dim>
					<dim>8</dim>
				</port>
			</output>
		</layer>
		<layer id="372" name="complex_batch_normalization_15/concat_11" type="Concat" version="opset1">
			<data axis="1" />
			<input>
				<port id="0" precision="FP32">
					<dim>1</dim>
					<dim>8</dim>
					<dim>33</dim>
					<dim>9</dim>
					<dim>8</dim>
				</port>
				<port id="1" precision="FP32">
					<dim>1</dim>
					<dim>8</dim>
					<dim>33</dim>
					<dim>9</dim>
					<dim>8</dim>
				</port>
			</input>
			<output>
				<port id="2" precision="FP32" names="complex_batch_normalization_15/concat_11:0">
					<dim>1</dim>
					<dim>16</dim>
					<dim>33</dim>
					<dim>9</dim>
					<dim>8</dim>
				</port>
			</output>
		</layer>
		<layer id="373" name="complex_batch_normalization_15/mul_26" type="Multiply" version="opset1">
			<data auto_broadcast="numpy" />
			<input>
				<port id="0" precision="FP32">
					<dim>1</dim>
					<dim>16</dim>
					<dim>1</dim>
					<dim>1</dim>
					<dim>1</dim>
				</port>
				<port id="1" precision="FP32">
					<dim>1</dim>
					<dim>16</dim>
					<dim>33</dim>
					<dim>9</dim>
					<dim>8</dim>
				</port>
			</input>
			<output>
				<port id="2" precision="FP32" names="complex_batch_normalization_15/mul_26:0">
					<dim>1</dim>
					<dim>16</dim>
					<dim>33</dim>
					<dim>9</dim>
					<dim>8</dim>
				</port>
			</output>
		</layer>
		<layer id="374" name="complex_batch_normalization_15/add_14" type="Add" version="opset1">
			<data auto_broadcast="numpy" />
			<input>
				<port id="0" precision="FP32">
					<dim>1</dim>
					<dim>16</dim>
					<dim>33</dim>
					<dim>9</dim>
					<dim>8</dim>
				</port>
				<port id="1" precision="FP32">
					<dim>1</dim>
					<dim>16</dim>
					<dim>33</dim>
					<dim>9</dim>
					<dim>8</dim>
				</port>
			</input>
			<output>
				<port id="2" precision="FP32" names="complex_batch_normalization_15/add_14:0">
					<dim>1</dim>
					<dim>16</dim>
					<dim>33</dim>
					<dim>9</dim>
					<dim>8</dim>
				</port>
			</output>
		</layer>
		<layer id="375" name="complex_batch_normalization_15/add_15/TransposeNHWCtoNCHW" type="Const" version="opset1">
			<data element_type="f32" shape="1, 16, 1, 1, 1" offset="654080" size="64" />
			<output>
				<port id="0" precision="FP32" names="complex_batch_normalization_15/Reshape_15:0">
					<dim>1</dim>
					<dim>16</dim>
					<dim>1</dim>
					<dim>1</dim>
					<dim>1</dim>
				</port>
			</output>
		</layer>
		<layer id="376" name="complex_batch_normalization_15/add_15" type="Add" version="opset1">
			<data auto_broadcast="numpy" />
			<input>
				<port id="0" precision="FP32">
					<dim>1</dim>
					<dim>16</dim>
					<dim>33</dim>
					<dim>9</dim>
					<dim>8</dim>
				</port>
				<port id="1" precision="FP32">
					<dim>1</dim>
					<dim>16</dim>
					<dim>1</dim>
					<dim>1</dim>
					<dim>1</dim>
				</port>
			</input>
			<output>
				<port id="2" precision="FP32" names="complex_batch_normalization_15/add_15:0">
					<dim>1</dim>
					<dim>16</dim>
					<dim>33</dim>
					<dim>9</dim>
					<dim>8</dim>
				</port>
			</output>
		</layer>
		<layer id="377" name="activation_15/Relu" type="ReLU" version="opset1">
			<input>
				<port id="0" precision="FP32">
					<dim>1</dim>
					<dim>16</dim>
					<dim>33</dim>
					<dim>9</dim>
					<dim>8</dim>
				</port>
			</input>
			<output>
				<port id="1" precision="FP32" names="activation_15/Relu:0">
					<dim>1</dim>
					<dim>16</dim>
					<dim>33</dim>
					<dim>9</dim>
					<dim>8</dim>
				</port>
			</output>
		</layer>
		<layer id="378" name="complex_conv3d_16/concat_2" type="Const" version="opset1">
			<data element_type="f32" shape="2, 16, 3, 3, 1" offset="654144" size="1152" />
			<output>
				<port id="0" precision="FP32" names="complex_conv3d_16/concat_2:0">
					<dim>2</dim>
					<dim>16</dim>
					<dim>3</dim>
					<dim>3</dim>
					<dim>1</dim>
				</port>
			</output>
		</layer>
		<layer id="379" name="complex_conv3d_16/convolution" type="Convolution" version="opset1">
			<data strides="1, 1, 1" dilations="1, 1, 1" pads_begin="0, 0, 0" pads_end="0, 0, 0" auto_pad="same_upper" />
			<input>
				<port id="0" precision="FP32">
					<dim>1</dim>
					<dim>16</dim>
					<dim>33</dim>
					<dim>9</dim>
					<dim>8</dim>
				</port>
				<port id="1" precision="FP32">
					<dim>2</dim>
					<dim>16</dim>
					<dim>3</dim>
					<dim>3</dim>
					<dim>1</dim>
				</port>
			</input>
			<output>
				<port id="2" precision="FP32" names="complex_conv3d_16/convolution:0">
					<dim>1</dim>
					<dim>2</dim>
					<dim>33</dim>
					<dim>9</dim>
					<dim>8</dim>
				</port>
			</output>
		</layer>
		<layer id="380" name="complex_conv3d_16/Reshape" type="Const" version="opset1">
			<data element_type="f32" shape="1, 2, 1, 1, 1" offset="655296" size="8" />
			<output>
				<port id="0" precision="FP32" names="complex_conv3d_16/Reshape:0">
					<dim>1</dim>
					<dim>2</dim>
					<dim>1</dim>
					<dim>1</dim>
					<dim>1</dim>
				</port>
			</output>
		</layer>
		<layer id="381" name="complex_conv3d_16/add_1/prev" type="Add" version="opset1">
			<data auto_broadcast="numpy" />
			<input>
				<port id="0" precision="FP32">
					<dim>1</dim>
					<dim>2</dim>
					<dim>33</dim>
					<dim>9</dim>
					<dim>8</dim>
				</port>
				<port id="1" precision="FP32">
					<dim>1</dim>
					<dim>2</dim>
					<dim>1</dim>
					<dim>1</dim>
					<dim>1</dim>
				</port>
			</input>
			<output>
				<port id="2" precision="FP32">
					<dim>1</dim>
					<dim>2</dim>
					<dim>33</dim>
					<dim>9</dim>
					<dim>8</dim>
				</port>
			</output>
		</layer>
		<layer id="382" name="53332/value5333481716" type="Const" version="opset1">
			<data element_type="i64" shape="5" offset="655304" size="40" />
			<output>
				<port id="0" precision="I64">
					<dim>5</dim>
				</port>
			</output>
		</layer>
		<layer id="383" name="complex_conv3d_16/add_1" type="Transpose" version="opset1">
			<input>
				<port id="0" precision="FP32">
					<dim>1</dim>
					<dim>2</dim>
					<dim>33</dim>
					<dim>9</dim>
					<dim>8</dim>
				</port>
				<port id="1" precision="I64">
					<dim>5</dim>
				</port>
			</input>
			<output>
				<port id="2" precision="FP32" names="complex_conv3d_16/add_1,complex_conv3d_16/add_1:0">
					<dim>1</dim>
					<dim>33</dim>
					<dim>9</dim>
					<dim>8</dim>
					<dim>2</dim>
				</port>
			</output>
		</layer>
		<layer id="384" name="complex_conv3d_16/add_1:0" type="Result" version="opset1">
			<rt_info>
				<attribute name="old_api_map_order" version="0" value="0, 4, 1, 2, 3" />
			</rt_info>
			<input>
				<port id="0" precision="FP32">
					<dim>1</dim>
					<dim>33</dim>
					<dim>9</dim>
					<dim>8</dim>
					<dim>2</dim>
				</port>
			</input>
		</layer>
	</layers>
	<edges>
		<edge from-layer="0" from-port="0" to-layer="32" to-port="0" />
		<edge from-layer="1" from-port="0" to-layer="367" to-port="0" />
		<edge from-layer="2" from-port="0" to-layer="359" to-port="0" />
		<edge from-layer="3" from-port="0" to-layer="344" to-port="0" />
		<edge from-layer="4" from-port="0" to-layer="336" to-port="0" />
		<edge from-layer="5" from-port="0" to-layer="321" to-port="0" />
		<edge from-layer="6" from-port="0" to-layer="313" to-port="0" />
		<edge from-layer="7" from-port="0" to-layer="298" to-port="0" />
		<edge from-layer="8" from-port="0" to-layer="290" to-port="0" />
		<edge from-layer="9" from-port="0" to-layer="275" to-port="0" />
		<edge from-layer="10" from-port="0" to-layer="267" to-port="0" />
		<edge from-layer="11" from-port="0" to-layer="252" to-port="0" />
		<edge from-layer="12" from-port="0" to-layer="244" to-port="0" />
		<edge from-layer="13" from-port="0" to-layer="229" to-port="0" />
		<edge from-layer="14" from-port="0" to-layer="221" to-port="0" />
		<edge from-layer="15" from-port="0" to-layer="206" to-port="0" />
		<edge from-layer="16" from-port="0" to-layer="198" to-port="0" />
		<edge from-layer="17" from-port="0" to-layer="183" to-port="0" />
		<edge from-layer="18" from-port="0" to-layer="175" to-port="0" />
		<edge from-layer="19" from-port="0" to-layer="160" to-port="0" />
		<edge from-layer="20" from-port="0" to-layer="152" to-port="0" />
		<edge from-layer="21" from-port="0" to-layer="137" to-port="0" />
		<edge from-layer="22" from-port="0" to-layer="129" to-port="0" />
		<edge from-layer="23" from-port="0" to-layer="114" to-port="0" />
		<edge from-layer="24" from-port="0" to-layer="106" to-port="0" />
		<edge from-layer="25" from-port="0" to-layer="91" to-port="0" />
		<edge from-layer="26" from-port="0" to-layer="83" to-port="0" />
		<edge from-layer="27" from-port="0" to-layer="68" to-port="0" />
		<edge from-layer="28" from-port="0" to-layer="60" to-port="0" />
		<edge from-layer="29" from-port="0" to-layer="45" to-port="0" />
		<edge from-layer="30" from-port="0" to-layer="37" to-port="0" />
		<edge from-layer="31" from-port="0" to-layer="32" to-port="1" />
		<edge from-layer="32" from-port="2" to-layer="34" to-port="0" />
		<edge from-layer="33" from-port="0" to-layer="34" to-port="1" />
		<edge from-layer="34" from-port="2" to-layer="36" to-port="0" />
		<edge from-layer="35" from-port="0" to-layer="36" to-port="1" />
		<edge from-layer="36" from-port="2" to-layer="37" to-port="1" />
		<edge from-layer="36" from-port="2" to-layer="41" to-port="0" />
		<edge from-layer="37" from-port="2" to-layer="44" to-port="0" />
		<edge from-layer="38" from-port="0" to-layer="43" to-port="0" />
		<edge from-layer="39" from-port="0" to-layer="41" to-port="1" />
		<edge from-layer="40" from-port="0" to-layer="41" to-port="2" />
		<edge from-layer="41" from-port="3" to-layer="42" to-port="1" />
		<edge from-layer="41" from-port="4" to-layer="42" to-port="0" />
		<edge from-layer="42" from-port="2" to-layer="43" to-port="1" />
		<edge from-layer="43" from-port="2" to-layer="44" to-port="1" />
		<edge from-layer="44" from-port="2" to-layer="45" to-port="1" />
		<edge from-layer="44" from-port="2" to-layer="49" to-port="0" />
		<edge from-layer="45" from-port="2" to-layer="52" to-port="0" />
		<edge from-layer="46" from-port="0" to-layer="51" to-port="0" />
		<edge from-layer="47" from-port="0" to-layer="49" to-port="1" />
		<edge from-layer="48" from-port="0" to-layer="49" to-port="2" />
		<edge from-layer="49" from-port="3" to-layer="50" to-port="1" />
		<edge from-layer="49" from-port="4" to-layer="50" to-port="0" />
		<edge from-layer="50" from-port="2" to-layer="51" to-port="1" />
		<edge from-layer="51" from-port="2" to-layer="52" to-port="1" />
		<edge from-layer="52" from-port="2" to-layer="54" to-port="0" />
		<edge from-layer="53" from-port="0" to-layer="54" to-port="1" />
		<edge from-layer="54" from-port="2" to-layer="55" to-port="0" />
		<edge from-layer="55" from-port="1" to-layer="57" to-port="0" />
		<edge from-layer="56" from-port="0" to-layer="57" to-port="1" />
		<edge from-layer="57" from-port="2" to-layer="59" to-port="0" />
		<edge from-layer="58" from-port="0" to-layer="59" to-port="1" />
		<edge from-layer="59" from-port="2" to-layer="60" to-port="1" />
		<edge from-layer="59" from-port="2" to-layer="64" to-port="0" />
		<edge from-layer="60" from-port="2" to-layer="67" to-port="0" />
		<edge from-layer="61" from-port="0" to-layer="66" to-port="0" />
		<edge from-layer="62" from-port="0" to-layer="64" to-port="1" />
		<edge from-layer="63" from-port="0" to-layer="64" to-port="2" />
		<edge from-layer="64" from-port="4" to-layer="65" to-port="0" />
		<edge from-layer="64" from-port="3" to-layer="65" to-port="1" />
		<edge from-layer="65" from-port="2" to-layer="66" to-port="1" />
		<edge from-layer="66" from-port="2" to-layer="67" to-port="1" />
		<edge from-layer="67" from-port="2" to-layer="68" to-port="1" />
		<edge from-layer="67" from-port="2" to-layer="72" to-port="0" />
		<edge from-layer="68" from-port="2" to-layer="75" to-port="0" />
		<edge from-layer="69" from-port="0" to-layer="74" to-port="0" />
		<edge from-layer="70" from-port="0" to-layer="72" to-port="1" />
		<edge from-layer="71" from-port="0" to-layer="72" to-port="2" />
		<edge from-layer="72" from-port="4" to-layer="73" to-port="0" />
		<edge from-layer="72" from-port="3" to-layer="73" to-port="1" />
		<edge from-layer="73" from-port="2" to-layer="74" to-port="1" />
		<edge from-layer="74" from-port="2" to-layer="75" to-port="1" />
		<edge from-layer="75" from-port="2" to-layer="77" to-port="0" />
		<edge from-layer="76" from-port="0" to-layer="77" to-port="1" />
		<edge from-layer="77" from-port="2" to-layer="78" to-port="0" />
		<edge from-layer="78" from-port="1" to-layer="80" to-port="0" />
		<edge from-layer="79" from-port="0" to-layer="80" to-port="1" />
		<edge from-layer="80" from-port="2" to-layer="82" to-port="0" />
		<edge from-layer="81" from-port="0" to-layer="82" to-port="1" />
		<edge from-layer="82" from-port="2" to-layer="87" to-port="0" />
		<edge from-layer="82" from-port="2" to-layer="83" to-port="1" />
		<edge from-layer="83" from-port="2" to-layer="90" to-port="0" />
		<edge from-layer="84" from-port="0" to-layer="89" to-port="0" />
		<edge from-layer="85" from-port="0" to-layer="87" to-port="1" />
		<edge from-layer="86" from-port="0" to-layer="87" to-port="2" />
		<edge from-layer="87" from-port="4" to-layer="88" to-port="0" />
		<edge from-layer="87" from-port="3" to-layer="88" to-port="1" />
		<edge from-layer="88" from-port="2" to-layer="89" to-port="1" />
		<edge from-layer="89" from-port="2" to-layer="90" to-port="1" />
		<edge from-layer="90" from-port="2" to-layer="91" to-port="1" />
		<edge from-layer="90" from-port="2" to-layer="95" to-port="0" />
		<edge from-layer="91" from-port="2" to-layer="98" to-port="0" />
		<edge from-layer="92" from-port="0" to-layer="97" to-port="0" />
		<edge from-layer="93" from-port="0" to-layer="95" to-port="1" />
		<edge from-layer="94" from-port="0" to-layer="95" to-port="2" />
		<edge from-layer="95" from-port="4" to-layer="96" to-port="0" />
		<edge from-layer="95" from-port="3" to-layer="96" to-port="1" />
		<edge from-layer="96" from-port="2" to-layer="97" to-port="1" />
		<edge from-layer="97" from-port="2" to-layer="98" to-port="1" />
		<edge from-layer="98" from-port="2" to-layer="100" to-port="0" />
		<edge from-layer="99" from-port="0" to-layer="100" to-port="1" />
		<edge from-layer="100" from-port="2" to-layer="101" to-port="0" />
		<edge from-layer="101" from-port="1" to-layer="103" to-port="0" />
		<edge from-layer="102" from-port="0" to-layer="103" to-port="1" />
		<edge from-layer="103" from-port="2" to-layer="105" to-port="0" />
		<edge from-layer="104" from-port="0" to-layer="105" to-port="1" />
		<edge from-layer="105" from-port="2" to-layer="110" to-port="0" />
		<edge from-layer="105" from-port="2" to-layer="106" to-port="1" />
		<edge from-layer="106" from-port="2" to-layer="113" to-port="0" />
		<edge from-layer="107" from-port="0" to-layer="112" to-port="0" />
		<edge from-layer="108" from-port="0" to-layer="110" to-port="1" />
		<edge from-layer="109" from-port="0" to-layer="110" to-port="2" />
		<edge from-layer="110" from-port="4" to-layer="111" to-port="0" />
		<edge from-layer="110" from-port="3" to-layer="111" to-port="1" />
		<edge from-layer="111" from-port="2" to-layer="112" to-port="1" />
		<edge from-layer="112" from-port="2" to-layer="113" to-port="1" />
		<edge from-layer="113" from-port="2" to-layer="114" to-port="1" />
		<edge from-layer="113" from-port="2" to-layer="118" to-port="0" />
		<edge from-layer="114" from-port="2" to-layer="121" to-port="0" />
		<edge from-layer="115" from-port="0" to-layer="120" to-port="0" />
		<edge from-layer="116" from-port="0" to-layer="118" to-port="1" />
		<edge from-layer="117" from-port="0" to-layer="118" to-port="2" />
		<edge from-layer="118" from-port="4" to-layer="119" to-port="0" />
		<edge from-layer="118" from-port="3" to-layer="119" to-port="1" />
		<edge from-layer="119" from-port="2" to-layer="120" to-port="1" />
		<edge from-layer="120" from-port="2" to-layer="121" to-port="1" />
		<edge from-layer="121" from-port="2" to-layer="123" to-port="0" />
		<edge from-layer="122" from-port="0" to-layer="123" to-port="1" />
		<edge from-layer="123" from-port="2" to-layer="124" to-port="0" />
		<edge from-layer="124" from-port="1" to-layer="126" to-port="0" />
		<edge from-layer="125" from-port="0" to-layer="126" to-port="1" />
		<edge from-layer="126" from-port="2" to-layer="128" to-port="0" />
		<edge from-layer="127" from-port="0" to-layer="128" to-port="1" />
		<edge from-layer="128" from-port="2" to-layer="133" to-port="0" />
		<edge from-layer="128" from-port="2" to-layer="129" to-port="1" />
		<edge from-layer="129" from-port="2" to-layer="136" to-port="0" />
		<edge from-layer="130" from-port="0" to-layer="135" to-port="0" />
		<edge from-layer="131" from-port="0" to-layer="133" to-port="1" />
		<edge from-layer="132" from-port="0" to-layer="133" to-port="2" />
		<edge from-layer="133" from-port="4" to-layer="134" to-port="0" />
		<edge from-layer="133" from-port="3" to-layer="134" to-port="1" />
		<edge from-layer="134" from-port="2" to-layer="135" to-port="1" />
		<edge from-layer="135" from-port="2" to-layer="136" to-port="1" />
		<edge from-layer="136" from-port="2" to-layer="137" to-port="1" />
		<edge from-layer="136" from-port="2" to-layer="141" to-port="0" />
		<edge from-layer="137" from-port="2" to-layer="144" to-port="0" />
		<edge from-layer="138" from-port="0" to-layer="143" to-port="0" />
		<edge from-layer="139" from-port="0" to-layer="141" to-port="1" />
		<edge from-layer="140" from-port="0" to-layer="141" to-port="2" />
		<edge from-layer="141" from-port="4" to-layer="142" to-port="0" />
		<edge from-layer="141" from-port="3" to-layer="142" to-port="1" />
		<edge from-layer="142" from-port="2" to-layer="143" to-port="1" />
		<edge from-layer="143" from-port="2" to-layer="144" to-port="1" />
		<edge from-layer="144" from-port="2" to-layer="146" to-port="0" />
		<edge from-layer="145" from-port="0" to-layer="146" to-port="1" />
		<edge from-layer="146" from-port="2" to-layer="147" to-port="0" />
		<edge from-layer="147" from-port="1" to-layer="149" to-port="0" />
		<edge from-layer="148" from-port="0" to-layer="149" to-port="1" />
		<edge from-layer="149" from-port="2" to-layer="151" to-port="0" />
		<edge from-layer="150" from-port="0" to-layer="151" to-port="1" />
		<edge from-layer="151" from-port="2" to-layer="152" to-port="1" />
		<edge from-layer="151" from-port="2" to-layer="156" to-port="0" />
		<edge from-layer="152" from-port="2" to-layer="159" to-port="0" />
		<edge from-layer="153" from-port="0" to-layer="158" to-port="0" />
		<edge from-layer="154" from-port="0" to-layer="156" to-port="1" />
		<edge from-layer="155" from-port="0" to-layer="156" to-port="2" />
		<edge from-layer="156" from-port="4" to-layer="157" to-port="0" />
		<edge from-layer="156" from-port="3" to-layer="157" to-port="1" />
		<edge from-layer="157" from-port="2" to-layer="158" to-port="1" />
		<edge from-layer="158" from-port="2" to-layer="159" to-port="1" />
		<edge from-layer="159" from-port="2" to-layer="160" to-port="1" />
		<edge from-layer="159" from-port="2" to-layer="164" to-port="0" />
		<edge from-layer="160" from-port="2" to-layer="167" to-port="0" />
		<edge from-layer="161" from-port="0" to-layer="166" to-port="0" />
		<edge from-layer="162" from-port="0" to-layer="164" to-port="1" />
		<edge from-layer="163" from-port="0" to-layer="164" to-port="2" />
		<edge from-layer="164" from-port="4" to-layer="165" to-port="0" />
		<edge from-layer="164" from-port="3" to-layer="165" to-port="1" />
		<edge from-layer="165" from-port="2" to-layer="166" to-port="1" />
		<edge from-layer="166" from-port="2" to-layer="167" to-port="1" />
		<edge from-layer="167" from-port="2" to-layer="169" to-port="0" />
		<edge from-layer="168" from-port="0" to-layer="169" to-port="1" />
		<edge from-layer="169" from-port="2" to-layer="170" to-port="0" />
		<edge from-layer="170" from-port="1" to-layer="172" to-port="0" />
		<edge from-layer="171" from-port="0" to-layer="172" to-port="1" />
		<edge from-layer="172" from-port="2" to-layer="174" to-port="0" />
		<edge from-layer="173" from-port="0" to-layer="174" to-port="1" />
		<edge from-layer="174" from-port="2" to-layer="179" to-port="0" />
		<edge from-layer="174" from-port="2" to-layer="175" to-port="1" />
		<edge from-layer="175" from-port="2" to-layer="182" to-port="0" />
		<edge from-layer="176" from-port="0" to-layer="181" to-port="0" />
		<edge from-layer="177" from-port="0" to-layer="179" to-port="1" />
		<edge from-layer="178" from-port="0" to-layer="179" to-port="2" />
		<edge from-layer="179" from-port="3" to-layer="180" to-port="1" />
		<edge from-layer="179" from-port="4" to-layer="180" to-port="0" />
		<edge from-layer="180" from-port="2" to-layer="181" to-port="1" />
		<edge from-layer="181" from-port="2" to-layer="182" to-port="1" />
		<edge from-layer="182" from-port="2" to-layer="187" to-port="0" />
		<edge from-layer="182" from-port="2" to-layer="183" to-port="1" />
		<edge from-layer="183" from-port="2" to-layer="190" to-port="0" />
		<edge from-layer="184" from-port="0" to-layer="189" to-port="0" />
		<edge from-layer="185" from-port="0" to-layer="187" to-port="1" />
		<edge from-layer="186" from-port="0" to-layer="187" to-port="2" />
		<edge from-layer="187" from-port="4" to-layer="188" to-port="0" />
		<edge from-layer="187" from-port="3" to-layer="188" to-port="1" />
		<edge from-layer="188" from-port="2" to-layer="189" to-port="1" />
		<edge from-layer="189" from-port="2" to-layer="190" to-port="1" />
		<edge from-layer="190" from-port="2" to-layer="192" to-port="0" />
		<edge from-layer="191" from-port="0" to-layer="192" to-port="1" />
		<edge from-layer="192" from-port="2" to-layer="193" to-port="0" />
		<edge from-layer="193" from-port="1" to-layer="195" to-port="0" />
		<edge from-layer="194" from-port="0" to-layer="195" to-port="1" />
		<edge from-layer="195" from-port="2" to-layer="197" to-port="0" />
		<edge from-layer="196" from-port="0" to-layer="197" to-port="1" />
		<edge from-layer="197" from-port="2" to-layer="202" to-port="0" />
		<edge from-layer="197" from-port="2" to-layer="198" to-port="1" />
		<edge from-layer="198" from-port="2" to-layer="205" to-port="0" />
		<edge from-layer="199" from-port="0" to-layer="204" to-port="0" />
		<edge from-layer="200" from-port="0" to-layer="202" to-port="1" />
		<edge from-layer="201" from-port="0" to-layer="202" to-port="2" />
		<edge from-layer="202" from-port="3" to-layer="203" to-port="1" />
		<edge from-layer="202" from-port="4" to-layer="203" to-port="0" />
		<edge from-layer="203" from-port="2" to-layer="204" to-port="1" />
		<edge from-layer="204" from-port="2" to-layer="205" to-port="1" />
		<edge from-layer="205" from-port="2" to-layer="210" to-port="0" />
		<edge from-layer="205" from-port="2" to-layer="206" to-port="1" />
		<edge from-layer="206" from-port="2" to-layer="213" to-port="0" />
		<edge from-layer="207" from-port="0" to-layer="212" to-port="0" />
		<edge from-layer="208" from-port="0" to-layer="210" to-port="1" />
		<edge from-layer="209" from-port="0" to-layer="210" to-port="2" />
		<edge from-layer="210" from-port="3" to-layer="211" to-port="1" />
		<edge from-layer="210" from-port="4" to-layer="211" to-port="0" />
		<edge from-layer="211" from-port="2" to-layer="212" to-port="1" />
		<edge from-layer="212" from-port="2" to-layer="213" to-port="1" />
		<edge from-layer="213" from-port="2" to-layer="215" to-port="0" />
		<edge from-layer="214" from-port="0" to-layer="215" to-port="1" />
		<edge from-layer="215" from-port="2" to-layer="216" to-port="0" />
		<edge from-layer="216" from-port="1" to-layer="218" to-port="0" />
		<edge from-layer="217" from-port="0" to-layer="218" to-port="1" />
		<edge from-layer="218" from-port="2" to-layer="220" to-port="0" />
		<edge from-layer="219" from-port="0" to-layer="220" to-port="1" />
		<edge from-layer="220" from-port="2" to-layer="225" to-port="0" />
		<edge from-layer="220" from-port="2" to-layer="221" to-port="1" />
		<edge from-layer="221" from-port="2" to-layer="228" to-port="0" />
		<edge from-layer="222" from-port="0" to-layer="227" to-port="0" />
		<edge from-layer="223" from-port="0" to-layer="225" to-port="1" />
		<edge from-layer="224" from-port="0" to-layer="225" to-port="2" />
		<edge from-layer="225" from-port="3" to-layer="226" to-port="1" />
		<edge from-layer="225" from-port="4" to-layer="226" to-port="0" />
		<edge from-layer="226" from-port="2" to-layer="227" to-port="1" />
		<edge from-layer="227" from-port="2" to-layer="228" to-port="1" />
		<edge from-layer="228" from-port="2" to-layer="229" to-port="1" />
		<edge from-layer="228" from-port="2" to-layer="233" to-port="0" />
		<edge from-layer="229" from-port="2" to-layer="236" to-port="0" />
		<edge from-layer="230" from-port="0" to-layer="235" to-port="0" />
		<edge from-layer="231" from-port="0" to-layer="233" to-port="1" />
		<edge from-layer="232" from-port="0" to-layer="233" to-port="2" />
		<edge from-layer="233" from-port="3" to-layer="234" to-port="1" />
		<edge from-layer="233" from-port="4" to-layer="234" to-port="0" />
		<edge from-layer="234" from-port="2" to-layer="235" to-port="1" />
		<edge from-layer="235" from-port="2" to-layer="236" to-port="1" />
		<edge from-layer="236" from-port="2" to-layer="238" to-port="0" />
		<edge from-layer="237" from-port="0" to-layer="238" to-port="1" />
		<edge from-layer="238" from-port="2" to-layer="239" to-port="0" />
		<edge from-layer="239" from-port="1" to-layer="241" to-port="0" />
		<edge from-layer="240" from-port="0" to-layer="241" to-port="1" />
		<edge from-layer="241" from-port="2" to-layer="243" to-port="0" />
		<edge from-layer="242" from-port="0" to-layer="243" to-port="1" />
		<edge from-layer="243" from-port="2" to-layer="248" to-port="0" />
		<edge from-layer="243" from-port="2" to-layer="244" to-port="1" />
		<edge from-layer="244" from-port="2" to-layer="251" to-port="0" />
		<edge from-layer="245" from-port="0" to-layer="250" to-port="0" />
		<edge from-layer="246" from-port="0" to-layer="248" to-port="1" />
		<edge from-layer="247" from-port="0" to-layer="248" to-port="2" />
		<edge from-layer="248" from-port="4" to-layer="249" to-port="0" />
		<edge from-layer="248" from-port="3" to-layer="249" to-port="1" />
		<edge from-layer="249" from-port="2" to-layer="250" to-port="1" />
		<edge from-layer="250" from-port="2" to-layer="251" to-port="1" />
		<edge from-layer="251" from-port="2" to-layer="256" to-port="0" />
		<edge from-layer="251" from-port="2" to-layer="252" to-port="1" />
		<edge from-layer="252" from-port="2" to-layer="259" to-port="0" />
		<edge from-layer="253" from-port="0" to-layer="258" to-port="0" />
		<edge from-layer="254" from-port="0" to-layer="256" to-port="1" />
		<edge from-layer="255" from-port="0" to-layer="256" to-port="2" />
		<edge from-layer="256" from-port="3" to-layer="257" to-port="1" />
		<edge from-layer="256" from-port="4" to-layer="257" to-port="0" />
		<edge from-layer="257" from-port="2" to-layer="258" to-port="1" />
		<edge from-layer="258" from-port="2" to-layer="259" to-port="1" />
		<edge from-layer="259" from-port="2" to-layer="261" to-port="0" />
		<edge from-layer="260" from-port="0" to-layer="261" to-port="1" />
		<edge from-layer="261" from-port="2" to-layer="262" to-port="0" />
		<edge from-layer="262" from-port="1" to-layer="264" to-port="0" />
		<edge from-layer="263" from-port="0" to-layer="264" to-port="1" />
		<edge from-layer="264" from-port="2" to-layer="266" to-port="0" />
		<edge from-layer="265" from-port="0" to-layer="266" to-port="1" />
		<edge from-layer="266" from-port="2" to-layer="271" to-port="0" />
		<edge from-layer="266" from-port="2" to-layer="267" to-port="1" />
		<edge from-layer="267" from-port="2" to-layer="274" to-port="0" />
		<edge from-layer="268" from-port="0" to-layer="273" to-port="0" />
		<edge from-layer="269" from-port="0" to-layer="271" to-port="1" />
		<edge from-layer="270" from-port="0" to-layer="271" to-port="2" />
		<edge from-layer="271" from-port="3" to-layer="272" to-port="1" />
		<edge from-layer="271" from-port="4" to-layer="272" to-port="0" />
		<edge from-layer="272" from-port="2" to-layer="273" to-port="1" />
		<edge from-layer="273" from-port="2" to-layer="274" to-port="1" />
		<edge from-layer="274" from-port="2" to-layer="279" to-port="0" />
		<edge from-layer="274" from-port="2" to-layer="275" to-port="1" />
		<edge from-layer="275" from-port="2" to-layer="282" to-port="0" />
		<edge from-layer="276" from-port="0" to-layer="281" to-port="0" />
		<edge from-layer="277" from-port="0" to-layer="279" to-port="1" />
		<edge from-layer="278" from-port="0" to-layer="279" to-port="2" />
		<edge from-layer="279" from-port="3" to-layer="280" to-port="1" />
		<edge from-layer="279" from-port="4" to-layer="280" to-port="0" />
		<edge from-layer="280" from-port="2" to-layer="281" to-port="1" />
		<edge from-layer="281" from-port="2" to-layer="282" to-port="1" />
		<edge from-layer="282" from-port="2" to-layer="284" to-port="0" />
		<edge from-layer="283" from-port="0" to-layer="284" to-port="1" />
		<edge from-layer="284" from-port="2" to-layer="285" to-port="0" />
		<edge from-layer="285" from-port="1" to-layer="287" to-port="0" />
		<edge from-layer="286" from-port="0" to-layer="287" to-port="1" />
		<edge from-layer="287" from-port="2" to-layer="289" to-port="0" />
		<edge from-layer="288" from-port="0" to-layer="289" to-port="1" />
		<edge from-layer="289" from-port="2" to-layer="290" to-port="1" />
		<edge from-layer="289" from-port="2" to-layer="294" to-port="0" />
		<edge from-layer="290" from-port="2" to-layer="297" to-port="0" />
		<edge from-layer="291" from-port="0" to-layer="296" to-port="0" />
		<edge from-layer="292" from-port="0" to-layer="294" to-port="1" />
		<edge from-layer="293" from-port="0" to-layer="294" to-port="2" />
		<edge from-layer="294" from-port="4" to-layer="295" to-port="0" />
		<edge from-layer="294" from-port="3" to-layer="295" to-port="1" />
		<edge from-layer="295" from-port="2" to-layer="296" to-port="1" />
		<edge from-layer="296" from-port="2" to-layer="297" to-port="1" />
		<edge from-layer="297" from-port="2" to-layer="302" to-port="0" />
		<edge from-layer="297" from-port="2" to-layer="298" to-port="1" />
		<edge from-layer="298" from-port="2" to-layer="305" to-port="0" />
		<edge from-layer="299" from-port="0" to-layer="304" to-port="0" />
		<edge from-layer="300" from-port="0" to-layer="302" to-port="1" />
		<edge from-layer="301" from-port="0" to-layer="302" to-port="2" />
		<edge from-layer="302" from-port="3" to-layer="303" to-port="1" />
		<edge from-layer="302" from-port="4" to-layer="303" to-port="0" />
		<edge from-layer="303" from-port="2" to-layer="304" to-port="1" />
		<edge from-layer="304" from-port="2" to-layer="305" to-port="1" />
		<edge from-layer="305" from-port="2" to-layer="307" to-port="0" />
		<edge from-layer="306" from-port="0" to-layer="307" to-port="1" />
		<edge from-layer="307" from-port="2" to-layer="308" to-port="0" />
		<edge from-layer="308" from-port="1" to-layer="310" to-port="0" />
		<edge from-layer="309" from-port="0" to-layer="310" to-port="1" />
		<edge from-layer="310" from-port="2" to-layer="312" to-port="0" />
		<edge from-layer="311" from-port="0" to-layer="312" to-port="1" />
		<edge from-layer="312" from-port="2" to-layer="313" to-port="1" />
		<edge from-layer="312" from-port="2" to-layer="317" to-port="0" />
		<edge from-layer="313" from-port="2" to-layer="320" to-port="0" />
		<edge from-layer="314" from-port="0" to-layer="319" to-port="0" />
		<edge from-layer="315" from-port="0" to-layer="317" to-port="1" />
		<edge from-layer="316" from-port="0" to-layer="317" to-port="2" />
		<edge from-layer="317" from-port="3" to-layer="318" to-port="1" />
		<edge from-layer="317" from-port="4" to-layer="318" to-port="0" />
		<edge from-layer="318" from-port="2" to-layer="319" to-port="1" />
		<edge from-layer="319" from-port="2" to-layer="320" to-port="1" />
		<edge from-layer="320" from-port="2" to-layer="321" to-port="1" />
		<edge from-layer="320" from-port="2" to-layer="325" to-port="0" />
		<edge from-layer="321" from-port="2" to-layer="328" to-port="0" />
		<edge from-layer="322" from-port="0" to-layer="327" to-port="0" />
		<edge from-layer="323" from-port="0" to-layer="325" to-port="1" />
		<edge from-layer="324" from-port="0" to-layer="325" to-port="2" />
		<edge from-layer="325" from-port="4" to-layer="326" to-port="0" />
		<edge from-layer="325" from-port="3" to-layer="326" to-port="1" />
		<edge from-layer="326" from-port="2" to-layer="327" to-port="1" />
		<edge from-layer="327" from-port="2" to-layer="328" to-port="1" />
		<edge from-layer="328" from-port="2" to-layer="330" to-port="0" />
		<edge from-layer="329" from-port="0" to-layer="330" to-port="1" />
		<edge from-layer="330" from-port="2" to-layer="331" to-port="0" />
		<edge from-layer="331" from-port="1" to-layer="333" to-port="0" />
		<edge from-layer="332" from-port="0" to-layer="333" to-port="1" />
		<edge from-layer="333" from-port="2" to-layer="335" to-port="0" />
		<edge from-layer="334" from-port="0" to-layer="335" to-port="1" />
		<edge from-layer="335" from-port="2" to-layer="336" to-port="1" />
		<edge from-layer="335" from-port="2" to-layer="340" to-port="0" />
		<edge from-layer="336" from-port="2" to-layer="343" to-port="0" />
		<edge from-layer="337" from-port="0" to-layer="342" to-port="0" />
		<edge from-layer="338" from-port="0" to-layer="340" to-port="1" />
		<edge from-layer="339" from-port="0" to-layer="340" to-port="2" />
		<edge from-layer="340" from-port="4" to-layer="341" to-port="0" />
		<edge from-layer="340" from-port="3" to-layer="341" to-port="1" />
		<edge from-layer="341" from-port="2" to-layer="342" to-port="1" />
		<edge from-layer="342" from-port="2" to-layer="343" to-port="1" />
		<edge from-layer="343" from-port="2" to-layer="348" to-port="0" />
		<edge from-layer="343" from-port="2" to-layer="344" to-port="1" />
		<edge from-layer="344" from-port="2" to-layer="351" to-port="0" />
		<edge from-layer="345" from-port="0" to-layer="350" to-port="0" />
		<edge from-layer="346" from-port="0" to-layer="348" to-port="1" />
		<edge from-layer="347" from-port="0" to-layer="348" to-port="2" />
		<edge from-layer="348" from-port="4" to-layer="349" to-port="0" />
		<edge from-layer="348" from-port="3" to-layer="349" to-port="1" />
		<edge from-layer="349" from-port="2" to-layer="350" to-port="1" />
		<edge from-layer="350" from-port="2" to-layer="351" to-port="1" />
		<edge from-layer="351" from-port="2" to-layer="353" to-port="0" />
		<edge from-layer="352" from-port="0" to-layer="353" to-port="1" />
		<edge from-layer="353" from-port="2" to-layer="354" to-port="0" />
		<edge from-layer="354" from-port="1" to-layer="356" to-port="0" />
		<edge from-layer="355" from-port="0" to-layer="356" to-port="1" />
		<edge from-layer="356" from-port="2" to-layer="358" to-port="0" />
		<edge from-layer="357" from-port="0" to-layer="358" to-port="1" />
		<edge from-layer="358" from-port="2" to-layer="359" to-port="1" />
		<edge from-layer="358" from-port="2" to-layer="363" to-port="0" />
		<edge from-layer="359" from-port="2" to-layer="366" to-port="0" />
		<edge from-layer="360" from-port="0" to-layer="365" to-port="0" />
		<edge from-layer="361" from-port="0" to-layer="363" to-port="1" />
		<edge from-layer="362" from-port="0" to-layer="363" to-port="2" />
		<edge from-layer="363" from-port="3" to-layer="364" to-port="1" />
		<edge from-layer="363" from-port="4" to-layer="364" to-port="0" />
		<edge from-layer="364" from-port="2" to-layer="365" to-port="1" />
		<edge from-layer="365" from-port="2" to-layer="366" to-port="1" />
		<edge from-layer="366" from-port="2" to-layer="367" to-port="1" />
		<edge from-layer="366" from-port="2" to-layer="371" to-port="0" />
		<edge from-layer="367" from-port="2" to-layer="374" to-port="0" />
		<edge from-layer="368" from-port="0" to-layer="373" to-port="0" />
		<edge from-layer="369" from-port="0" to-layer="371" to-port="1" />
		<edge from-layer="370" from-port="0" to-layer="371" to-port="2" />
		<edge from-layer="371" from-port="4" to-layer="372" to-port="0" />
		<edge from-layer="371" from-port="3" to-layer="372" to-port="1" />
		<edge from-layer="372" from-port="2" to-layer="373" to-port="1" />
		<edge from-layer="373" from-port="2" to-layer="374" to-port="1" />
		<edge from-layer="374" from-port="2" to-layer="376" to-port="0" />
		<edge from-layer="375" from-port="0" to-layer="376" to-port="1" />
		<edge from-layer="376" from-port="2" to-layer="377" to-port="0" />
		<edge from-layer="377" from-port="1" to-layer="379" to-port="0" />
		<edge from-layer="378" from-port="0" to-layer="379" to-port="1" />
		<edge from-layer="379" from-port="2" to-layer="381" to-port="0" />
		<edge from-layer="380" from-port="0" to-layer="381" to-port="1" />
		<edge from-layer="381" from-port="2" to-layer="383" to-port="0" />
		<edge from-layer="382" from-port="0" to-layer="383" to-port="1" />
		<edge from-layer="383" from-port="2" to-layer="384" to-port="0" />
	</edges>
	<rt_info>
		<MO_version value="2023.1.0-12185-9e6b00e51cd-releases/2023/1" />
		<Runtime_version value="2023.1.0-12185-9e6b00e51cd-releases/2023/1" />
		<conversion_parameters>
			<input value="inputs" />
			<input_model value="DIR/DenoiseModel_128hz_8lead_1s.pb" />
			<input_shape value="[1,33,9,8,2]" />
			<is_python_api_used value="False" />
			<output value="complex_conv3d_16/add_1" />
			<output_dir value="DIR" />
			<use_legacy_frontend value="True" />
		</conversion_parameters>
		<legacy_frontend value="True" />
	</rt_info>
</net>
